lightning_logs/version_24/checkpoints/epoch=9-step=500.ckpt (torch, 689390 bytes, 33 tensors)

model.param_proj.proj.0.weight f4 [1, 64]
000000 82 bc ac 3e 88 57 1a be d5 3a 33 be de c3 44 3e
       0.3373757 -0.15072453 -0.17502911 0.19215342
000010 02 70 1c 3e e6 b8 14 be 3e 4f 66 be 50 26 86 3e
       0.15277103 -0.14523658 -0.22491166 0.26201105
000020 cb 31 92 3e 47 aa b8 bd 55 46 a2 3d fc 12 47 3e
       0.28553614 -0.09016853 0.07923571 0.19440836
000030 b9 e3 a4 3e 6a 5a b5 bd 0a 7e ff 3d ad 08 1e 3e
       0.3220499 -0.08855136 0.12475212 0.15432997
000040 4d ba e7 bc 88 79 13 be 48 69 91 3d cf 8c 82 3d
       -0.028287077 -0.14401829 0.07100159 0.06374513
000050 02 a2 c7 3c fc 56 73 bd ec bc 0b 3e 0f 97 86 3d
       0.024369244 -0.059409127 0.13646287 0.06571781
000060 c2 1e 56 3d 4b bb fe bb 0a 9c c0 3d d7 bb 0c bd
       0.052275427 -0.007773792 0.09404762 -0.034358826
000070 6d f3 1c 3e ed 59 d6 bd 6b a9 80 3d 1f 8f 22 3e
       0.15327235 -0.10466371 0.06282314 0.15874909
000080 6f f2 6f be 59 0e db 3d 1b 61 9a 3d a1 4b a1 bd
       -0.23432325 0.10696096 0.07538053 -0.07875753
000090 60 60 85 be df af 7e be 6f 05 48 bd 74 74 94 bd
       -0.2605009 -0.24871777 -0.048833307 -0.07248774
0000a0 eb 6a 9a be 16 a0 4f bd 96 4d e8 3b 9d 89 9c bd
       -0.30159697 -0.05068978 0.007089327 -0.07643435
0000b0 64 3e 3c 3e 7f 50 38 be 54 91 10 3d fe f6 39 be
       0.18383175 -0.17999457 0.035294846 -0.18160626
0000c0 04 6a 48 be 2c da 99 3d d6 b8 8f 3d ad 05 7b 3e
       -0.19571692 0.07512316 0.070176765 0.24513884
0000d0 9d 40 9a bd 83 ce dc 3d 16 10 a9 be cd 32 50 bb
       -0.07531855 0.107815765 -0.33020085 -0.003176856
0000e0 fb 2c 81 be c9 d4 90 3d ce da 63 3d 0a 5c 84 be
       -0.2522963 0.070718355 0.05562859 -0.2585147
0000f0 ae c2 58 bd d8 03 35 be 0c ef 4d bd 56 3d b6 3d
       -0.052920036 -0.17677248 -0.0502768 0.08898418

model.param_proj.proj.1.weight f4 [1, 64]
000000 e8 e4 38 3d ba 8c dc 3d 12 80 cb bd b4 d2 a7 bc
       0.045140177 0.10769029 -0.09936537 -0.020486213
000010 ad 09 dc bd 07 0d ca bb 3f c6 4f bd c6 ad f8 39
       -0.10744033 -0.0061661038 -0.05072617 0.00047431717
000020 e2 4b c8 3c f7 f6 34 3d 98 5f 92 bd d9 e2 cf 3c
       0.024450246 0.044180837 -0.07147139 0.025376724
000030 9d 50 d8 3d 3a 13 30 bd 16 7a 8f bd 2a 63 6e 3d
       0.10562251 -0.042987086 -0.07005708 0.05820004
000040 99 eb a9 3c ae 1e 9b 3d 1f f1 0e be 65 d1 e7 3c
       0.020742225 0.07574211 -0.13959168 0.02829809
000050 3d d9 10 be 92 97 63 bc 28 af e7 3c 65 1c 76 3d
       -0.1414537 -0.013891118 0.028281763 0.060085673
000060 0d 77 08 be 04 40 18 bc 0e ba ea 3d 6c 1a 7e 3d
       -0.13326664 -0.009292606 0.11461268 0.062036917
000070 40 fb 8f bd ce a4 02 be 29 c3 03 3d 0b 87 1a be
       -0.07030344 -0.1275818 0.03216854 -0.15090577
000080 3a db 97 bd 73 ca e4 bd c1 63 98 3d c8 58 fb 3d
       -0.07414861 -0.111714266 0.074409015 0.12272793
000090 a0 00 8c 3c d7 36 05 be ce 0d 83 3d 8c 0a 00 3d
       0.017090142 -0.13009201 0.063991174 0.03126006
0000a0 81 35 81 bd 19 4c a9 3d 90 0c 65 bd af a4 e7 bb
       -0.06309033 0.082664676 -0.055920184 -0.0070691924
0000b0 58 60 6b 3d a4 ba 19 3c 47 bd c5 bc 55 8b ff bb
       0.057464927 0.0093828775 -0.024138106 -0.007798592
0000c0 a9 fa a6 bd 82 f5 8f bd 8b 4b 2d 3d 66 18 2d 3d
       -0.081532784 -0.07029249 0.04230837 0.042259596
0000d0 fd 7d 92 3d 7a f2 d5 3d 58 0e b9 bc 21 cd 61 3d
       0.071529366 0.10446639 -0.022589847 0.055127267
0000e0 29 fc 55 ba b7 ad 1c 3d 86 6c f6 bd 29 e7 db bd
       -0.000816288 0.038251605 -0.12032418 -0.1073745
0000f0 2b 40 d6 bd 68 2d b3 bd 72 ff 05 bd 64 2e db bb
       -0.10461458 -0.08748895 -0.032714315 -0.00668888

model.param_proj.proj.2.weight f4 [1, 64]
000000 28 74 25 be 88 09 55 3e 81 b7 c9 3d 6a 55 9c bd
       -0.16157591 0.20804417 0.09849454 -0.07633479
000010 12 1c ec bd d6 ba b2 bc 67 f6 d5 bc ce 7d 3a be
       -0.115287915 -0.021817606 -0.02611847 -0.18212053
000020 23 81 2d be af 4a 49 bd 73 ce a3 3c 83 db 31 bd
       -0.16943793 -0.04914349 0.019995904 -0.043422233
000030 5b 71 6c 3d cf cf 29 bd 62 f1 69 be fc db 22 bd
       0.05772529 -0.041457947 -0.22845986 -0.039760575
000040 46 9d 26 be db 1d a0 3d 5e 3c 78 3d fd a2 2c be
       -0.16270933 0.078181945 0.060604446 -0.1685905
000050 d9 40 30 be 0c 6a 00 be 09 cc 1e be 8c 00 37 be
       -0.17212237 -0.12540454 -0.1550752 -0.17871302
000060 f4 4c e7 bd 94 98 0e be 07 f3 cc bd 1e 11 0e be
       -0.112939745 -0.13925391 -0.10007291 -0.13873717
000070 7b 30 9d bd 25 07 03 3e 0b 50 0b 3e a7 27 c7 3c
       -0.076752625 0.12795694 0.13604753 0.0243109
000080 82 d1 e4 3d bb a5 9d bd bb d6 3e be 39 53 3d 3d
       0.11172773 -0.07697626 -0.186366 0.046221945
000090 73 6b 1e 3e df 99 26 3e 8b bf 9c bd d1 48 da bd
       0.15470676 0.16269635 -0.076537214 -0.1065842
0000a0 a9 a4 6b 3d 9a 09 ec bc 41 38 2f bb 2b d0 07 3e
       0.05753008 -0.028813172 -0.002673641 0.13263004
0000b0 62 91 21 be b8 7d 07 3d 65 5b af 3c b4 37 9b 3e
       -0.15778115 0.03307888 0.021405885 0.30315936
0000c0 78 15 29 3e 97 d1 11 3e c2 a2 df 3c b8 5b 78 be
       0.16512096 0.14240108 0.027299289 -0.24253738
0000d0 6a 5e 2a be ea 89 34 3d 92 2f 97 3d 5c c5 6c 3e
       -0.16637579 0.044076838 0.0738212 0.23122162
0000e0 aa d2 10 3e d2 41 10 bd ae 58 f7 3d fa 61 f3 3c
       0.14142862 -0.03521902 0.12077461 0.029709805
0000f0 0f 0c 40 bd c1 bf 3d 3d 9f 3b 16 be 55 c8 20 3d
       -0.0468865 0.04632545 -0.14671181 0.03925355

model.rnn.weight_ih_l0 f4 [256, 21]
000000 c3 7d 66 3d a2 2f 2e 3e 26 be 97 3d 6b 02 fc 3d
       0.05627228 0.17010358 0.07409315 0.12305149
000010 7e 04 19 3e 0c 93 93 bd c2 73 8d bd 24 3e 8f bd
       0.1494312 -0.07205781 -0.06906845 -0.06994274
000020 b9 35 02 3d 66 ef ad 3d 86 56 13 3d 1c ef 29 3e
       0.031789515 0.08492927 0.035971187 0.16595119
000030 81 3b 63 3c 30 dc a7 3d e7 c1 15 3d 93 9a e9 3d
       0.013869167 0.08196294 0.036561873 0.11406436
000040 f8 73 1f 3e 97 6f a1 3a 0d 54 d2 3d 31 66 54 be
       0.15571582 0.0012316582 0.10269938 -0.20742108
000050 55 27 4f bd 9d df 22 3b f3 21 9c 3d 90 56 42 bd
       -0.05057462 0.0024852522 0.07623663 -0.047445834
000060 d5 0b 93 3d d2 94 0b 3c f8 32 07 3e d1 43 0f 3e
       0.07179991 0.008519368 0.13203037 0.13990714
000070 25 d8 ce bc 92 ac 8f bd 7c a1 bf 3d f3 2d 29 3d
       -0.02524955 -0.07015337 0.093569726 0.041303586
000080 17 4b f6 3d 25 96 c3 bd 90 cc e6 3c b4 4d 0d 3d
       0.12026041 -0.09550122 0.028173715 0.03449793
000090 0c 8d c6 bd 88 11 9e bd e4 aa 5f bd e6 d8 6c bc
       -0.09694871 -0.077181876 -0.054606333 -0.0144560095
0000a0 35 0c 86 3e ba 06 91 3d 8a 19 dc 3d c9 f3 1d 3e
       0.26181188 0.07081361 0.10747059 0.15425028
0000b0 54 da 31 3d c8 eb f0 bc e1 68 78 3d 8e 2e 7c bd
       0.043421105 -0.029409304 0.060646895 -0.061567836
0000c0 fa a9 16 3d 78 68 a5 bd 7d 6f 55 3c c8 97 3c bd
       0.036783196 -0.080765665 0.013027069 -0.046043187
0000d0 43 dc 01 be b2 f5 e0 3d 34 fa 45 3d 67 dc 8a 3d
       -0.1268168 0.10984363 0.048334315 0.0678032
0000e0 85 bd 05 3e 40 00 8f bd 1e 24 1a 3e dc 42 0a 3d
       0.13060577 -0.069824696 0.1505284 0.03375517
0000f0 cc ea 23 3e 7f 86 41 3e 79 a4 ac 3d 6a ad 46 3d
       0.16007537 0.18898962 0.08429808 0.048505224
000100 f0 15 7a bd 3e 4d 92 3c 58 10 33 bc 2c 9e c6 3d
       -0.061056077 0.017859098 -0.01092919 0.09698138
000110 a4 8a 08 be 1b fb f1 bd 0a 77 d3 3d 6c c6 0b bd
       -0.13334137 -0.11815473 0.10325439 -0.034124777
000120 de a9 0d bd ad cc 3d bd aa 6f 00 bd 42 4e 03 be
       -0.034585826 -0.046337772 -0.03135649 -0.12822822
000130 1c 7f 45 3c bf 3f e0 bc 87 18 1f bd ce 73 99 3d
       0.012054231 -0.027374147 -0.03884175 0.07492791
000140 d3 c2 bb 3b b2 dc 62 bd 95 2c 73 3e 35 6c 9f 3d
       0.005730012 -0.055386253 0.23747475 0.07784311
000150 36 b3 d7 3d e3 e5 59 3e 50 9c 77 3d 38 01 aa 3c
       0.10532229 0.21279101 0.060451806 0.020752534
000160 09 88 cd 3d 26 28 39 bc bf a8 5b 3e ca 99 14 3e
       0.10035712 -0.011301076 0.2145109 0.14511791
000170 01 e5 cf 3d 6c 96 53 bc 2c 03 f3 3c 92 44 16 3e
       0.10151101 -0.012914281 0.029664598 0.14674595
000180 a9 5c 37 3e b3 c5 3f 3e 5e d5 d0 3d 4c a2 73 b9
       0.17906441 0.1872776 0.101969466 -0.00023234746
000190 28 06 f0 3c 6d 7c d4 3b 9c 4b f2 3c 37 66 23 be
       0.02929981 0.0064845593 0.029577069 -0.1595696
0001a0 c5 15 9d 3d f8 59 30 3e 35 43 4a 3d 48 07 39 3e
       0.07670168 0.1722182 0.0493805 0.18069184
0001b0 04 9b 0d 3d 3f 0f b1 bc 8f 47 1c bd c9 9a a1 3d
       0.034571663 -0.021613715 -0.03815418 0.07890851
0001c0 b5 d0 38 3e 5b 76 14 3e e6 2c a9 ba ac a4 bb 3b
       0.18048365 0.14498274 -0.0012907058 0.0057264175
0001d0 08 9a 3d bc b6 cb a7 bd 05 cd ad 3d 3c bf 41 bc
       -0.011572368 -0.08193152 0.0848637 -0.011825379
0001e0 57 84 0c 3d 8b da a7 3d 12 1a 77 3d 78 1c d9 3c
       0.034305897 0.08195981 0.060327597 0.026502833
0001f0 36 26 47 be 5b 38 9d 3c a5 21 1a 3e d4 e0 0c 3e
       -0.1944817 0.019191911 0.15051897 0.1375764
000200 a7 50 dd 3d 2b 92 59 bd d6 61 a8 3d 36 eb 92 bc
       0.10806399 -0.053117912 0.08221786 -0.017934423
000210 39 4f 21 3d d8 d7 bc 3b 3d e7 6d 3e 17 d3 01 3e
       0.039382193 0.0057630353 0.23232742 0.1267818
000220 3c 7b c5 3d b0 f4 c5 3d 73 3c 08 bd 8c 4d 4c 3d
       0.09642646 0.09665811 -0.033260774 0.049878642
000230 ba c9 f9 3d 82 a2 66 3d f5 18 49 3e 04 02 1d bd
       0.121966794 0.056307323 0.19638427 -0.038332
000240 15 f7 3b 3d b7 8b 9d 3c 88 43 1f 3e 46 f4 b6 3d
       0.045889933 0.01923166 0.15553105 0.0893331
000250 b3 c9 ab 3d 9f ec 23 3e 5d d7 b2 3d 35 89 23 bd
       0.083880804 0.16008233 0.087324835 -0.039925773
000260 2c 25 4c 3e 7a 0f 0b 3d ad 7c f9 3d af 86 2b 3e
       0.19936055 0.033950306 0.12181983 0.16750596
000270 4d 0c d2 3d 35 52 2f 3e 7a 00 03 3e 79 25 d6 3d
       0.102562524 0.17121203 0.1279315 0.10456366
000280 70 20 c5 3c 2f 66 a0 bc c3 8b b4 3d d4 fb 51 3e
       0.024063319 -0.019579975 0.0881572 0.20506221
000290 e4 97 be bc eb e9 34 bc 27 e3 87 be 77 a3 33 3e
       -0.023265786 -0.0110420985 -0.2654049 0.17542826
0002a0 43 c3 3b bd 92 69 ee bc 9f 94 92 bc 2a b0 0b bd
       -0.045840513 -0.029103074 -0.017893134 -0.03410355
0002b0 56 ec ae bd 83 c3 3b 3d 40 9f cc 3d e1 8e be 3d
       -0.08541171 0.04584075 0.09991312 0.09304596
0002c0 ed 60 9f bd a5 07 d2 bb e1 62 32 bd ed 40 79 3d
       -0.07782159 -0.0064096027 -0.04355133 0.060852934
0002d0 01 98 ef 3d cc 90 f1 3d f2 9d 8a 3c 22 b7 d5 3d
       0.11698914 0.11795196 0.016921017 0.104353204
0002e0 17 07 8e ba 33 a2 87 bd 3b 9e 1b 3d 48 d6 a7 be
       -0.0010835853 -0.06622734 0.037992697 -0.3278067
0002f0 74 34 86 3d 25 04 4f 3d fd ee 54 bd 4e c3 21 3d
       0.065529734 0.050541062 -0.05198573 0.039492898
000300 e7 24 e1 bb e2 ca b8 3c 37 42 d1 3d 6a 6e 7e bd
       -0.006870854 0.02255768 0.102177076 -0.062117018
000310 e4 d0 3b 3e c2 3c 25 3d 09 23 c8 3d b1 f7 b0 bb
       0.18341404 0.040341146 0.097723074 -0.005400621
000320 9d 4f 87 3d ff 0a cb 3d 3d e6 a8 3b 16 d5 cc 3d
       0.06606982 0.09914207 0.0051543997 0.100015804
000330 64 3f 39 3c f3 be eb 3d 09 25 92 3d 39 a3 44 bc
       0.011306617 0.1151103 0.0713597 -0.012001806
000340 73 b7 54 3e 3f 6c 69 bd 47 3c 83 ba 2a 2d 6d 3d
       0.20773105 -0.056987997 -0.0010012471 0.0579044
000350 71 40 41 bd 61 fa 5d bd 39 15 09 3d 7f cc 20 bd
       -0.047180597 -0.054193858 0.033467505 -0.039257523
000360 f8 19 43 3c 1c 74 b1 3d 5c 34 d8 3b d9 58 08 3d
       0.011908047 0.08664724 0.0065980386 0.033287857
000370 60 4b 0d bd 78 02 f5 3b dc 73 9f bd a9 5d 50 3d
       -0.03449571 0.007477101 -0.0778577 0.05087057
000380 54 ff aa 3b d1 bb bc 3d b0 b0 15 3e b1 3a e9 bc
       0.0052184258 0.09215511 0.14618182 -0.028470369
000390 22 88 8c 3d 09 49 0d 3e 52 9b 8e bc 81 fb b1 bc
       0.06861903 0.13797392 -0.017408047 -0.021726372
0003a0 65 da cf bb 1a 99 84 bc 8c 3c 12 3e 53 00 8a bd
       -0.0063431733 -0.016186286 0.1428091 -0.06738343
0003b0 49 14 b3 3d 1d ff c0 3c c8 64 10 3e 0b 8e 8e 3b
       0.087441035 0.023559147 0.14100945 0.004350429
0003c0 87 34 6b bd 5d 4d b0 3d 97 66 8f bd a9 70 ce bd
       -0.05742314 0.08608506 -0.07001989 -0.10080082
0003d0 d3 fb fd 3d a9 09 f4 3d f3 71 89 bc a6 a8 19 bd
       0.12401547 0.11915905 -0.016777968 -0.03751435
0003e0 64 e4 55 3d a4 36 71 bc 66 79 ee bc 34 39 89 3d
       0.052219763 -0.0147225 -0.029110622 0.06700364
0003f0 a5 5e 95 3d 9a c2 d7 3d 2f 63 5c 3e d1 78 3c 3e
       0.07293443 0.10535164 0.2152221 0.18405463

model.rnn.weight_hh_l0 f4 [256, 64]
000000 61 06 31 3d 75 12 e5 3c b6 2a f0 bc 3f c3 6c 3c
       0.043218974 0.027962903 -0.029317241 0.014450847
000010 87 d7 eb bd 64 da 69 3d b1 de d3 3d 94 88 39 bd
       -0.11515718 0.05709304 0.103452094 -0.045296267
000020 05 f4 1a 3c 81 fd 4b 3c 30 d6 64 3d 72 e7 ad bd
       0.009457593 0.012450577 0.055868328 -0.0849141
000030 29 b3 90 be 94 c8 b2 3d 9a 01 b8 bd 72 92 8f 3d
       -0.28261688 0.087296635 -0.089846805 0.07010354
000040 48 33 c9 bd 33 4b 03 bc 2d 0d 6b bd d4 4e 83 3d
       -0.09824234 -0.008013534 -0.057385612 0.0641152
000050 bd 0f f4 bd 09 3e 12 be 10 d7 0b 3e e8 c0 08 3e
       -0.11917064 -0.14281477 0.13656259 0.13354838
000060 89 36 f5 bb 4f 74 92 bd cf 1e 54 3d 30 0c cf 3d
       -0.0074833077 -0.0715109 0.051787194 0.101097465
000070 cf 92 bf 3d 13 f1 bd 3d 93 9a f9 3d 9b 31 0a 3e
       0.093541734 0.09274497 0.12187686 0.13495485
000080 53 69 e3 3c f1 05 0d 3e 8c a3 ef bd 7b bf 56 bd
       0.027760183 0.13771798 -0.11701116 -0.052428704
000090 17 f3 e0 3d a7 4f ef 3b c5 95 e4 3d 20 10 31 3b
       0.10983866 0.0073031965 0.11161379 0.0027017668
0000a0 be 9a 02 3e c5 4c de 3d 60 85 54 3e b1 3a 06 bd
       0.12754342 0.108544864 0.20754004 -0.032770816
0000b0 86 2b 35 3d ba eb 40 be 3e 4c b1 3c be 04 d5 3a
       0.04423096 -0.18839923 0.0216428 0.0016252024
0000c0 1b d8 18 3e 31 13 28 3d 8c 7e 6a bc f0 ea ad bd
       0.14926188 0.041033927 -0.014312398 -0.084920764
0000d0 08 6b 00 be ec 87 2c 3d b3 f4 ed 3d 35 eb ac bd
       -0.12540829 0.042121813 0.11618938 -0.084433
0000e0 7c 80 c8 3d 9a fd ba bb 00 96 11 3e 97 a4 84 bd
       0.097901314 -0.005706501 0.14217377 -0.064767055
0000f0 c0 17 f6 3d 11 f6 01 be 16 e0 c3 3d b4 dd a9 bd
       0.12016249 -0.12691523 0.095642254 -0.0829424
000100 4e 4f 6b 3d df d7 a4 3d 74 07 62 bd c6 ee fc 3d
       0.057448678 0.08048987 -0.05518289 0.1235023
000110 bf a9 fc 3a fd 94 04 3c 97 f5 3e 3c 53 94 b7 3d
       0.0019276662 0.008092162 0.011655233 0.089638375
000120 21 79 ab 3d 61 a3 e8 3d 0a 15 84 3d dc 68 fa 3d
       0.08372713 0.11359287 0.064493254 0.122270316
000130 a4 69 02 3d 8e b7 29 be f4 ed 99 bc fd b9 b6 3c
       0.031839028 -0.16573927 -0.018790223 0.022305483
000140 0d cd 80 3d 18 b0 87 3d f0 96 b1 bd e3 ef e1 3d
       0.0628911 0.06625384 -0.08671367 0.11032083
000150 9d 9f 5c 3d 2c 08 3c 3d 31 66 a6 3d 71 f0 0f 3d
       0.053863157 0.04590623 0.0812496 0.035141412
000160 19 7a aa 3d 9e 7a 2f bd 30 cd cc bd 7a 0a a9 bb
       0.083240695 -0.042841546 -0.10000074 -0.0051587196
000170 91 fb 18 be 97 c7 3d bd d7 1c 8e 3d c2 34 0d be
       -0.14939715 -0.04633292 0.069390945 -0.13789657
000180 f1 59 24 bd 8e 41 19 be a6 c7 fb 3b ce 40 ab 3d
       -0.040124837 -0.14966413 0.007683712 0.0836197
000190 cf 88 db 3c a0 27 01 be 8a 0d 86 bd c7 f9 d6 bd
       0.026798634 -0.12612772 -0.06545551 -0.1049686
0001a0 1d c0 77 bc 36 2f 95 bd 7c b4 8c bd 7c 91 5e bd
       -0.015121487 -0.072843954 -0.06870362 -0.054337963
0001b0 e3 d0 cb 3d ad b2 07 bd c9 55 91 3d 64 f6 c0 ba
       0.09951951 -0.033129383 0.0709644 -0.0014721868
0001c0 c2 7a 84 bd 62 3e 73 3d e5 55 32 bc c9 7c 30 3d
       -0.06468727 0.059385665 -0.010884737 0.043087754
0001d0 40 e4 4e bd 69 ae d7 bd 24 a3 4b 3e 66 dd d3 bc
       -0.050510645 -0.10531313 0.19886452 -0.025862407
0001e0 c8 ce a6 3d e7 34 d8 3d b1 85 36 bd bc 2d 41 3c
       0.08144909 0.10556965 -0.04456109 0.011790689
0001f0 4d 3d 93 bd f0 d4 5d 3d b4 ef d6 bc d2 61 a2 bd
       -0.071894266 0.05415815 -0.026237346 -0.07928814
000200 3f e9 50 3d 1e 4c e9 bd 05 b5 1a 3d 38 d7 ca bc
       0.05100369 -0.11391471 0.03777029 -0.024760827
000210 f4 a1 6c bd d8 72 b1 3d 4f 8f 17 3d 88 ac 89 bc
       -0.057771638 0.08664483 0.037001904 -0.016805902
000220 67 16 ad 3b 0c a0 ad 3d 42 e6 7b bd 64 71 07 be
       0.0052822116 0.08477792 -0.061498888 -0.13226849
000230 dd 7c 8f be b3 f5 02 be 54 a7 bd 3d fc bd c9 3d
       -0.2802495 -0.1278904 0.09260431 0.0985069
000240 95 d5 e2 bc d6 8b 2c 3d 6f 3e a8 bc dd d7 e5 3d
       -0.027689734 0.042125545 -0.020537583 0.11222813
000250 ef d1 e3 bb d1 ea 92 bd 0e df 45 bd 1d 08 22 3d
       -0.0069525163 -0.07173694 -0.048308425 0.03955852
000260 34 ee c9 bc 96 52 ee 3d d5 9e bc 3d 78 14 cb 3d
       -0.024649717 0.11636846 0.09209982 0.099160135
000270 e2 f9 00 be 32 26 a5 bd a3 cf a3 3c fc 40 c9 bd
       -0.12595323 -0.08063926 0.01999647 -0.09826848
000280 c3 6f 44 bd a2 2a 06 be eb e4 1d bd f0 1e 96 bd
       -0.047958147 -0.131022 -0.03854839 -0.073301196
000290 b0 28 4c 3b ed 5b 9d 3d 63 59 c2 3d 5e ea e9 3d
       0.0031152181 0.07683549 0.094897054 0.11421655
0002a0 69 11 3e 3c d6 f2 f7 3d f7 34 19 be 40 46 fb bd
       0.011600831 0.12106864 -0.1496161 -0.122692585
0002b0 a2 5b d7 bc 47 42 46 bd a8 e6 a2 3d 0b 21 2d 3d
       -0.026288811 -0.04840305 0.079541504 0.04226784
0002c0 af b4 7b 3c 28 a8 84 bd f9 e0 7d bb 8a 3f 04 3e
       0.015362903 -0.06477386 -0.003873883 0.12914863
0002d0 0e 9d b2 3d c6 24 51 3c aa 0d 12 3e bc 05 68 bd
       0.08721362 0.012765115 0.14263025 -0.056646094
0002e0 d0 9b 10 b8 41 22 93 bc 1d 36 3b 3d 57 7c ac 3b
       -3.4477387e-05 -0.01796067 0.045705903 0.005263846
0002f0 8c 2c e0 bd b2 e1 06 be 4a c4 33 bd 76 0f da 3d
       -0.10945997 -0.13172033 -0.043888368 0.1064748
000300 bd 25 2b 3c 4e 4c ee 3d ef c3 30 bd e4 51 5e 3c
       0.010446009 0.11635648 -0.043155607 0.013569329
000310 8f 47 73 3d 7f eb 9f bd ed 82 2a 3d ac cd 99 3d
       0.059394415 -0.07808589 0.041628767 0.07509932
000320 a3 03 34 3c aa 76 2b 3d c6 e4 30 3c e2 10 ff bc
       0.010987195 0.041861214 0.010796731 -0.03113598
000330 ac 83 b3 bd 5f c9 1e bd da 5f 8e 3d 98 8c a0 bd
       -0.08765349 -0.03876626 0.06951876 -0.07839316
000340 ff 93 8c 3d 07 31 86 3d c2 d3 a3 bd b9 1d a1 bd
       0.068641655 0.0655232 -0.07999374 -0.07866997
000350 22 4f 22 bd 3b e8 70 bc c2 15 9d 3d 4b 89 c8 3a
       -0.03962625 -0.014703806 0.076701656 0.0015299706
000360 e7 99 e4 bd 31 ab ce 3d c7 53 27 bd ab 47 e2 bd
       -0.11162167 0.10091246 -0.04085138 -0.11048826
000370 32 47 2d be d8 89 eb bc 78 f3 ff 3d 87 26 81 3d
       -0.1692169 -0.028752252 0.1249761 0.06306177
000380 fe a0 94 39 90 16 7d bc d3 8d b4 bd 0e 00 48 3d
       0.00028348708 -0.015447274 -0.08816113 0.048828177
000390 f8 4e c7 3c 59 ba fd bd a2 9d c6 bd ed 60 2d 3d
       0.024329647 -0.123890586 -0.09698035 0.042328764
0003a0 f0 30 4c ba 9c 26 bd bd cd f4 74 3d b3 3c 86 3d
       -0.00077892747 -0.0923588 0.059803773 0.06554546
0003b0 83 fc ee bd 08 c3 d2 bc 9d ff c1 bc 97 76 c4 3d
       -0.116692565 -0.025727764 -0.023681456 0.09592932
0003c0 38 75 42 be 7d 2f 4a bd 7e 9e 8c 3c 0c d7 b5 bd
       -0.18990028 -0.049361695 0.017165419 -0.088789076
0003d0 cd d1 ca 3d b1 d6 47 bd fb 3a 75 3d 1b 2e fa bc
       0.099032976 -0.04878873 0.0598707 -0.030539563
0003e0 0f 88 93 bd 80 07 a0 bc f0 6c 0e bd c1 1c 35 bd
       -0.072036855 -0.019534826 -0.03477186 -0.044216875
0003f0 6c 29 85 3d 45 4e 0d be 71 7c a1 3b eb 73 97 3d
       0.06502041 -0.13799389 0.0049281646 0.073951565

model.rnn.bias_ih_l0 f4 [256]
000000 fd cb 23 3e 94 84 77 ba 97 71 4d 3d a4 c6 e3 bd
       0.15995784 -0.0009442058 0.050157156 -0.11121872
000010 8c 74 66 3e c2 b3 04 3e 42 e7 23 3e ec 7d ec 3c
       0.22505397 0.12959197 0.16006187 0.028868638
000020 39 ba 81 bb aa 7e 36 3e ee 01 32 3d 5d 15 cd 3c
       -0.003958967 0.17821756 0.04345887 0.0250346
000030 df 29 86 3d 0a a6 d0 3d f6 a9 aa 3d aa 31 27 3e
       0.06550955 0.101879194 0.08333199 0.16327539
000040 41 5e 06 3e bc 0d 0b 3d 57 62 0f 3e ce 43 22 bd
       0.13121893 0.033948645 0.14002357 -0.039615445
000050 99 56 fb 3c 8b 0c 95 bc 48 e3 85 3d 04 01 11 3e
       0.030680941 -0.018194458 0.06537491 0.14160544
000060 4a 15 1e 3e c5 87 2d 3d 6d 94 52 3d 79 a0 0a bc
       0.15437809 0.042365808 0.05141108 -0.008461111
000070 58 e0 05 3d d2 06 45 3e 02 5a 9b 3d 17 54 1d 3e
       0.032684654 0.19240883 0.07585527 0.15364109
000080 e2 23 91 3d 4c 52 94 3e 35 6c 2b 3e 8b c4 a0 3d
       0.07086922 0.28969038 0.16740496 0.078499876
000090 ed bc d0 3d 15 d9 7f bd d4 b0 32 3e b6 0e 1a bc
       0.10192285 -0.062462885 0.17450267 -0.009402921
0000a0 f8 65 28 3e 39 ab a9 3d bc 0e 7c bc 10 17 cd bc
       0.16445148 0.08284611 -0.015384372 -0.025035411
0000b0 83 87 4c bd 97 0c 85 3e cd 9d 24 3d d4 f9 1c 3e
       -0.04993392 0.25986168 0.040189553 0.15329677
0000c0 7a 11 e4 3c cd 41 22 3d f1 d7 1b 3d bc 5e 04 3e
       0.027840365 0.039613534 0.038047735 0.12926763
0000d0 30 83 fb 39 91 a0 05 3e e2 b0 0b 3e 33 91 f7 bc
       0.00047972193 0.13049532 0.13641694 -0.030220604
0000e0 7a 29 99 bd 54 17 46 3c 6d 02 8f bd 89 eb 12 bd
       -0.07478614 0.012090523 -0.069828846 -0.035869155
0000f0 99 8b 29 bd 5a f3 4c 3d 9e 07 45 3e a4 81 89 3d
       -0.041392896 0.050036766 0.19241187 0.0671418
000100 7b 89 45 bd 41 7e 27 3d 14 b4 db bd db c8 9e bd
       -0.048226815 0.04089189 -0.107277066 -0.07753154
000110 22 6e 09 3d 95 1e fa bc e6 46 04 be be 3d a3 bd
       0.033552296 -0.03053216 -0.1291767 -0.07970761
000120 05 d3 c4 bd e2 9c ff 3d 0d 6c 37 3d 5f d7 04 3e
       -0.09610561 0.12481095 0.04478078 0.12972783
000130 c5 42 51 bd 3f eb 1e 3e ea 50 36 bc 72 7f b8 bc
       -0.051089067 0.15519427 -0.01112769 -0.022521708
000140 ba 0f ad 3d 0a dd e1 bd 02 de 21 bd e6 04 17 3e
       0.08450265 -0.11028488 -0.039518364 0.14747962
000150 0c e4 77 bd 37 1c 9e 3d 78 48 79 bd 19 96 e6 3d
       -0.060520217 0.07720225 -0.060860127 0.112590976
000160 f5 05 e2 3d 55 09 d8 3d 42 07 aa bc dd 14 0d bd
       0.110362925 0.10548655 -0.020755414 -0.034443725
000170 17 10 88 3d a6 9c a1 3d f6 ee b3 3b 1a 2a 87 bd
       0.06643694 0.078912064 0.005491133 -0.06599827
000180 d0 7f 08 bd 89 bd e8 bd f8 ea 0e 3e b5 9b 20 bd
       -0.033325016 -0.11364276 0.13956821 -0.039210994
000190 72 16 c6 bc f3 0c 17 bd e1 ff a2 3c 3c 91 90 bd
       -0.024180625 -0.036877584 0.019897403 -0.07058951
0001a0 94 cb 0e 3e 7f 13 63 bc 20 21 77 3c 53 37 6e bd
       0.13944846 -0.013859629 0.015083581 -0.05815823
0001b0 a1 56 bf 3d b5 c4 69 3d 9e 01 45 3d 86 e7 12 3e
       0.09342695 0.05707236 0.048097245 0.14346132
0001c0 9f c6 a0 bd cf 96 39 bd ae b9 9d 3a 7f 5b b2 3b
       -0.07850384 -0.045309838 0.0012033486 0.005443036
0001d0 d9 90 8b 3d db f2 b7 3d 88 3a bb bd 40 56 13 3e
       0.06814737 0.08981868 -0.09142023 0.1438837
0001e0 a4 08 81 3d 2b 3f 23 3d fe 23 6d 3c d6 9a d8 bc
       0.06300476 0.039855164 0.014473913 -0.026441019
0001f0 58 26 fe bc 92 c2 da 3d cf 30 f8 bd 62 f4 30 3d
       -0.031024143 0.106816426 -0.121186845 0.04320181
000200 b3 3a 04 be 7c 81 f6 3d 5d f9 04 3e 28 b4 00 3d
       -0.12913017 0.12036416 0.1298575 0.03142181
000210 cc dd 28 bb 78 4f 0b 3d 83 ff 52 3c 95 50 1e bd
       -0.0025766967 0.034011334 0.012878302 -0.038651068
000220 51 35 dd bd b0 37 26 bd 15 b6 12 3e 0e 35 6a 3d
       -0.10801185 -0.04058045 0.14327271 0.057179503
000230 cd a3 9c bd 28 b8 ac bd eb 05 b1 3d 38 49 6e 3c
       -0.0764843 -0.084335625 0.08643707 0.014543824
000240 21 61 3e be 2b f3 d1 bb 67 80 e5 bd 83 87 dc 3b
       -0.18591739 -0.0064071617 -0.112061314 0.0067300214
000250 5c 8e fa bd ef f2 d9 3d f5 ac 1a bd 11 21 ad 3d
       -0.12234184 0.10642039 -0.0377626 0.084535725
000260 c0 95 67 bd 89 b0 5d bc 27 de 89 bd 90 89 2b 3d
       -0.056539297 -0.013530859 -0.06731825 0.041879237
000270 4f 53 d6 bd 07 19 e9 3c 7b 66 e3 bd a5 e8 b9 3d
       -0.104651086 0.028454317 -0.11103531 0.090775765
000280 c2 e4 84 bd fb 79 94 3d 76 55 1b 3d 9e 59 c1 3d
       -0.064889446 0.072498284 0.0379233 0.09440921
000290 3c 8c 2a 3e 7f 0e 0c bc 34 22 1f 3e 62 51 0c 3c
       0.16655058 -0.008548378 0.15540391 0.008564325
0002a0 07 7b 3c be b5 7b 3a 3d 6b 30 a9 3d 46 2d c9 bc
       -0.18406306 0.045528132 0.08261188 -0.02455772
0002b0 7f 91 dd bc da 99 d2 bd 7c d2 92 3c b5 a8 c2 3d
       -0.027046917 -0.10283251 0.017922632 0.095048346
0002c0 a1 59 f1 3d 0c 00 d5 3d a5 46 1b 3d 0c 09 bf bd
       0.117846735 0.104003996 0.03790917 -0.093278974
0002d0 76 4b eb 3c 70 a0 e5 bd 29 27 67 3c b4 66 db 3d
       0.028722506 -0.11212242 0.014108458 0.107129484
0002e0 90 13 d0 3c ad 68 34 be 19 a0 a6 bd 88 42 a8 3d
       0.025399953 -0.17618056 -0.08136005 0.08215815
0002f0 98 4d 14 bd 31 cb 31 3e 00 d0 a4 bd 81 4b 04 3c
       -0.03620681 0.17362668 -0.08047485 0.008074642
000300 dc ef 09 3e e7 1c 1d bd 77 b4 c5 3d 37 d9 b5 3d
       0.13470405 -0.03835764 0.096535616 0.08879321
000310 dc d1 6d 3c 92 11 98 3c ac ab 30 3d 97 b8 06 bb
       0.014515366 0.018563066 0.04313247 -0.0020556801
000320 bf 31 e2 3d c0 f1 6c bd 86 7e 87 bc 41 76 e8 3d
       0.110446446 -0.05784774 -0.016539823 0.1135068
000330 45 3b 3e 3e c1 bd 30 3e f6 69 45 3d 54 0b 34 bb
       0.18577297 0.17259885 0.048196755 -0.0027472572
000340 54 03 72 bd c7 e9 85 3d 15 1c 0b 3e f0 07 80 bd
       -0.059085205 0.0653873 0.13584931 -0.06251514
000350 87 ca 30 3d 65 92 e8 3d 3b 93 10 3e 77 fa 98 3d
       0.043161895 0.113560475 0.14118664 0.074696474
000360 1d d3 b1 3c 12 a2 f4 3d 5d 57 d2 3d 14 3c e6 bc
       0.021707112 0.11944975 0.102705695 -0.02810482
000370 52 c6 8c 3d 42 b1 42 3e 3d 7e 56 3c 5b 56 d4 3d
       0.06873764 0.19012931 0.013091621 0.103680335
000380 ed 49 86 3e 07 8a 17 3e fd e7 2a 3e ef fa 1e 3e
       0.26228276 0.14798747 0.16690059 0.15525411
000390 4b 88 cc 3c 96 a3 c5 3d 8e d1 f9 3d 56 d1 55 3c
       0.024967333 0.09650342 0.121981725 0.013050398
0003a0 3a a2 a9 3b 82 12 80 3d 30 b1 82 bc 11 15 10 3e
       0.0051768096 0.0625353 -0.01595363 0.14070536
0003b0 9a 95 77 3c 51 9f 4f 3e 6d ea f9 3d 49 2d d7 bc
       0.015111351 0.20275618 0.12202916 -0.02626671
0003c0 ef fb 3d bc e0 73 4e 3d fe 44 50 3c 95 f4 b2 3d
       -0.01159571 0.050403476 0.0127117615 0.087380566
0003d0 23 27 37 bc b9 7b bd 3d cc a6 0c 3e 4a e7 98 bd
       -0.0111787645 0.09252114 0.13735503 -0.0746599
0003e0 e7 b3 32 3d 3a 98 ee bb 2d 8d 88 bc 23 6c 1e 3e
       0.0436286 -0.0072813304 -0.01666888 0.15470938
0003f0 d2 6a 0a 3e 29 74 51 bc 9a 61 8a 3c e0 29 59 3d
       0.13517311 -0.012784042 0.016892243 0.05301845

model.rnn.bias_hh_l0 f4 [256]
000000 2e 4f b3 3c 2e b7 26 bd 4d b3 6b bd e3 5d 95 3d
       0.021888342 -0.040702038 -0.05754404 0.07293298
000010 69 bf 54 3d 07 52 05 3c 7a 92 13 3e b7 e6 9d 3d
       0.051940355 0.008137233 0.14411345 0.07710021
000020 bd 22 ee 3c d8 c1 35 3d a5 21 bc 3d 12 0a cc bc
       0.029069299 0.044374317 0.09186105 -0.024907146
000030 d5 ac bb 3d 14 4e 72 3e 59 1d 6e 3e ee 6d f7 3c
       0.091638245 0.23662597 0.23253383 0.030203786
000040 9b bb 86 3c 9a c4 63 3d c7 b5 06 bd 9d 12 2b 3c
       0.01644688 0.055607416 -0.0328882 0.0104414495
000050 fc 39 b5 bd 82 13 fe 3d d6 b5 42 3e 3f de a4 3b
       -0.0884895 0.124060646 0.19014677 0.0050313766
000060 81 e7 04 3d 6c 4d 45 3e 3c 0a 6c bd 14 c1 96 bd
       0.03244734 0.19267815 -0.057626948 -0.073610455
000070 25 c7 32 3e d2 ba 07 3e f3 89 28 3c 3c 6b 1c 3e
       0.1745878 0.1325486 0.010286796 0.15275282
000080 86 6c 02 3d cb 16 2a 3e 2f 4d e9 3d 8e b1 80 bc
       0.031841777 0.16610257 0.11391675 -0.015709665
000090 18 2d 10 3e be 01 ce 3d b3 a1 32 3d aa 6b 3b bd
       0.14079702 0.10058926 0.04361124 -0.045756973
0000a0 e9 39 4a 3e 88 c3 34 3e fb d8 95 3d ad a8 bc 3d
       0.19748653 0.17652714 0.07316776 0.0921186
0000b0 36 67 92 3d 87 22 f7 3d c7 76 2f 3d 03 c2 d4 3d
       0.07148592 0.120671324 0.042837884 0.10388567
0000c0 7a 29 4d 3a 22 70 29 bc 9a 77 b4 bd ca 99 27 3e
       0.000782631 -0.010341676 -0.08811875 0.1636726
0000d0 15 c6 12 3e c3 83 b7 3d a1 5b fe b7 43 bb 98 bd
       0.14333375 0.089606784 -3.0321828e-05 -0.07457592
0000e0 e3 06 fe 3d ec 25 35 3e 95 5e b2 3d 79 c6 6e 3d
       0.12403657 0.17690247 0.08709446 0.058294747
0000f0 e3 f8 00 3e 29 01 6e 3e 5f fd 2c 3e d7 15 7b bc
       0.12594943 0.2324263 0.16893528 -0.015325031
000100 3d de b3 3d 05 5e a3 bd 9e fb eb 3d 8a 56 f3 bd
       0.08782623 -0.07976917 0.115226015 -0.118817404
000110 44 b4 b4 3d dd 24 ab bc 7b b8 c8 3c 4e c8 58 3d
       0.088234454 -0.020891601 0.02450203 0.0529254
000120 43 d8 af 3d 56 20 58 bd d6 ef 01 bd 2c 7e a2 bd
       0.085861705 -0.052765213 -0.031722866 -0.079342216
000130 76 88 9e 3d 1f c0 a2 3c 5b 74 f7 3c bf cd 78 3d
       0.077408716 0.019867001 0.03020685 0.06074309
000140 cb b8 55 bc 5e 0c 85 3d a5 1b 7e bd 4c af ee 3d
       -0.013044546 0.064964995 -0.062038083 0.11654529
000150 b6 e2 f9 bd 7e cb 33 3d 95 3f 1a 3e 92 6b 06 bd
       -0.12201445 0.043895237 0.15063317 -0.03281743
000160 21 1c 49 bb 84 7b 89 bd 74 18 14 bd 0f b3 8d bd
       -0.0030686932 -0.06713012 -0.036156133 -0.06918918
000170 85 e8 d5 bd 00 ec c7 3d 20 ee 1d 3e a9 ee b8 3d
       -0.1044474 0.0976181 0.15422869 0.09029896
000180 75 7f 32 3e f2 0b 42 be 84 b8 c9 3d 9e 88 fc 3d
       0.17431433 -0.1894987 0.09849647 0.12330745
000190 86 21 05 3e 3c 7f e7 3c cd f1 d1 3d 36 cc c3 bc
       0.1300107 0.028258912 0.10251198 -0.023901086
0001a0 85 d3 ae 3d 2b 66 a5 3d 92 74 76 3d 8e 8c 25 3d
       0.08536438 0.080761276 0.060169764 0.040417247
0001b0 2f 93 41 bd 87 cd 4c bb 23 aa 01 bd f9 6a 00 bd
       -0.047259506 -0.0031250434 -0.031656396 -0.031352017
0001c0 c5 2b 16 bc f2 72 3f 3d 09 1b 13 bc 91 cd c5 3d
       -0.009165709 0.04674048 -0.008978614 0.09658349
0001d0 8b 49 d5 3d d6 2d e1 3d a5 0f f9 3c c9 51 31 3d
       0.10414418 0.10995071 0.030402968 0.043290887
0001e0 0d fc 97 bd 76 69 85 bc 8e f8 9a 3d 35 40 09 3e
       -0.07421122 -0.01628564 0.07566939 0.134034
0001f0 de 97 c9 bc bd 76 3c 3e c8 80 5e bd 9c 93 13 3d
       -0.024608549 0.1840467 -0.054322034 0.036029443
000200 ce d1 5e bc cf d1 13 3e 08 ac 01 3e c4 f3 89 bc
       -0.013599826 0.14435504 0.12663281 -0.01683987
000210 25 6a 1c 3d ff d2 78 bd ec 15 e6 bc 52 0b 05 3e
       0.038187165 -0.060748097 -0.028086625 0.129926
000220 cb fb 8b bc ae 68 33 bd 7e bb 44 3d c2 ee 1e bc
       -0.017087838 -0.043801002 0.04803037 -0.009700479
000230 97 5e a6 bd 9f c7 fd bd 61 3b c5 bd bf b1 56 3e
       -0.0812351 -0.1239159 -0.09630466 0.20966242
000240 fe f3 cb 3b 57 03 2e 3c 7d c9 2d 3c 0f 37 b0 3c
       0.0062241545 0.0106209135 0.010607121 0.021510629
000250 b5 5d 21 be 79 cd 12 bc 5b ed a8 3c fa 86 d9 bd
       -0.15758403 -0.008960121 0.020620992 -0.10621448
000260 4b 98 bf bd 64 14 b0 bd 54 f8 9f bd 56 04 48 bd
       -0.093552195 -0.08597639 -0.07811037 -0.04883226
000270 56 2b f4 3c ea 25 9d bd 8d 3d 2b be ce b2 83 bd
       0.02980582 -0.07673247 -0.16722699 -0.06430589
000280 8e eb 32 bb 60 a9 29 3d a9 cf 48 3d 4c 5b d0 bc
       -0.0027301046 0.041421294 0.049026165 -0.025434159
000290 b1 89 9c 3c d7 91 fb 3d 2c 5d 8f bc 4b a1 80 bb
       0.019108625 0.12283676 -0.017500482 -0.0039254776
0002a0 31 ac dd 3c b2 8e 1f be 15 7f f3 bc 72 7d e1 3d
       0.027059646 -0.15581778 -0.029723683 0.11010255
0002b0 d6 66 2d bc e9 7b d7 bd ff 2e d9 bd 63 9f cf 3d
       -0.0105836 -0.10521681 -0.10604667 0.101378225
0002c0 33 6e 8a 3d ac 48 a0 bc 9f 35 50 3d a5 93 d9 bd
       0.067593 -0.019565903 0.050832387 -0.10623864
0002d0 17 b1 b4 3d 7a 60 f9 bd 15 ab c8 3c 9a fa ae bb
       0.0882284 -0.121766046 0.02449564 -0.0053399326
0002e0 04 33 da 3d 77 a1 ae bc df ae 25 bd fd b7 77 bd
       0.10654262 -0.021317227 -0.040449973 -0.0604782
0002f0 6f f9 32 be 10 04 bd 3c 72 3d 06 3a b0 ff 25 be
       -0.17477964 0.023073226 0.00051208504 -0.16210818
000300 ad 0d b9 3c dd 44 8d 3d 87 5e dd bc 50 45 58 3c
       0.022589529 0.068979 -0.027022613 0.013200119
000310 e4 ef 94 3d 92 60 3a 3e a9 aa c0 3d ed 11 75 3c
       0.07272318 0.18200901 0.09407551 0.014957887
000320 05 1f e7 3d ac ac 09 3e 2f 62 00 3e c9 b0 e7 3d
       0.112852134 0.13444775 0.12537454 0.11313016
000330 00 10 17 3e 74 03 54 3e 6f 05 2b 3e c4 2d b1 3d
       0.14752197 0.20704442 0.16701292 0.08651307
000340 43 b2 f9 3d ec db b8 3d 52 8a 74 3d e7 31 4c 3d
       0.12192204 0.09026322 0.059702225 0.049852278
000350 e2 7c 0b 3d 9b a9 8a bd db 89 97 3d f8 eb 18 3e
       0.034054644 -0.06770631 0.07399341 0.14933765
000360 ad 96 fc bc 45 80 f8 3a 1f 82 29 3e 04 60 fb bc
       -0.030833567 0.0018959126 0.16553544 -0.030685432
000370 4b 2b 3e bc 1e d7 49 bd b7 0c b7 bd 5f 60 c2 bd
       -0.011607002 -0.049277417 -0.08937972 -0.094910376
000380 41 0e 1c 3e 86 75 7e 3e 96 5d 3f bb cf 04 a1 bd
       0.15239812 0.24849519 -0.0029200069 -0.07862245
000390 16 43 de 3d 88 9a a2 3d a9 3b 11 3e 69 25 2d bd
       0.108526394 0.07939631 0.14182915 -0.042272005
0003a0 12 ef 5c bd 15 3b 2b 3e 88 14 e5 3d 3e 02 81 bb
       -0.053938933 0.16721757 0.11185557 -0.003937035
0003b0 9f 9f 64 ba de 01 3e 3e 0c ba 4a 3d 72 71 37 bd
       -0.0008721295 0.185554 0.049493834 -0.044785924
0003c0 5c 0b 24 3e cc 2d 98 bd 5d 7c 94 3d a6 b5 2e bd
       0.16019958 -0.0743061 0.07250283 -0.042653702
0003d0 c8 b4 87 bc a1 ba fc 3d cd 9c 8a bd 67 d9 db bc
       -0.016565695 0.12340284 -0.067681886 -0.026837064
0003e0 41 23 3a 3d 63 e7 df bc da a6 d7 3d cb 2d 98 bd
       0.045443777 -0.027332013 0.10529871 -0.07430609
0003f0 54 ba ad 3d 63 74 f9 3d d2 ec 83 bd 54 68 01 3e
       0.08482805 0.12180402 -0.06441654 0.12637454

model.rnn.weight_ih_l1 f4 [256, 64]
000000 52 b5 d6 bc 00 b1 56 bd cd 82 1e bd 95 32 69 3c
       -0.026209507 -0.052414894 -0.03869896 0.014233251
000010 d3 ec e3 3b 6d fc 9f 3d b2 d0 25 3e b7 f2 5d 39
       0.006955722 0.07811818 0.16192892 0.0002116662
000020 db 0c 80 3d 41 ea 82 bd bd bf b8 3c 26 8d 01 3e
       0.06252452 -0.06392337 0.022552365 0.126515
000030 9a 64 aa be 8b b2 2f 3d 87 f9 69 bd 07 27 dd bb
       -0.33279878 0.04289488 -0.057122733 -0.006749037
000040 44 99 b4 3d 39 01 1a bd 80 12 35 be e0 24 17 3e
       0.088182956 -0.037598822 -0.17682838 0.1476016
000050 d2 e9 f3 bd a2 74 da 3d bf 53 ea bd 87 ca e6 3d
       -0.11909832 0.10666777 -0.114417545 0.11269098
000060 ad 9e 6a bd cb 55 f7 bd 61 3d fe bd 12 25 33 bd
       -0.05728023 -0.120769106 -0.12414051 -0.043736525
000070 b3 6c 9d bd 94 67 f1 3b 6c 7f e5 bd 80 bd 84 3b
       -0.07686748 0.007367084 -0.112059444 0.0040509105
000080 56 a8 e1 bd 2e 64 ac 3e 53 5b a9 3d 53 ad 82 bd
       -0.11018436 0.3367018 0.08269372 -0.06380715
000090 8f d4 16 3e b9 a9 13 3e a1 ae a5 bb d3 57 86 bd
       0.14729522 0.14420213 -0.005056218 -0.0655972
0000a0 4b f6 00 bd f7 18 ee bc 31 a0 d0 bd 03 d3 f5 3d
       -0.031484883 -0.029064639 -0.10186804 0.12003138
0000b0 93 d6 ea bb e9 c6 1f be 87 7a 14 be 1c ca 18 3d
       -0.0071666925 -0.15603222 -0.14499865 0.03730212
0000c0 5c 20 71 3e f2 b0 7d 3d c8 69 b5 bc 27 b1 b0 3c
       0.235475 0.061936326 -0.022145167 0.021568848
0000d0 fb 79 6c 3e 38 67 d2 3b 2a 2c b6 3d ce a2 54 3e
       0.23093407 0.006420996 0.088951424 0.2076523
0000e0 e2 e0 77 3a a4 f2 30 be a8 1c e7 3c 38 e4 e9 3c
       0.00094558124 -0.1728006 0.028211907 0.028551206
0000f0 19 22 cc bc 29 24 b0 bd ba 75 56 3d a6 11 9a bd
       -0.024918603 -0.08600647 0.052358367 -0.075228974
000100 ea 9f b3 3d 39 3d dc 3d 71 db 83 bc e7 1e a8 3d
       0.087707356 0.10753865 -0.016095849 0.08209019
000110 e3 79 61 bd 30 60 8e 3d 1d 9d 16 3e 87 54 c1 bc
       -0.05504788 0.0695194 0.14708371 -0.023599876
000120 cf d9 ec 3c d4 cf b0 3d 7c 86 01 3e 10 22 58 3d
       0.028912453 0.0863339 0.12648958 0.05276686
000130 7e 74 90 bc 6f 1c 38 be 2d 73 ee bd 6d 6c 16 bd
       -0.017633673 -0.17979597 -0.11643062 -0.036724497
000140 a2 0c cd 3d 2f 59 c3 3d e2 c0 82 3d bc 76 0f 3d
       0.10012175 0.09538495 0.06384446 0.035025343
000150 47 2a 2e 3d 8f 9d 84 3d fc 63 97 bb 19 d1 d0 3c
       0.042520788 0.064753644 -0.0046200734 0.02549033
000160 12 59 70 bd a5 90 c9 3d 59 99 8a bd 1f 50 9c 3c
       -0.058678694 0.09842042 -0.0676753 0.019081173
000170 83 f8 1b bb dc 12 0f 3d f9 45 2b bb 92 39 73 3d
       -0.0023799248 0.034930095 -0.0026134236 0.059381075
000180 57 39 ec 3b 98 6c 18 be 73 50 0a bc f5 45 14 bd
       0.007208984 -0.14885175 -0.008442032 -0.03619953
000190 db 50 90 3d 18 63 a6 bc ee 6e 01 bd 53 df 0a bd
       0.07046672 -0.020310923 -0.03159993 -0.033904385
0001a0 e5 cf b1 3d a3 10 e3 bc 47 38 5d bd 76 c5 fa 3d
       0.08682231 -0.027717894 -0.05400875 0.12244694
0001b0 3c fe 29 bc 92 95 05 3e 2c f4 05 bd ec 41 16 bd
       -0.010375556 0.13045338 -0.032703564 -0.03668396
0001c0 55 f3 2b 3d d7 69 b1 bd e4 8e 3e bd 9a 31 5a 3d
       0.041980106 -0.086627655 -0.04652299 0.05326996
0001d0 7a a2 24 3d aa d0 b8 3d 29 c3 04 3e 01 a6 9a bd
       0.040194012 0.090241745 0.12965073 -0.07551194
0001e0 14 63 96 3c 73 04 53 3d 5b 86 af bd 86 61 be 3d
       0.018357791 0.051517915 -0.08570548 0.09295945
0001f0 1b 0a e2 3d 81 c5 fd bd 08 5e 35 3d a0 62 97 3d
       0.11037084 -0.123911865 0.04427913 0.07391858
000200 15 01 db 3a d7 2c cd 3b 32 9f af 3d ba 87 25 3d
       0.0016708696 0.006261449 0.08575286 0.040412642
000210 d6 b8 45 3e dd 7e da bd af 93 38 3e 5f 5d cd 3c
       0.1930879 -0.106687285 0.18025087 0.025068937
000220 f4 64 f1 bd 40 bf 40 be 59 3a 5c 3e a3 29 38 bc
       -0.117868334 -0.18822956 0.21506633 -0.011240396
000230 ae c6 55 3c 3d a5 27 bd 66 d9 01 3e 54 30 28 bc
       0.013047857 -0.040929068 0.12680587 -0.010265429
000240 2e 07 22 be 7d 39 d8 bd 18 71 df bd 44 0e 2e be
       -0.15823051 -0.1055784 -0.10910243 -0.1699763
000250 2c d1 8e bd fc d0 1e 3e d8 0e 8d bd 65 27 3b 3e
       -0.0697349 0.15509409 -0.06887597 0.18276747
000260 07 6f 4f be 27 4a 13 be 03 70 2c be 65 2e 1f be
       -0.20257197 -0.14383756 -0.16839604 -0.15545042
000270 fd 76 ac 3c fc 36 2e bb f6 9f 48 3d a0 f6 8c 3d
       0.021052832 -0.0026583066 0.048980676 0.068829775
000280 8c e2 5e be 62 55 6c 3e e9 12 51 3e a1 3b 38 3d
       -0.21766108 0.23079446 0.2041737 0.04497874
000290 fa b5 25 3e ae 51 04 3b d2 dc 47 3d d7 6c 1a 3e
       0.161827 0.0020190286 0.048794575 0.15080582
0002a0 a5 8f 49 be 23 30 cd bd f6 54 e1 3d 97 9c 8d 3d
       -0.19683702 -0.10018947 0.11002533 0.06914633
0002b0 35 0e 94 3d ca 07 52 be fd c1 9f bd ad 3d 3d bc
       0.07229272 -0.20510784 -0.07800672 -0.011550349
0002c0 75 2d fc 3d cc b5 9f 3d f7 94 8b bc 66 4b a8 bd
       0.12313358 0.07798347 -0.017038805 -0.08217506
0002d0 19 91 1d bb 52 ca 36 be 2c 30 99 bd 78 73 d7 bc
       -0.0024042784 -0.17850617 -0.07479891 -0.026300177
0002e0 2f 87 c2 3d da 3b a2 bc 2b e0 10 3e ba 83 f9 bd
       0.094984405 -0.01980393 0.14148013 -0.12183328
0002f0 28 08 32 3d 4d a2 0d 3e de 73 2f 3e da 55 d3 bc
       0.04346481 0.13831444 0.17134044 -0.025797773
000300 a0 a1 b7 bc e0 33 a5 bd 3c c4 03 3e ce 1f fa 3d
       -0.022415936 -0.08066535 0.12867826 0.122130975
000310 6c d9 9e 3d 66 a0 86 3c ae 14 93 bd 9d 65 25 bd
       0.07756314 0.016433906 -0.07181679 -0.04038011
000320 7b 78 e4 3d af e4 c2 3d 2a 02 84 3d 0c e6 b0 3d
       0.11155792 0.09516274 0.06445725 0.08637628
000330 f9 f5 5d 3c 5a c0 56 bd 4f fd 5f bb a1 69 de bc
       0.013547414 -0.052429534 -0.0034178083 -0.027149977
000340 f9 9d 79 bb 65 fe ca 3d fa 49 c4 3d 09 10 75 3d
       -0.0038088544 0.09911803 0.095844224 0.059829745
000350 61 15 f0 bd 54 e0 ad 3d 48 8a b6 3d 51 6f 3f ba
       -0.11722828 0.08490053 0.08913094 -0.0007302659
000360 76 02 87 bb de e7 9c bd 95 fe 28 bc a4 21 84 bd
       -0.0041201664 -0.07661413 -0.010314603 -0.06451729
000370 a6 9f b9 bc 38 a1 5a 3d ad 90 6b 3c 70 c9 ec bc
       -0.022659134 0.053376406 0.014377755 -0.028904647
000380 7b a6 a0 3d d2 6c ff 3d 77 6f 2f bd c4 a3 c9 3d
       0.07844254 0.12471928 -0.04283091 0.09845689
000390 37 bb c0 bd 47 4a 9a bd 42 75 ee bd 54 54 6f 3d
       -0.094107084 -0.075336985 -0.11643459 0.05843003
0003a0 ce 08 4e bd 85 c2 11 3c df 01 27 bd ae c5 72 3d
       -0.050301366 0.008896475 -0.04077327 0.059270553
0003b0 68 63 cf 3c c7 70 38 bd 42 0f 27 3d 4b 94 39 bc
       0.025315955 -0.045029428 0.040786035 -0.01132686
0003c0 05 e5 cf bd e9 a8 ce 3d 9d c2 d9 3d 7d 05 72 3d
       -0.10151104 0.10090811 0.10632823 0.059087265
0003d0 f2 5c 83 bc 96 8c 16 3d 16 5f 42 bc f6 a7 06 be
       -0.01603553 0.036755167 -0.011863491 -0.1315001
0003e0 8c df 34 3c df c8 35 bd 41 a1 b5 3d 0a 6d 7b 3d
       0.011039626 -0.04438102 0.08868647 0.061383285
0003f0 22 41 e1 bd 21 8e a0 3d 56 0c 88 bd df c3 c7 bd
       -0.10998751 0.07839609 -0.06642978 -0.09754156

model.rnn.weight_hh_l1 f4 [256, 64]
000000 77 a1 9f 3c 6e 4a 94 bd 65 7f b3 3d 7d 7c 9b bd
       0.019486172 -0.07240759 0.08764533 -0.07592104
000010 48 3b 58 3d bf 28 1d bb 2a e9 c2 3d 75 2d 83 3d
       0.05279091 -0.0023980585 0.09517129 0.064051546
000020 16 5b bd 3d 97 a2 fd 3d b0 78 cf bd 5b e2 04 bd
       0.09245889 0.12384527 -0.10130441 -0.032442432
000030 ad f6 6b 3d e0 37 fc 3d bf cc 98 3c ad 79 e6 bd
       0.057608295 0.12315345 0.018652318 -0.112536766
000040 85 5e 6f 3d 74 f9 db 3d de 18 e3 3a a2 ee ea 3d
       0.05843975 0.10740939 0.0017326137 0.11471297
000050 d1 1d 6e bd ba 4f 65 bd 65 11 04 be 7d ec 70 3c
       -0.058133904 -0.055984236 -0.1289726 0.014704821
000060 0d eb 03 bc 09 3e 9c 3d 7d a7 e4 bd 60 4e c4 3d
       -0.008051646 0.0762902 -0.11164758 0.09585261
000070 6f c9 89 3d e7 60 b0 bd e7 a6 48 bd 21 88 1c be
       0.067278735 -0.08612233 -0.048987295 -0.15286304
000080 0b 10 87 3d 0d a9 f8 bd 46 45 9e bc 79 bf 98 bc
       0.06594857 -0.12141619 -0.019320142 -0.018645989
000090 a3 64 6d bd c5 ab 07 3e cf b2 06 3e da 00 cc 3d
       -0.057957303 0.13249119 0.13154148 0.099611
0000a0 ac 1a e2 bd 0e 38 01 3e e9 e5 01 be 4e 23 98 bd
       -0.110402435 0.1261904 -0.1268536 -0.07428609
0000b0 57 9a da bd 97 76 37 3d b6 ec bc 3d 60 b5 17 3e
       -0.10673969 0.04479083 0.092248365 0.14815283
0000c0 eb fe 97 bd 32 77 b1 bc 43 4b 2b bd ee 7d cd bd
       -0.074216686 -0.021663282 -0.041819822 -0.10033785
0000d0 fb a4 90 bd 2f 1f 52 3d 18 90 8d bd c3 0b 3c be
       -0.070627175 0.05129927 -0.06912249 -0.18363862
0000e0 93 81 55 bd 23 40 6b bd 73 1a d8 bd af de 27 bd
       -0.052125525 -0.057434212 -0.1055192 -0.040983852
0000f0 b0 4b d0 3d 49 dd e0 bd a2 54 31 3e 54 d4 8f 3d
       0.10170686 -0.10979707 0.17317441 0.0702292
000100 23 8a 0c 3d fb 00 6a bc 55 40 2d bc ff 82 b9 bc
       0.034311425 -0.01428246 -0.01057442 -0.022645472
000110 b6 03 b9 3d e6 e9 17 3e bf 45 99 bd 85 36 54 3d
       0.09033911 0.14835319 -0.07484006 0.051809806
000120 7d a8 6f bd 5d 92 3d bd b4 43 b1 bd 49 88 76 be
       -0.058510292 -0.04628216 -0.086554915 -0.24075426
000130 20 c4 f1 bd fa de 5f bd fb 19 89 be a6 62 f5 3c
       -0.11804986 -0.054656006 -0.26777634 0.029954266
000140 54 00 40 bd bd fb 87 3d 11 d3 83 bd 17 80 7b 3d
       -0.046875313 0.06639812 -0.06436742 0.061401453
000150 e4 42 69 3d 31 38 06 be cb ce b4 3c 14 74 09 3d
       0.056948557 -0.13107373 0.022071263 0.033557966
000160 4a 89 da bd 9e 2d e5 3d f1 08 90 bd a3 5f 06 3d
       -0.10670717 0.111903414 -0.070329554 0.03280605
000170 58 cb 09 be 73 0b df 3d d6 d7 5c 3d 75 36 82 bd
       -0.13456476 0.10890856 0.053916775 -0.06358043
000180 f1 49 3b bd e6 79 c5 bc 03 09 8c 3d 99 fe d1 bd
       -0.045724813 -0.024105977 0.06837656 -0.10253639
000190 9c 78 f2 3d ce d4 bd bc 95 fc 1c 3d ae 08 6a 3d
       0.11839411 -0.023172762 0.03832682 0.057137184
0001a0 31 d4 c1 bd d5 a2 d0 3d 90 97 a9 3b 9d 00 02 bd
       -0.094643004 0.10187308 0.0051755384 -0.031738866
0001b0 7b df 06 bd 89 f5 be bd d9 6d af bd bb a4 24 3c
       -0.03292797 -0.09324176 -0.08565874 0.01004904
0001c0 22 36 d2 3d f3 40 31 3d 44 77 96 bd 3d 09 87 bd
       0.10264231 0.04327483 -0.07346967 -0.06593559
0001d0 7f 48 57 3c 37 74 e4 bc d0 5f 1c bd bf b2 82 3d
       0.013139843 -0.027887447 -0.03817731 0.06381749
0001e0 7e 5a a4 3d 28 aa a6 bd 8f 8c 5d bc 27 29 34 3d
       0.080250725 -0.081379235 -0.013522281 0.04398456
0001f0 70 81 d3 3c f5 e1 d1 bc 2b d6 11 3e 40 9f a1 3d
       0.025818557 -0.02562044 0.14241855 0.07891703
000200 4e 59 96 3c 75 23 14 3e 35 d6 d6 bd fa f0 54 bd
       0.01835313 0.14466651 -0.104900755 -0.051987626
000210 80 cb 1d be 94 db 30 bd c3 28 af 3d fd b0 e1 bc
       -0.1540966 -0.043178156 0.085526966 -0.027550215
000220 85 b4 12 be e7 86 45 3c 62 ee 0b bd d2 59 20 be
       -0.14326675 0.012056089 -0.034162886 -0.15659264
000230 f9 97 ad 3d 59 22 ef 3d 47 e2 47 bd 4d 1f d7 3b
       0.08476252 0.11676473 -0.04879978 0.0065650106
000240 59 22 d9 3d a3 2c e7 3d ac ff f2 bd a0 cb 8e bd
       0.106022544 0.11287811 -0.11865172 -0.06972432
000250 65 fd bf bd 30 25 bc bc 0f 60 16 3e ed 06 41 bd
       -0.09374503 -0.022966951 0.14685081 -0.047125746
000260 40 cd 08 be 28 15 e9 3b 82 ba ad bd f3 f4 9e bd
       -0.13359547 0.0071131177 -0.08482839 -0.07761564
000270 40 ff df bd 23 91 9e bd f2 81 b2 3c 7b a6 27 be
       -0.10937357 -0.077425264 0.021790478 -0.16372101
000280 45 f5 24 bd c1 48 49 3c 90 ac f9 3d c1 42 9b 3d
       -0.04027297 0.012285412 0.12191117 0.07581092
000290 5a dd c4 bd 5c 9e 95 3d 28 1c 04 3b 2e 49 85 3d
       -0.09612532 0.07305595 0.0020158384 0.065080985
0002a0 d0 ca a1 3d 7a ee 1d 3e ca ba d6 bd a2 c1 18 be
       0.079000115 0.15423003 -0.10484846 -0.14917615
0002b0 33 ff bf 3d ce c2 58 3d ca 7d e1 bd 67 1e 93 bc
       0.09374847 0.052920155 -0.110103205 -0.017958833
0002c0 bf 15 94 3c 46 2d fa bc 07 14 a4 3d c6 5e 29 3d
       0.018076776 -0.030539166 0.080116324 0.04135015
0002d0 32 52 1d 3e cd aa 29 bd ae 8e e9 3d 67 be 8d 3d
       0.15363386 -0.041422654 0.11404167 0.06921082
0002e0 a0 0d b4 3d ea 32 36 3c 85 e2 23 3d 6e 61 1e 3d
       0.08791661 0.011120537 0.040010948 0.038667135
0002f0 ec d1 16 bd 54 5d 2a 3d 85 d3 57 3d ff a7 e1 3c
       -0.03682129 0.04159291 0.052691955 0.027545927
000300 c9 fc 84 3d 80 5a 02 bd dc 32 dc bd 3a 58 be bd
       0.064935274 -0.03182459 -0.10751888 -0.09294172
000310 bb 70 aa bd 54 92 8c 3d e7 ab c9 3b 57 a0 fb bc
       -0.08322283 0.068638474 0.0061545256 -0.030716104
000320 78 5e 2a bd f1 09 63 3d 95 7b cc bd 9c 40 6f 3a
       -0.041594 0.055429403 -0.09984509 0.0009126754
000330 1d a3 90 bc 4f f7 a4 bd 3e bb b9 bc 09 86 70 bd
       -0.017655903 -0.08054983 -0.022672292 -0.058721576
000340 df 84 10 bd ae 9e 8c bd c0 60 14 bd 9c a6 5a bb
       -0.035282966 -0.06866203 -0.03622508 -0.0033363467
000350 3e ec 74 bd 6a 01 c7 bd eb b0 f3 bd 47 a0 0f be
       -0.05979561 -0.097170666 -0.11898979 -0.14025985
000360 a7 8c b0 bd 8d 85 b6 3d 36 fd b1 bd 0f d8 93 bd
       -0.08620577 0.089121915 -0.08690874 -0.07218944
000370 76 8f dc 3d f1 94 62 3d 08 d2 03 be 32 91 87 3d
       0.107695505 0.055317823 -0.1287309 0.06619491
000380 44 b5 76 3d c4 61 c0 bc 0a e1 bd bb 7c 82 2e bd
       0.060231462 -0.023484118 -0.005794649 -0.04260491
000390 c0 10 4b 3d 56 5c 67 3d 08 64 77 3d 93 40 61 3d
       0.04957652 0.056484543 0.06039813 0.054993223
0003a0 8b d9 ee 3d 07 1d 35 bd 87 3a cb bb c7 6e b8 bd
       0.11662587 -0.044217136 -0.0062020454 -0.09005504
0003b0 ed 80 f4 bd 37 bf 33 3d 43 ff a6 bd 07 e9 93 bb
       -0.11938653 0.04388353 -0.08154156 -0.004513863
0003c0 92 38 f8 bb db 87 be bd c2 be 44 3d e7 c6 87 3d
       -0.007575103 -0.09303256 0.048033483 0.066297345
0003d0 26 fe e4 3c 63 09 4f 3d 7d 2e de 3d db 7e 98 bd
       0.027953219 0.05054606 0.10848711 -0.07446071
0003e0 66 0e 19 3e 60 71 b0 bb 4c 51 9f 3d f6 f8 46 bd
       0.14946899 -0.005384609 0.07779178 -0.04857727
0003f0 de 0a ea bd 6d c1 34 bc 40 32 fb 3d 07 c0 d6 3c
       -0.11427854 -0.011032444 0.12265444 0.026214613
