lightning_logs/version_4/checkpoints/epoch=99-step=5000.ckpt (torch, 300078 bytes, 33 tensors)

model.param_proj.proj.0.weight f4 [1, 40]
-0.15937045 -0.0422885 -0.73475146 -0.09216724 0.8684018 -0.4170237 0.038429324 -0.21643177
-0.061023317 0.30949092 0.036304343 0.4557829 0.39488688 0.07907721 0.03442859 0.6041436
0.69641095 0.16902043 -0.5600162 -0.35781828 -0.2047272 -0.44691944 0.1270945 0.36067003
0.06270226 0.51315093 -0.50893414 -0.0780543 0.1391038 -0.23804994 0.37097487 -0.001950335
0.24774122 0.89165497 0.51198167 0.44026056 0.45349857 -0.00031471904 0.30585173 0.62590164
00000000: 0232 23be b536 2dbd ac18 3cbf 2ec2 bcbd
00000010: 954f 5e3f 2184 d5be 1168 1d3d 4aa0 5dbe
00000020: 96f3 79bd 9875 9e3e ddb3 143d 605c e93e
00000030: 9d2e ca3e 3bf3 a13d fe04 0d3d 28a9 1a3f
00000040: fd47 323f b113 2d3e 395d 0fbf f533 b7be
00000050: 02a4 51be a0d2 e4be 1025 023e bea9 b83e
00000060: 0b6a 803d dc5d 033f 8249 02bf efda 9fbd
00000070: 3a71 0e3e 5dc3 73be 6bf0 bd3e 62a2 ffba
00000080: e0af 7d3e 8043 643f 3b11 033f d569 e13e
00000090: f730 e83e e000 a5b9 9998 9c3e 173b 203f

model.param_proj.proj.1.weight f4 [1, 40]
-0.14388184 -0.13926682 0.03565157 -0.110556476 -0.06458185 -0.17316891 0.12072318 0.1366193
0.20470536 -0.09478259 0.034784462 0.052872125 -0.04622962 0.06997753 0.17349777 0.04652133
-0.09161151 0.09198783 0.053420253 -0.058695275 -0.15993676 -0.058325604 0.13430545 0.0070205797
0.130957 0.08307142 0.08070649 0.03266688 0.18403599 0.13929352 -0.03903806 0.034815375
0.08971865 0.16022235 -0.15371227 0.14547408 0.073208585 -0.1769452 -0.13200846 0.13240823
00000000: c355 13be f69b 0ebe 6107 123d 6f6b e2bd
00000010: 7d43 84bd 3153 31be b73d f73d eee5 0b3e
00000020: 489e 513e 601d c2bd 277a 0e3d 7190 583d
00000030: 455b 3dbd 6150 8f3d 66a9 313e 268d 3e3d
00000040: d19e bbbd 1e64 bc3d 32cf 5a3d 756a 70bd
00000050: 76c6 23be d4e6 6ebd 5e87 093e e40c e63b
00000060: 9819 063e 5921 aa3d 7249 a53d b5cd 053d
00000070: ee73 3c3e f6a2 0e3e 5fe6 1fbd 919a 0e3d
00000080: 69be b73d 5411 243e c066 1dbe 28f7 143e
00000090: 62ee 953d 1f31 35be 3a2d 07be 0696 073e

model.param_proj.proj.2.weight f4 [1, 40]
0.03331139 0.111752175 0.6216198 0.108526155 -0.14811462 0.14289378 0.23550363 -0.26422966
0.09966053 -0.13196227 0.021951012 -0.38519365 -0.7843754 -0.3685514 0.09358386 -0.2806306
-0.37400383 -0.1469443 0.2606224 0.24595518 0.07651818 0.27769655 -0.20823929 -0.38591793
-0.048604894 -0.15448585 0.17979218 -0.044870958 -0.14904132 0.045993615 -0.8801218 -0.0707012
-0.1393761 -0.18017647 -0.12748435 -0.17769097 -0.20032379 -0.46288013 -0.5395354 -0.252419
00000000: 8671 083d 53de e43d 7a22 1f3f f642 de3d
00000010: 5cab 17be bf52 123e dd27 713e 1c49 87be
00000020: d21a cc3d 1e21 07be 9cd2 b33c 1a38 c5be
00000030: d4cc 48bf c5b2 bcbe e5a8 bf3d d0ae 8fbe
00000040: 6e7d bfbe 9178 16be 4d70 853e addb 7b3e
00000050: 90b5 9c3d 3e2e 8e3e ae3c 55be 0997 c5be
00000060: ed15 47bd 8a31 1ebe 711b 383e 9cca 37bd
00000070: 4a9e 18be cd63 3c3d aa4f 61bf cacb 90bd
00000080: 9cb8 0ebe 2e80 38be 428b 02be 9ff4 35be
00000090: ae21 4dbe a0fe ecbe fe1e 0abf 103d 81be

model.rnn.weight_ih_l0 f4 [160, 21]
0.15993221 0.004030353 0.26259133 0.09107269 0.08958276 0.12176945 -0.03430362 -0.12648913
0.0514687 0.1513199 0.04881532 0.21129456 0.2640808 0.14446625 0.18489246 0.21903498
-0.29616937 -0.00024305459 0.1356987 -0.5091158 0.10494677 0.14244203 0.03030024 0.31847978
0.20134835 0.14811626 -0.10247205 -0.084336214 0.10345822 0.11256181 0.32616824 0.19637018
0.10892668 0.24236682 0.24055937 0.030381102 -0.09152972 -0.19873294 0.00028495138 0.14902028
-0.012849989 0.17506836 0.1429409 -0.03802714 -0.20334463 -0.1653311 0.008636136 -0.15110858
0.012068498 -0.14924006 -0.18987416 -0.15959711 0.0024835323 0.3253624 0.2670463 -0.12784053
-0.0244732 0.279802 -0.0240295 -0.00011884089 -0.054861948 0.4990408 0.028645644 0.34899628
0.2672645 0.15090331 0.10769618 0.2648891 0.26354152 -0.0057881647 0.03683728 0.026236776
0.01019214 0.2731953 0.3288567 0.43699312 0.009573983 0.22935289 0.13559873 -0.18527876
4.2498006e-05 0.22218035 -0.40046585 0.040986698 0.08119524 0.321198 0.17846963 0.23126747
0.18813536 0.15757586 0.11348827 -0.058108065 0.0074540954 0.11186619 0.037997935 -0.07578051
0.08155084 0.10779368 -0.09775579 -0.0023325963 -0.24003395 0.0010793384 0.2836272 -0.46365133
-0.0054909927 0.20828876 0.18851927 0.04773372 0.03511707 0.23411518 -0.15378685 0.19982575
0.014028296 0.2720579 0.0158489 0.03318092 0.17170584 -0.017009612 0.33278465 0.49917963
0.39601535 -0.08373625 -0.000102630744 0.25106075 0.042488478 -0.060158532 0.478344 0.33564702
0.40935183 0.21845093 0.5034202 0.32074425 0.3272634 0.07551072 -0.020095486 0.050305896
-0.037881937 0.12443594 0.17044945 0.1096397 0.11884723 0.047023956 -0.41497618 -0.001007474
0.070427924 -0.6773224 0.41505587 0.045075417 -0.08333824 -0.13433927 -0.010015752 0.1803233
0.0720796 -0.1302137 -0.17919841 -0.063955836 -0.17033719 0.023977429 -0.026481936 -0.12524913
-0.2338925 -0.07017955 -0.11899978 0.09601676 -0.0011939167 -0.111043565 -0.4689251 0.14877231
0.47569895 0.2040781 0.29095626 0.21357258 0.023966037 -0.02674339 0.07265015 -0.008385094
0.03453942 -0.12145882 0.009808646 -0.056822993 0.1696014 0.10545741 0.03665936 0.23923305
-0.21549109 0.0009238728 -0.07091538 0.18423328 -0.025560064 0.28473616 0.3055397 0.1036791
0.15125881 0.27010432 0.1829652 0.26568538 0.24559486 0.17760946 0.2505732 0.049027544
0.05652348 0.046288 0.29360127 0.05723787 0.16040586 -0.41756225 -0.00033865465 0.28360018
0.06053724 0.25394446 0.095991224 0.12649864 0.1401779 -0.07781239 0.009922344 0.0030764586
-0.09853373 -0.017006382 -0.07625574 -0.11607208 -0.33904046 -0.24181777 -0.28248322 -0.046627775
0.003682825 -0.036815383 -0.13010275 0.000212835 -0.13486941 -0.1127979 0.104166046 -0.029197514
0.20341668 0.17051011 0.09360244 0.16834022 0.07472243 0.014547133 -0.14527576 0.005262976
0.020318275 -0.11231277 -0.0099917045 -0.109340034 0.021724116 0.13103375 -0.074932165 -0.030962257
0.00053570815 0.19524293 -0.45090646 0.037079822 0.24160014 0.19213927 0.040813852 0.3807183
00000000: 45c5 233e 0d11 843b 5f72 863e 5284 ba3d
00000010: 2b77 b73d 4362 f93d f481 0cbd 5e86 01be
00000020: d8d0 523d 9bf3 1a3e 93f2 473d 9a5d 583e
00000030: 9935 873e f6ee 133e 7354 3d3e b54a 603e
00000040: 83a3 97be 78dc 7eb9 9af4 0a3e 6a55 02bf
00000050: 55ee d63d 53dc 113e 3538 f83c c80f a33e
00000060: 432e 4e3e caab 173e dedc d1bd 77b8 acbd
00000070: e7e1 d33d ce86 e63d 86ff a63e 4415 493e
00000080: f414 df3d 022f 783e 3255 763e cae1 f83c
00000090: ef73 bbbd a680 4bbe 8765 9539 c698 183e
000000a0: c388 52bc 1f45 333e 195f 123e 59c2 1bbd
000000b0: 9339 50be 8e4c 29be 947e 0d3c 35bc 1abe
000000c0: f3ba 453c 63d2 18be 5f6e 42be 6d6d 23be
000000d0: c2c2 223b e795 a63e 4bba 883e a1e8 02be
000000e0: 057c c8bc 3542 8f3e 84d9 c4bc 383a f9b8
000000f0: ecb6 60bd 4782 ff3e 45aa ea3c a4af b23e
00000100: e4d6 883e 6686 1a3e d18f dc3d 8b9f 873e
00000110: eaee 863e a5aa bdbb b0e2 163d 82ee d63c
00000120: effc 263c 41e0 8b3e e85f a83e 90bd df3e
00000130: 32dc 1c3c 7cdb 6a3e 65da 0a3e b7b9 3dbe
00000140: e33f 3238 3f83 633e dc09 cdbe abe1 273d
00000150: b149 a63d 1074 a43e bec0 363e 61d1 6c3e
00000160: 8ea6 403e 915b 213e 8a6c e83d b902 6ebd
00000170: 7c41 f43b 1a1a e53d b9a3 1b3d d032 9bbd
00000180: 2004 a73d efc2 dc3d 3034 c8bd 79de 18bb
00000190: 76cb 75be 9678 8d3a 9637 913e b563 edbe
000001a0: c9ed b3bb a649 553e 320b 413e 6f84 433d
000001b0: ebd6 0f3d e4bb 6f3e 4d7a 1dbe 1f9f 4c3e
000001c0: f0d6 653c 2c4b 8b3e 8dd5 813c b7e8 073d
000001d0: a8d3 2f3e be57 8bbc c062 aa3e 7994 ff3e
000001e0: 86c2 ca3e e97d abbd 763b d7b8 098b 803e
000001f0: 6608 2e3d cb68 76bd 81e9 f43e edd9 ab3e
00000200: 9096 d13e 9ab1 5f3e 25e0 003f 9738 a43e
00000210: 128f a73e 5da5 9a3d 4a9f a4bc 8e0d 4e3d
00000220: 172a 1bbd 45d8 fe3d 4d8a 2e3e c78a e03d
00000230: 2d66 f33d 319c 403d c277 d4be 380d 84ba
00000240: 843c 903d 0065 2dbf 3482 d43e 00a1 383d
00000250: 3dad aabd 3c90 09be 1c19 24bc aca6 383e
00000260: 789e 933d bd56 05be ca7f 37be 47fb 82bd
00000270: df6c 2ebe 506c c43c a5f0 d8bc 4f41 00be
00000280: 8481 6fbe 4cba 8fbd 28b6 f3bd 6fa4 c43d
00000290: 327d 9cba cf6a e3bd f316 f0be c557 183e
000002a0: d08e f33e d9f9 503e 38f8 943e c5b2 5a3e
000002b0: 6c54 c43c f414 dbbc 9ac9 943d a261 09bc
000002c0: 3579 0d3d 67bf f8bd 71b4 203c 3abf 68bd
000002d0: fdab 2d3e 0efa d73d 2028 163d 82f9 743e
000002e0: b2a9 5cbe 0e30 723a 153c 91bd a6a7 3c3e
000002f0: 5763 d1bc f0c8 913e b36f 9c3e b555 d43d
00000300: 97e3 1a3e 1d4b 8a3e 3b5b 3b3e ea07 883e
00000310: 387d 7b3e 41df 353e 214b 803e 1bd1 483d
00000320: 2a85 673d 7c98 3d3d e852 963e 4272 6a3d
00000330: 6f41 243e b8ca d5be 758d b1b9 0b34 913e
00000340: e6f5 773d 0205 823e 0c97 c43d dc88 013e
00000350: cc8a 0f3e 1a5c 9fbd 5491 223c 699e 493b
00000360: 0dcc c9bd f850 8bbc f82b 9cbd 33b7 edbd
00000370: b696 adbe 149f 77be a4a1 90be c4fc 3ebd
00000380: 8d5b 713b bacb 16bd a839 05be 762c 5f39
00000390: 351b 0abe 9602 e7bd 0255 d53d a02f efbc
000003a0: 764c 503e 349a 2e3e a3b2 bf3d 6161 2c3e
000003b0: 1308 993d 1957 6e3c 2bc3 14be 0b75 ac3b
000003c0: 8372 a63c 3d04 e6bd 3fb4 23bc abed dfbd
000003d0: c6f6 b13c b62d 063e 0976 99bd 8fa4 fdbc
000003e0: c46e 0c3a c3ed 473e 36dd e6be 03e1 173d
000003f0: 0766 773e 28c0 443e 6d2c 273d 82ed c23e

model.rnn.weight_hh_l0 f4 [160, 40]
0.070348635 -0.104056664 -0.051907584 0.054726332 0.09637565 -0.07353188 -0.008546339 0.044830333
0.12737629 -0.109968305 0.009890617 0.045272972 -0.1506688 -0.09843009 0.02694484 0.058441933
0.16931634 0.12320077 0.074888654 0.035580494 -0.05457092 0.2227117 0.16411316 0.01793182
-0.061884124 0.17068838 -0.15224862 -0.0883509 0.029804548 -0.07969806 0.07152664 -0.1039792
-0.2545715 0.021440186 0.06084418 -0.12665628 -0.029936437 -0.08518773 -0.2648778 0.26295787
-0.3403536 -0.16640963 0.0257644 0.27332175 0.07000859 0.020094076 0.078389116 0.415009
-0.16117036 0.28860542 -0.08837424 0.003601716 0.3291153 -0.27753675 -0.25328252 -0.13509342
-0.18113989 -0.21718226 -0.20904091 0.16758834 0.23292777 0.005593974 0.37977663 -0.057575658
0.20601143 0.13230196 0.0029040284 -0.15385315 -0.284281 0.19939022 -0.27673888 -0.015679378
0.05314954 -0.05601078 -0.30197713 0.20143215 -0.19052711 -0.15738437 -0.119252756 0.2058086
0.04201555 -0.17704654 -0.0051382044 0.061267983 -0.03709972 -0.2802327 0.044587728 -0.02905168
-0.14237472 -0.2704898 0.20024954 0.09184496 0.041981008 -0.17833169 -0.33465883 0.0739169
-0.13368692 -0.024121292 -0.21301234 0.16635713 0.19620039 0.19985722 0.14785834 0.34704402
0.13810599 0.051690668 -0.23788431 0.45415917 -0.104283355 -0.28012374 -0.25582227 0.06282825
0.050297454 -0.23881176 -0.10292418 0.101670064 -0.1559045 0.020531507 -0.41330954 0.10474541
-0.22383842 -0.1990018 0.1020861 0.060776997 -0.038156852 -0.09242033 0.19174904 -0.0705653
-0.2243196 0.28380394 0.053700987 0.09185689 0.24738255 0.054512404 -0.18225487 -0.13572311
0.04014511 0.025008267 -0.088028625 0.19144356 0.0761286 -0.0024363706 0.020149874 0.12255451
0.18085675 -0.09933425 -0.09342688 0.15471262 -0.21071327 -0.50814587 -0.16573828 0.21526231
0.0628189 -0.053293556 -0.07150113 -0.15914686 0.08580297 0.050077893 0.2623643 -0.14145195
0.116974 0.08572545 -0.0367961 0.14832716 0.004709659 -0.07088005 -0.00806091 0.10104895
-0.112009466 0.24971029 -0.06508062 0.038161978 0.008084529 0.053896993 -0.11361805 0.20009091
-0.03640496 -0.08998337 -0.013775979 -0.04921026 -0.031041091 0.0437049 0.18013708 0.15733354
0.07542941 -0.07724872 -0.15519573 -0.12645605 -0.18995155 0.044845123 0.105995126 0.03658242
0.17479116 0.10801179 -0.03926673 0.17623957 -0.18346988 -0.13882507 0.02568752 -0.09614086
0.0594993 -0.23147473 -0.040661857 0.007922605 0.003439039 -0.056989025 0.031632748 -0.048257302
-0.092306964 -0.4102025 -0.10968292 -0.07975978 0.25267884 -0.03942246 -0.11037788 0.030775344
-0.041856337 0.115190245 -0.055220943 -0.07997128 0.0041140346 -0.028667403 0.18244559 0.4707385
0.021632135 -0.04374406 -0.35493112 0.25091174 0.11901132 -0.24208328 0.076548666 0.062813886
-0.07380702 0.05813532 -0.00863814 0.040948074 -0.06572503 -0.44560242 -0.35553032 -0.3317363
0.036662444 0.34971973 -0.17247924 -0.025006529 -0.00022287876 0.079074465 -0.10621505 0.037577674
0.022684202 0.4035016 -0.045197286 -0.06763518 0.027360931 -0.19734462 0.040889744 0.12840073
00000000: f212 903d a91b d5bd 0c9d 54bd b828 603d
00000010: 9960 c53d e297 96bd f205 0cbc 03a0 373d
00000020: ee6e 023e 1037 e1bd 410c 223c 2770 393d
00000030: ec48 1abe b795 c9bd 6dbb dc3c cf60 6f3d
00000040: 4361 2d3e af50 fc3d 395f 993d dabc 113d
00000050: c285 5fbd 890e 643e 480d 283e c1e5 923c
00000060: 357a 7dbd efc8 2e3e 10e7 1bbe 51f1 b4bd
00000070: ab28 f43c bd38 a3bd 8f7c 923d 0cf3 d4bd
00000080: 3257 82be 54a3 af3c bf37 793d 2fb2 01be
00000090: 423d f5bc e876 aebd 109e 87be 6aa2 863e
000000a0: d442 aebe 4967 2abe dd0f d33c d4f0 8b3e
000000b0: aa60 8f3d 559c a43c 798a a03d 0f7c d43e
000000c0: d809 25be 17c4 933e 8efd b4bd c40a 6c3b
000000d0: cd81 a83e 4c19 8ebe 3fae 81be ee55 0abe
000000e0: bc7c 39be 0765 5ebe d20e 56be 479c 2b3e
000000f0: 9e84 6e3e a84d b73b 1572 c23e 74d4 6bbd
00000100: a9f4 523e 2a7a 073e 8351 3e3b ae8b 1dbe
00000110: 478d 91be f32c 4c3e b8b0 8dbe 0a72 80bc
00000120: 55b3 593d 8f6b 65bd bf9c 9abe 3b44 4e3e
00000130: 8a19 43be 5e29 21be ca3a f4bd 7dbf 523e
00000140: 7f18 2c3d b04b 35be 625e a8bb 23f4 7a3d
00000150: e0f5 17bd a97a 8fbe 9fa1 363d cafd edbc
00000160: aeca 11be a47d 8abe 370e 4d3e 3619 bc3d
00000170: 47f4 2b3d 959c 36be 6758 abbe be61 973d
00000180: 39e5 08be 049a c5bc e81f 5abe 8659 2a3e
00000190: c1e8 483e 5fa7 4c3e 2d68 173e c1af b13e
000001a0: a86b 0d3e 98b9 533d f297 73be 8d87 e83e
000001b0: 8392 d5bd 616c 8fbe 23fb 82be 19ac 803d
000001c0: b404 4e3d 128b 74be eac9 d2bd 6538 d03d
000001d0: 6ea5 1fbe b131 a83c 4f9d d3be c384 d63d
000001e0: e635 65be 21c7 4bbe 8412 d13d 4df1 783d
000001f0: 5c4a 1cbd df46 bdbd dc59 443e 8a84 90bd
00000200: 0ab4 65be c04e 913e 91f5 5b3d 771f bc3d
00000210: da51 7d3e 6648 5f3d 05a1 3abe 00fb 0abe
00000220: 336f 243d 23de cc3c 5a48 b4bd c809 443e
00000230: 50e9 9b3d 84ab 1fbb 5911 a53c dcfd fa3d
00000240: 8332 393e c16f cbbd 9856 bfbd fc6c 1e3e
00000250: 38c5 57be d915 02bf 4cb7 29be b96d 5c3e
00000260: 32a7 803d 584a 5abd 2f6f 92bd 65f7 22be
00000270: 78b9 af3d 7a1e 4d3d 9d54 863e c8d8 10be
00000280: 1190 ef3d d390 af3d 82b7 16bd 13e3 173e
00000290: 7c53 9a3b 8f29 91bd e811 04bc c0f2 ce3d
000002a0: 3865 e5bd 0eb4 7f3e fd48 85bd bc4f 1c3d
000002b0: f974 043c 18c3 5c3d 95b0 e8bd a2e4 4c3e
000002c0: 5e1d 15bd 3349 b8bd a5b4 61bc b390 49bd
000002d0: e349 febc e903 333d db75 383e 0b1c 213e
000002e0: bc7a 9a3d 9434 9ebd a1eb 1ebe b27d 01be
000002f0: a982 42be 85af 373d f913 d93d 73d7 153d
00000300: 74fc 323e 4935 dd3d 27d6 20bd 2578 343e
00000310: 87df 3bbe 2928 0ebe a26e d23c 80e5 c4bd
00000320: 8ab5 733d b607 6dbe 0c8d 26bd d0cd 013c
00000330: 8061 613b 536d 69bd 5791 013d 73a9 45bd
00000340: 6f0b bdbd 1006 d2be 70a1 e0bd 1859 a3bd
00000350: 1f5f 813e 7279 21bd cc0d e2bd 931c fc3c
00000360: 8d71 2bbd dde8 eb3d 5b2f 62bd fcc7 a3bd
00000370: 06cf 863b e7d7 eabc 04d3 3a3e a304 f13e
00000380: e035 b13c f92c 33bd 88b9 b5be 8177 803e
00000390: 35bc f33d aee4 77be 8cc5 9c3d 91a4 803d
000003a0: 2328 97bd 4d1f 6e3d fc86 0dbc 2bb9 273d
000003b0: d89a 86bd 0026 e4be 1208 b6be 57d9 a9be
000003c0: 5c2b 163d 770e b33e 669e 30be 7eda ccbc
000003d0: 90b4 69b9 cbf1 a13d 4787 d9bd 0ceb 193d
000003e0: 38d4 b93c c397 ce3e ca20 39bd 5084 8abd
000003f0: 0824 e03c b514 4abe 017c 273d 7b7b 033e

model.rnn.bias_ih_l0 f4 [160]
0.033799797 0.4463583 -0.10579237 0.34243202 0.1023451 0.15240973 0.20494233 -0.030640226
0.11067184 0.4755694 0.07910428 -0.098614454 0.21337977 0.3321463 0.2007681 -0.045867205
0.14414194 0.11205618 -0.07576179 0.29724422 0.27791068 0.5354706 0.40754837 0.059734557
0.2600642 0.09330671 0.063045725 0.22553064 0.092482775 0.2755681 0.14317553 0.19129977
0.19128437 -0.02905724 0.25073874 0.2088541 0.24754614 0.123715006 0.09680321 0.080826044
-0.038803667 0.1361134 0.14895964 -0.10158198 0.04664359 -0.04511538 0.20855607 -0.019858774
-0.042658072 -0.038057342 0.11502727 -0.04457594 0.15439749 0.177033 0.09877081 0.17666273
-0.12013923 0.032199237 0.16548415 0.13045163 0.025716813 -0.07721508 -0.11134937 -0.037070364
0.24943854 -0.060678057 -0.07792824 0.057928756 -0.0032159274 0.027098019 0.053533025 -0.04953075
-0.10794969 -0.13960394 0.10447374 0.19295949 -0.056757465 0.14957064 0.08348731 -0.123820595
-0.12519744 0.22089638 -0.18338221 0.17214061 -0.008407258 0.10853286 0.15847653 0.0046582553
-0.15639955 0.1215093 0.05607219 -0.07978725 0.18898204 -0.21025628 -0.14372654 0.08102388
-0.1321781 -0.2265853 -0.055150475 0.03611376 0.11823668 0.12205053 0.3142398 0.19632727
-0.014980288 -0.0788366 0.07689622 -0.051117424 0.02174758 0.118716314 -0.04175586 0.12417628
-0.037404537 -0.27822778 -0.08818977 0.070878364 -0.058695793 -0.054240666 -0.01762665 0.17140178
0.18551031 0.09607209 -0.0013991643 -0.010329622 0.13364679 -0.03287084 0.03888342 0.08813397
0.20123081 0.4321872 -0.08785569 -0.0029825503 0.08916576 0.06754883 -0.0012597538 0.1643013
0.0807413 0.19219853 0.1010421 0.18622021 0.14930515 -0.037619047 0.071217306 0.21963137
0.043506715 0.22503334 -0.012949902 0.13845451 0.007774164 0.10679997 -0.04315524 -0.08970123
-0.035090126 0.16002692 0.16720521 0.19378448 0.014857461 0.1627568 -0.017379 0.18265826
00000000: a871 0a3d 1389 e43e aca9 d8bd 4053 af3e
00000010: 4f9a d13d 4c11 1c3e 67dc 513e 3601 fbbc
00000020: eba7 e23d d57d f33e 6d01 a23d 60f6 c9bd
00000030: 3a80 5a3e 140f aa3e 2796 4d3e 40df 3bbd
00000040: f299 133e b67d e53d ff28 9bbd 6530 983e
00000050: 4f4a 8e3e 9a14 093f 2eaa d03e 39ac 743d
00000060: 2327 853e 9717 bf3d 1e1e 813d 81f1 663e
00000070: 9c67 bd3d 4317 8d3e 9b9c 123e 16e4 433e
00000080: 0de0 433e 7309 eebc d460 803e d9dd 553e
00000090: bc7c 7d3e 4b5e fd3d c340 c63d 2088 a53d
000000a0: 98f0 1ebd 5061 0b3e e088 183e 370a d0bd
000000b0: 590d 3f3d e8ca 38bd b98f 553e deae a2bc
000000c0: 3bba 2ebd 04e2 1bbd 6b93 eb3d 4395 36bd
000000d0: 601a 1e3e 2448 353e 5a48 ca3d 13e7 343e
000000e0: 8e0b f6bd 59e3 033d ad74 293e 1d95 053e
000000f0: 11ac d23c f122 9ebd 230b e4bd 18d7 17bd
00000100: d16c 7f3e 8e89 78bd d798 9fbd b446 6d3d
00000110: 4fc2 52bb aafc dd3c 7245 5b3d c1e0 4abd
00000120: ba14 ddbd 56f4 0ebe 54f6 d53d 2c97 453e
00000130: 847a 68bd 0c29 193e 65fb aa3d a795 fdbd
00000140: c233 00be a932 623e 8cc8 3bbe a145 303e
00000150: 99be 09bc 7a46 de3d ac47 223e 47a4 983b
00000160: 3427 20be ded9 f83d f4ab 653d 7f67 a3bd
00000170: 8284 413e 6c4d 57be 0d2d 13be d9ef a53d
00000180: b259 07be fa05 68be 77e5 61bd 06ec 133d
00000190: 1326 f23d a1f5 f93d 0ae4 a03e 040a 493e
000001a0: e26f 75bc 1575 a1bd c47b 9d3d 8160 51bd
000001b0: fb27 b23c 8a21 f33d 3108 2bbd 2250 fe3d
000001c0: 8035 19bd df73 8ebe d79c b4bd ad28 913d
000001d0: 006b 70bd 762b 5ebd c465 90bc f383 2f3e
000001e0: 6af6 3d3e 72c1 c43d 2a64 b7ba 933d 29bc
000001f0: b4da 083e 93a3 06bd 3944 1f3d 957f b43d
00000200: 730f 4e3e a447 dd3e afed b3bd e476 43bb
00000210: 8a9c b63d 0a57 8a3d 531e a5ba 9a3e 283e
00000220: b25b a53d b1cf 443e 29ef ce3d 83b0 3e3e
00000230: 73e3 183e 6e16 1abd 61da 913d 0ce7 603e
00000240: 1934 323d 246f 663e d32b 54bc 05c7 0d3e
00000250: 6abe fe3b f1b9 da3d 8dc3 30bd 47b5 b7bd
00000260: aaba 0fbd 19de 233e d837 2b3e 706f 463e
00000270: b56c 733c b8a9 263e 685e 8ebc c40a 3b3e

model.rnn.bias_hh_l0 f4 [160]
0.07434379 0.19750047 -0.071822666 0.26439512 0.059394974 0.24489273 0.21937808 -0.15680511
0.06834688 0.49794334 -0.108427994 0.0014497185 0.057285 0.12393287 0.36410975 -0.013189892
0.3814664 0.13944803 -0.06930832 0.38480023 0.410699 0.39889258 0.28480533 0.24171941
0.19869056 0.28966567 0.069975816 0.0350272 0.064694375 0.05847521 0.226327 0.31127122
0.15490328 0.22244336 0.27036193 0.3779641 0.30011368 -0.06995641 0.24598546 0.03940008
0.07031233 0.12323435 -0.021141056 -0.14497009 0.033974554 -0.05845776 0.20280543 -0.06917336
0.19328316 -0.060010303 0.16517557 -0.05941879 0.0740513 -0.033049766 0.1126453 0.13898495
-0.009697639 -0.00018263218 0.049956564 -0.031107085 -0.044448584 0.018140923 -0.030723238 0.09802147
0.12531142 0.08728107 0.14533108 -0.17208213 0.09874373 -0.057410117 -0.05504851 -0.033786055
-0.033215363 0.111562714 -0.042223528 0.030295283 0.004273862 0.14477523 0.04645048 -0.0687271
-0.043371238 0.13444883 -0.05640454 0.119762965 -0.025688749 -0.03577461 0.23144783 0.15964952
0.08970572 -0.12163095 -0.059810527 -0.10183852 0.17863931 -0.19522823 -0.015793568 0.11391475
-0.1442002 -0.13484526 -0.13608424 0.14836809 0.0028531547 0.13841394 0.22367468 -0.001055059
0.08265247 0.17467502 -0.080657095 0.1401682 -0.11944055 -0.124860704 -0.09982942 0.06735973
0.16107032 -0.076842666 -0.05761564 0.029093698 -0.13648008 -0.09414186 -0.1291196 0.17167078
0.08887926 -0.0022325362 0.087201044 0.051641166 0.0073946007 -0.042625476 0.14995465 0.09675628
0.2599555 0.33345774 -0.121536486 -0.058541127 0.14628929 0.18347032 0.07379826 0.16662809
-0.01640427 -0.025701514 0.10786903 0.12767015 0.016137958 -0.056187157 0.07900324 0.35305732
0.26458073 0.37333122 0.1443425 0.041247584 -0.09776974 0.0863999 -0.025750915 0.07989051
0.16320826 0.07914269 0.09988812 0.116999485 -0.00087002554 0.25603 -0.018807769 0.23777787
00000000: 8f41 983d 903d 4a3e c317 93bd cc5e 873e
00000010: 2548 733d 29c5 7a3e a6a4 603e 8591 20be
00000020: 73f9 8b3d 6ef2 fe3e 7f0f debd 7b04 be3a
00000030: ada3 6a3d 84d0 fd3d 986c ba3e 6b1a 58bc
00000040: 904f c33e 77cb 0e3e 85f1 8dbd 8904 c53e
00000050: 2447 d23e a63b cc3e 01d2 913e 4b85 773e
00000060: 8a75 4b3e 0f4f 943e 7b4f 8f3d ae78 0f3d
00000070: 7c7e 843d b483 6f3d 44c2 673e f15e 9f3e
00000080: f79e 1e3e 31c8 633e e16c 8a3e 8384 c13e
00000090: 80a8 993e 4e45 8fbd 9de3 7b3e fa61 213d
000000a0: e9ff 8f3d 4a62 fc3d 0230 adbc 0a73 14be
000000b0: e728 0b3d 6771 6fbd 3aac 4f3e c3aa 8dbd
000000c0: 05ec 453e 5dcd 75bd c923 293e 1e61 73bd
000000d0: 35a8 973d 315f 07bd 94b2 e63d 1252 0e3e
000000e0: d9e2 1ebc f480 3fb9 419f 4c3d 49d4 febc
000000f0: b80f 36bd 469c 943c 4daf fbbc 7bbf c83d
00000100: a351 003e 6bc0 b23d acd1 143e 4c36 30be
00000110: 273a ca3d df26 6bbd 8c7a 61bd 3f63 0abd
00000120: d50c 08bd fe7a e43d 94f2 2cbd d02d f83c
00000130: c10b 8c3b f53f 143e dc42 3e3d cbc0 8cbd
00000140: 0aa6 31bd f4ac 093e 7208 67bd 4946 f53d
00000150: 3671 d2bc 6688 12bd a900 6d3e 2a7b 233e
00000160: a2b7 b73d a619 f9bd e2fb 74bd b790 d0bd
00000170: 39ed 363e e9e9 47be 8361 81bc 234c e93d
00000180: 38a9 13be e014 0abe ab59 0bbe ceed 173e
00000190: fefb 3a3b 62bc 0d3e fa0a 653e e849 8aba
000001a0: b345 a93d 02de 323e 8c2f a5bd 4188 0f3e
000001b0: 3f9d f4bd f8b6 ffbd 5e73 ccbd e6f3 893d
000001c0: 9eef 243e b05f 9dbd 61fe 6bbd e855 ee3c
000001d0: 6fc1 0bbe 73cd c0bd ee37 04be 77ca 2f3e
000001e0: 5406 b63d be4f 12bb 7696 b23d b085 533d
000001f0: 684e f23b 0d98 2ebd b68d 193e 2828 c63d
00000200: e318 853e f9ba aa3e 1fe8 f8bd d2c8 6fbd
00000210: dccc 153e a5df 3b3e 8b23 973d 8ea0 2a3e
00000220: 3f62 86bc fb8b d2bc 70ea dc3d f7bb 023e
00000230: c033 843c 8124 66bd 73cc a13d eec3 b43e
00000240: 2077 873e 4525 bf3e 85ce 133e 3af3 283d
00000250: 803b c8bd 6ef2 b03d 95f3 d2bc a39d a33d
00000260: 1120 273e 9015 a23d 2592 cc3d 6d9d ef3d
00000270: 6d12 64ba 5d16 833e c012 9abc 0b7c 733e

model.rnn.weight_ih_l1 f4 [160, 40]
-0.26902795 -0.31990528 0.11459133 0.0065248488 0.23251563 0.002926921 -0.10462254 0.3201534
0.11262289 -0.7591175 0.11471242 -0.005492308 -0.07751 0.07309949 0.105325975 0.10797229
0.3185075 0.0025016472 -0.02409248 0.38727304 0.10070422 -0.077882215 0.2258422 0.35186115
0.0259778 0.13893528 0.30782735 -0.51469254 -0.0844829 -1.0016438 -0.8037323 0.3844565
0.3093441 -0.15649419 -0.18179467 -0.12195796 -0.22062175 -0.62069494 -0.18099424 0.126576
-0.21815036 0.16678154 -0.14397709 0.09958078 0.11389337 0.18382953 0.01940817 0.2135838
-0.15435727 0.22919461 -0.32741714 0.36251244 0.20976381 -0.030191079 -0.107376345 -0.21198052
-0.23910294 -0.2487197 -0.14660197 0.15616627 0.15677011 0.2864716 0.31228548 0.2815898
0.07975359 0.22825608 -0.34937996 -0.31511506 -0.33940202 -0.4064789 -0.081947796 -0.21913542
0.15277609 -0.33242267 -0.33103964 -0.02588414 -0.15036622 -0.5496289 -0.48207903 0.9376007
-0.3033866 0.30570972 -0.17049055 0.26658618 0.18895029 -0.1195132 0.21360402 0.22425938
-0.20764734 0.08476599 -0.11539452 -0.024818182 0.25026938 -0.26963276 -0.26600924 0.016209887
-0.18790309 -0.19668289 -0.0030841003 0.114397444 0.12711363 0.12670715 0.26209107 -0.24271598
0.20291182 0.1562108 -0.06146618 0.42277294 -0.13773072 -0.042575452 -0.05357325 0.06009554
0.18490268 -0.20875669 -0.025189584 0.0901238 -0.07986268 -0.09582984 0.2220767 0.20406047
-0.09176818 0.64665824 -0.16291969 0.012164953 -0.10577254 -0.030525537 -0.026550684 -0.097493775
-0.09037192 0.47732675 -0.0758887 0.1492026 -0.1453318 0.049448304 0.016921489 -0.08900771
-0.19104375 -0.18922831 -0.1566401 0.15829149 0.19008084 0.25258943 0.015073302 0.39203078
0.2901542 0.02778147 -0.083375104 -0.16944015 -0.031929225 -0.22766183 -0.3313943 0.13182902
-0.059837997 -0.026738767 -0.2195894 0.015479828 -0.0017428513 0.16087769 0.22483768 0.7396185
-0.05476434 0.00095597527 -0.11664445 0.15161629 0.023749726 0.0073169125 0.037259325 -0.06457393
-0.11210401 -0.051544584 -0.13145138 -0.054228846 0.17267425 -0.096703075 -0.1766258 -0.16741659
-0.2157007 -0.23905797 0.068541385 0.13623336 -0.04485293 0.09387311 -0.02620282 -0.28505054
0.15124916 -0.017640444 -0.16975124 0.29191357 -0.08498745 0.16117975 0.048993908 -0.06924929
0.11471311 -0.19771837 0.017138937 0.0688818 -0.19645599 -0.26537082 0.18237218 0.031704027
-0.021550711 0.17145957 -0.07755386 0.12784168 0.16508166 0.029922567 0.0004402423 -0.060264803
-0.055055153 -0.069649205 -0.02558303 0.12491495 -0.06866344 -0.13344051 0.10963175 -0.02977185
-0.048259318 -0.11506762 0.08438458 -0.05145613 0.19176686 0.024874048 -0.020949949 0.057179295
0.16018242 -0.0863794 -0.029981008 -0.095754355 0.045775734 -0.02179586 -0.15717134 0.11949773
0.0010721942 0.020405976 0.06719247 -0.01869054 0.037643682 -0.2228139 0.12926258 -0.08322524
-0.19876525 0.3264706 -0.11027244 -0.07101525 0.12137032 0.15792263 0.030005515 0.016349206
-0.009373461 -0.322437 -0.027124807 0.013055921 0.11782614 -0.08058237 0.061136503 -0.47441623
00000000: 08be 89be a0ca a3be dcae ea3d 66ce d53b
00000010: 9418 6e3e 96d1 3f3b 5844 d6bd 25eb a33e
00000020: d4a6 e63d 8655 42bf 58ee ea3d d2f8 b3bb
00000030: 90bd 9ebd 2fb5 953d 25b5 d73d 9320 dd3d
00000040: 6a13 a33e adf2 233b 985d c5bc a748 c63e
00000050: 043e ce3d b680 9fbd 2d43 673e 2527 b43e
00000060: 65cf d43c 0d45 0e3e 8c9b 9d3e e4c2 03bf
00000070: 5f05 adbd dd35 80bf 66c1 4dbf 7bd7 c43e
00000080: 5a62 9e3e 0340 20be 6228 3abe 18c5 f9bd
00000090: abea 61be dde5 1ebf 8e56 39be 249d 013e
000000a0: cf62 5fbe c8c8 2a3e bb6e 13be 02f1 cb3d
000000b0: ed40 e93d cf3d 3c3e e2fd 9e3c b6b5 5a3e
000000c0: d50f 1ebe feb1 6a3e 38a3 a7be 3b9b b93e
000000d0: 53cc 563e 4853 f7bc 21e8 dbbd 6c11 59be
000000e0: 67d7 74be 61b0 7ebe d41e 16be 0dea 1f3e
000000f0: 5888 203e 68ac 923e e2e3 9f3e 8a2c 903e
00000100: da55 a33d f6bb 693e eee1 b2be c356 a1be
00000110: 1ac6 adbe 011e d0be 3fd4 a7bd 0965 60be
00000120: 5671 1c3e 4e33 aabe 077e a9be fa0a d4bc
00000130: 9af9 19be 7bb4 0cbf 10d3 f6be 9906 703f
00000140: 7d55 9bbe fc85 9c3e 1395 2ebe fc7d 883e
00000150: 2f7c 413e 56c3 f4bd 03bb 5a3e 40a4 653e
00000160: 81a1 54be cb99 ad3d f653 ecbd 804f cbbc
00000170: 4f23 803e 4e0d 8abe 5d32 88be 99ca 843c
00000180: ab69 40be 3d67 49be 9e1e 4abb 3549 ea3d
00000190: 132a 023e 85bf 013e cd30 863e 8a8a 78be
000001a0: 1ec8 4f3e b9f5 1f3e f6c3 7bbd b275 d83e
000001b0: 4809 0dbe 9963 2ebd a06f 5bbd be26 763d
000001c0: 2157 3d3e 50c4 55be 635a cebc d492 b83d
000001d0: 0b8f a3bd 6f42 c4bd 1368 633e 3af5 503e
000001e0: f5f0 bbbd 658b 253f 6bd4 26be 834f 473c
000001f0: 469f d8bd b110 fabc d280 d9bc d1aa c7bd
00000200: ea14 b9bd 2c64 f43e 896b 9bbd 91c8 183e
00000210: dcd1 14be 4e8a 4a3d ef9e 8a3c ad49 b6bd
00000220: f9a0 43be 11c5 41be 4366 20be 2a17 223e
00000230: 8da4 423e 6753 813e 03f6 763c 42b8 c83e
00000240: 178f 943e f795 e33c 91c0 aabd b881 2dbe
00000250: 38c8 02bd 2f20 69be 84ac a9be 30fe 063e
00000260: b018 75bd 420b dbbc 0bdc 60be 1b9f 7d3c
00000270: 6370 e4ba 1fbd 243e d93b 663e a357 3d3f
00000280: 9350 60bd 6a9a 7a3a 49e3 eebd 4d41 1b3e
00000290: c98e c23c b6c2 ef3b 3c9d 183d 563f 84bd
000002a0: ca96 e5bd 6a20 53bd 319b 06be 111f 5ebd
000002b0: 85d1 303e 430c c6bd 65dd 34be 416f 2bbe
000002c0: a5e0 5cbe 9dcb 74be 6d5f 8c3d c280 0b3e
000002d0: b5b7 37bd 8c40 c03d 4ca7 d6bc 25f2 91be
000002e0: 0fe1 1a3e b182 90bc 45d3 2dbe b275 953e
000002f0: e60d aebd 4e0c 253e d6ad 483d 92d2 8dbd
00000300: b5ee ea3d af76 4abe f566 8c3c e711 8d3d
00000310: c22b 49be afde 87be c6bf 3a3e 15dc 013d
00000320: 1e8b b0bc 1993 2f3e 8fd4 9ebd eee8 023e
00000330: 2b0b 293e 2c20 f53c 52d0 e639 3ad8 76bd
00000340: 8381 61bd 3ea4 8ebd 8193 d1bc 69d3 ff3d
00000350: 6b9f 8cbd a1a4 08be 9c86 e03d 18e4 f3bc
00000360: 90ab 45bd 93a8 ebbd d3d1 ac3d aac3 52bd
00000370: 885e 443e a9c4 cb3c 3a9f abbc d634 6a3d
00000380: dc06 243e afe7 b0bd bb9a f5bc dc1a c4bd
00000390: 567f 3b3d 3b8d b2bc 86f1 20be 3abb f43d
000003a0: de88 8c3a 6f2a a73c 359c 893d e71c 99bc
000003b0: 4330 1a3d 5429 64be 695d 043e ff71 aabd
000003c0: 1e89 4bbe 2827 a73e 84d6 e1bd 7270 91bd
000003d0: 0191 f83d 78b6 213e 20ce f53c c5ee 853c
000003e0: 2593 19bc 7616 a5be d834 debc 80e8 553c
000003f0: d54e f13d 5f08 a5bd 456a 7a3d afe6 f2be

model.rnn.weight_hh_l1 f4 [160, 40]
0.010021816 -0.18667969 0.06458999 -0.34513623 0.16500683 -0.17274158 0.3690345 -0.068448015
0.14481366 -0.006884169 0.108582504 0.0972859 0.22007218 -0.0016142767 0.04492958 -0.005349828
-0.31320193 0.15779401 -0.71700037 -0.018029729 -0.09164307 -0.14695793 0.26110464 -0.07253993
0.10657658 -0.11374815 -0.12932876 -0.03383503 0.003336484 -0.3656182 -0.33359012 -0.35256988
0.089260295 0.022743538 -0.08275568 0.37857038 0.018960573 0.20862423 0.47905466 -0.0063195443
-0.019363893 0.58003867 0.021230849 0.43545887 0.13651088 -0.26495486 -0.11396967 -0.07755047
0.2226465 0.14445071 0.07431152 0.009330711 -0.3073307 0.10563268 0.2707206 -0.056408577
0.008999703 -0.036761384 -0.08627842 -0.14436795 -0.06272434 -0.009857016 -0.18293397 0.111264765
0.041985255 -0.026297215 0.055644035 0.123349816 0.11262216 0.60810256 0.029081145 -0.006147377
0.1253141 -0.019132677 0.12656206 -0.019538209 0.05640846 -0.36196357 -0.6231912 0.036380623
-0.08069971 0.14167048 0.08674361 -0.19283846 -0.0475769 -0.16875406 -0.015084303 0.07114027
-0.029232498 -0.10632422 0.1242526 -0.017502598 -0.0050863186 -0.02679229 -0.035234567 -0.0081711635
0.092324406 0.027878078 -0.15273562 -0.051514115 -0.15709743 0.101894274 -0.012342296 0.012100764
-0.09294921 0.16684076 -0.025266284 0.06367231 -0.093022995 0.12254175 -0.07669563 -0.13230693
0.09725972 0.14317085 -0.08194531 -0.21267426 -0.13963643 0.11263924 -0.48252925 -0.066780224
0.11269428 0.15474765 0.09168214 -0.1586176 0.22637264 -0.02714584 -0.23286629 0.121105045
0.028796345 0.006026993 0.013072684 0.13958189 -0.1481899 -0.18507838 0.16985081 -0.065827094
0.05016432 0.1220923 -0.10663106 0.08882998 0.112093806 -0.01515764 0.21844582 -0.2527239
-0.14023574 -0.1255176 -0.11936458 -0.14169224 0.073015295 -0.0044987267 -0.334524 -0.16342786
-0.13459131 0.0057700896 -0.14572027 0.071597174 0.08926493 -0.50663006 0.60473096 -0.19248538
-0.07374173 -0.10856993 -0.15819685 -0.1492589 0.05927451 -0.052845653 0.2164706 -0.05862971
-0.062549144 0.10669956 -0.07305367 -0.021113025 -0.009310106 -0.019630598 0.0033424776 0.12932448
-0.13316894 0.17269637 -0.096662104 0.08035977 -0.06297361 0.12649515 0.030816106 0.12615968
-0.06852498 -0.01491666 0.067242846 0.10557 0.18566287 0.10937866 -0.03558141 -0.06012899
0.04299325 0.10260937 0.14830233 -0.1848749 0.045826033 -0.24338035 -0.25782785 0.1369127
-0.119631924 -0.04700234 -0.09327102 -0.06672556 0.18168782 -0.060925584 -0.056327127 0.04671764
-0.027077058 0.062458336 0.12572183 0.14318295 -0.02212637 0.14483787 -0.10136396 -0.10941814
0.047963522 -0.0021355972 0.0064854575 0.025228664 -0.1195933 0.020077936 -0.017027644 0.1073828
0.026473243 0.045459423 -0.04518715 0.047798175 0.09051778 0.006073008 -0.0765533 -0.06940524
0.02659052 0.101466596 0.046861455 -0.06873104 0.15382881 -0.04640047 -0.04408454 0.16486543
0.03929565 0.25727975 0.019619323 0.039961968 0.004570803 -0.17725413 -0.14256608 0.09740445
0.188799 0.18282166 -0.11034564 0.11060617 0.10992225 -0.12316674 -0.19924009 0.063569576
00000000: 8b32 243c f628 3fbe c247 843d b2b5 b0be
00000010: 8df7 283e 2be3 30be 17f2 bc3e 792e 8cbd
00000020: 084a 143e 9894 e1bb 8160 de3d d43d c73d
00000030: 9a5a 613e 2396 d3ba 1408 383d 9c4d afbb
00000040: 015c a0be c194 213e 568d 37bf 15b3 93bc
00000050: 5daf bbbd 247c 16be 82af 853e d18f 94bd
00000060: d244 da3d caf4 e8bd c26e 04be 9a96 0abd
00000070: eaa8 5a3b 4f32 bbbe 53cc aabe 0a84 b4be
00000080: 1ace b63d a850 ba3c cf7b a9bd fad3 c13e
00000090: 3453 9b3c 97a1 553e a746 f53e 2e14 cfbb
000000a0: 07a1 9ebc 6a7d 143f 51ec ad3c 77f4 de3e
000000b0: 82c9 0b3e 2aa8 87be ee68 e9bd c8d2 9ebd
000000c0: 72fd 633e e3ea 133e a330 983d d7df 183c
000000d0: 735a 9dbe f255 d83d e49b 8a3e ae0c 67bd
000000e0: 7e73 133c 1b93 16bd beb2 b0bd 31d5 13be
000000f0: 9e75 80bd 527f 21bc 0b53 3bbe c8de e33d
00000100: bbf8 2b3d 426d d7bc 00eb 633d d49e fc3d
00000110: 72a6 e63d 9cac 1b3f 953b ee3c f06f c9bb
00000120: 5752 003e 22bc 9cbc 7c99 013e 980e a0bc
00000130: 8f0c 673d 4a53 b9be 7589 1fbf d903 153d
00000140: e445 a5bd 1112 113e a2a6 b13d 7277 45be
00000150: ffdf 42bd ddcd 2cbe 2724 77bc fdb1 913d
00000160: fe78 efbc 83c0 d9bd 2678 fe3d 9c61 8fbc
00000170: 22ab a6bb 817b dbbc 1f52 10bd 58e0 05bc
00000180: 9414 bd3d 9160 e43c ba66 1cbe 7700 53bd
00000190: 26de 20be f2ad d03d 5737 4abc 4842 463c
000001a0: 285c bebd 4ed8 2a3e 3dfb cebc a166 823d
000001b0: d782 bebd 2bf7 fa3d 9912 9dbd 787b 07be
000001c0: 1b30 c73d 619b 123e f1d2 a7bd 48c7 59be
000001d0: dafc 0ebe 67af e63d 130e f7be 12c4 88bd
000001e0: 42cc e63d 2b76 1e3e d9c3 bb3d a76c 22be
000001f0: 3bce 673e f460 debc 8074 6ebe ec05 f83d
00000200: 50e6 eb3c 157e c53b d02e 563c 8eee 0e3e
00000210: 18bf 17be 3085 3dbe 5fed 2d3e 5bd0 86bd
00000220: 1a79 4d3d 870b fa3d 6361 dabd 7eec b53d
00000230: 7091 e53d c057 78bc 43b0 5f3e 0765 81be
00000240: f599 0fbe b087 00be 6b75 f4bd c517 11be
00000250: 0b89 953d 0e6a 93bb bb46 abbe a259 27be
00000260: 4ed2 09be 0513 bd3b b237 15be 8aa1 923d
00000270: 88d0 b63d 82b2 01bf a6cf 1a3f e31a 45be
00000280: e705 97bd e959 debd 5bfe 21be 53d7 18be
00000290: d4c9 723d af74 58bd 78aa 5d3e b525 70bd
000002a0: c419 80bd 4d85 da3d 2a9d 95bd 39f5 acbc
000002b0: 6a89 18bc 59d0 a0bc 780d 5b3b a36d 043e
000002c0: 705d 08be 51d7 303e c8f6 c5bd aa93 a43d
000002d0: 4ff8 80bd f287 013e 0f72 fc3c 0130 013e
000002e0: d356 8cbd 0265 74bc 9eb6 893d 1635 d83d
000002f0: 681e 3e3e eb01 e03d d0bd 11bd d149 76bd
00000300: b119 303d dd24 d23d 91dc 173e d94f 3dbe
00000310: 14b4 3b3d b338 79be 0302 84be d832 0c3e
00000320: 9501 f5bd 8785 40bd e004 bfbd 69a7 88bd
00000330: 5f0c 3a3e 1b8d 79bd 46b7 66bd ff5a 3f3d
00000340: b5d0 ddbc 50d4 7f3d 39bd 003e 8d9e 123e
00000350: 5c42 b5bc 6150 143e e897 cfbd 9e16 e0bd
00000360: 6675 443d 60f5 0bbb f683 d43b 58ac ce3c
00000370: 55ed f4bd 7c7a a43c 8f7d 8bbc 83eb db3d
00000380: 6ade d83c a933 3a3d 2916 39bd 05c8 433d
00000390: 6361 b93d 1500 c73b fac7 9cbd 5624 8ebd
000003a0: 5dd4 d93c b8cd cf3d ccf1 3f3d dcc2 8cbd
000003b0: 4d85 1d3e 6b0e 3ebd fe91 34bd 7cd2 283e
000003c0: 7af4 203d 2cba 833e b4b8 a03c 29af 233d
000003d0: adc6 953b 1b82 35be d8fc 11be fc7b c73d
000003e0: 8654 413e 9a35 3b3e e5fc e1bd 7d85 e23d
000003f0: eb1e e13d d83e fcbd 9805 4cbe c430 823d

model.rnn.bias_ih_l1 f4 [160]
0.032467887 0.32763115 0.31456944 0.122824565 0.15008256 0.24325302 0.1369583 -0.083892435
0.21745548 0.013454707 0.25456256 0.23656285 0.0887669 0.13494898 0.04690858 0.07766715
-0.14438057 0.1571957 0.1705784 0.13609615 0.10239483 0.22012039 -0.12703712 -0.03566983
0.36702085 0.18379489 -0.008241512 0.23441982 0.41588303 -0.09269905 0.042066958 0.22018811
0.41363284 0.09263148 0.13594648 0.005561154 0.4235432 -0.020968305 0.17310339 0.04454
-0.083628915 0.13889308 0.045610316 0.182503 0.054038588 0.062565275 0.12439554 0.05864482
-0.04894795 -0.05796177 0.14693515 -0.005339667 0.057082586 0.14990208 0.007787785 0.018867591
0.1323715 0.0276821 0.06776582 0.050407734 0.10972517 0.18855971 0.123366505 -0.110320695
-0.039121065 -0.049666435 0.11147754 -0.039173007 0.038954537 -0.072862245 0.12290619 -0.009302345
-0.04927415 -0.074122615 0.013061451 0.10155876 0.10525263 0.0032216213 -0.0124419825 0.20934023
-0.11981362 -0.15491804 0.036266543 -0.004702113 -0.09608592 -0.16189265 0.12880903 0.030177074
0.26348826 0.010186786 0.29038244 0.15408053 0.22394326 -0.053276747 0.1060553 0.018154664
0.04770275 -0.057482347 -0.11617314 -0.12801658 -0.13633169 -0.097973324 0.01985037 0.12769029
0.14174363 0.14334927 -0.10862149 0.04927826 0.26710808 0.09615616 -0.14694953 0.10303234
0.0025044717 0.040816586 -0.25825033 -0.069141336 0.15420038 -0.19732901 -0.14288422 0.11652146
0.14789562 -0.07670402 -0.08471023 0.032797612 0.12939452 0.07637362 0.16615543 0.087535545
0.04705539 -0.09743918 0.0032350442 0.2238282 0.37775606 -0.085198835 -0.1325647 0.28825292
-0.08190779 0.20120879 0.32812396 0.16972828 0.0822368 0.32977206 0.16181122 0.24175043
-0.054251134 -0.039157856 -0.048378948 0.18506104 0.1543595 -0.033113092 0.18454264 0.08686271
-0.06439978 0.03489395 0.020078951 0.2144662 0.26846814 -0.008157003 0.122464366 0.108458355
00000000: 0cfd 043d 45bf a73e 3f0f a13e 728b fb3d
00000010: 3eaf 193e 5217 793e cc3e 0c3e cccf abbd
00000020: a6ac 5e3e 2271 5c3c 0656 823e 883d 723e
00000030: 6ccb b53d 1130 0a3e 3623 403d f40f 9f3d
00000040: 80d8 13be e9f7 203e 1bac 2e3e ca5c 0b3e
00000050: 61b4 d13d 3d67 613e 0516 02be 871a 12bd
00000060: 28ea bb3e ba34 3c3e 6807 07bc c00b 703e
00000070: 9fee d43e 00d9 bdbd 674e 2c3d fe78 613e
00000080: afc7 d33e 93b5 bd3d 8e35 0b3e 573a b63b
00000090: a8da d83e b9c5 abbc 0442 313e 936f 363d
000000a0: a345 abbd fd39 0e3e e2d1 3a3d 11e2 3a3e
000000b0: 9157 5d3d 3922 803d 17c3 fe3d 8d35 703d
000000c0: a57d 48bd 5269 6dbd 2b76 163e 60f8 aebb
000000d0: 6ecf 693d ee7f 193e ad30 ff3b 3590 9a3c
000000e0: 658c 073e 92c5 e23c cec8 8a3d 5778 4e3d
000000f0: 97b7 e03d cc15 413e 94a7 fc3d d1ef e1bd
00000100: 693d 20bd 086f 4bbd 564e e43d e073 20bd
00000110: cb8e 1f3d cd38 95bd 3eb6 fb3d dd68 18bc
00000120: b1d3 49bd 99cd 97bd b2ff 553c 0afe cf3d
00000130: b18e d73d d621 533b 75d9 4bbc 495d 563e
00000140: d860 f5bd d6a2 1ebe 3a8c 143d 2f14 9abb
00000150: b2c8 c4bd 30c7 25be 84e6 033e e935 f73c
00000160: efe7 863e 7ae6 263c 02ad 943e 49c7 1d3e
00000170: 6251 653e b838 5abd 8533 d93d 17b9 943c
00000180: f563 433d 9c72 6bbd 2fec edbd c716 03be
00000190: 899a 0bbe 3da6 c8bd 3e9d a23c 3ec1 023e
000001a0: 3e25 113e 27ca 123e f274 debd 00d8 493d
000001b0: 64c2 883e 85ed c43d f079 16be 9f02 d33d
000001c0: 1022 243b 4b2f 273d 6339 84be f999 8dbd
000001d0: b4e6 1d3e 9e10 4abe 3e50 12be cea2 ee3d
000001e0: f371 173e ff16 9dbd 8f7c adbd ca56 063d
000001f0: ff7f 043e c669 9c3d a624 2a3e d645 b33d
00000200: 27bd 403d 318e c7bd 0903 543b 3833 653e
00000210: 3e69 c13e ba7c aebd 0abf 07be e395 933e
00000220: 45bf a7bd ad09 4e3e ddff a73e 40cd 2d3e
00000230: c46b a83d e2d7 a83e d7b1 253e 6d8d 773e
00000240: 7036 5ebd fd63 20bd 0129 46bd a480 3d3e
00000250: 6b10 1e3e 98a1 07bd bff8 3c3e 14e5 b13d
00000260: 08e4 83bd f5ec 0e3d 9d7c a43c 079d 5b3e
00000270: a874 893e f3a4 05bc 99ce fa3d 6a1f de3d

model.rnn.bias_hh_l1 f4 [160]
0.14773881 0.37862062 0.08452952 0.041461803 -0.012521977 0.015224565 -0.045957092 -0.06960881
0.09067314 -0.04361776 0.19684286 0.07653661 0.18329053 0.1311503 -0.070540056 0.14583284
-0.056073863 0.31383607 0.05535112 0.30568674 0.011686397 0.11005527 0.0021247894 0.060786925
0.29317862 0.105004825 0.07048797 0.06643353 0.3079341 -0.07459142 0.02562086 0.278457
0.40284202 -0.03656344 0.22162138 0.0658935 0.21659261 0.03571195 0.06847202 0.27814004
-0.019420026 -0.052076902 0.13441066 -0.05078807 0.08993994 0.1795469 0.04919539 0.007973596
0.00120844 0.055932414 0.2183013 -0.110822886 0.18387946 -0.0025692706 0.052490614 0.19870013
-0.058345415 0.03326013 0.2165388 0.040904608 0.075526714 0.14011595 0.082720585 -0.046769667
-0.081191264 -0.08700264 0.11088713 0.009326331 0.1749905 -0.009578437 -0.09799014 0.063697055
0.034008726 0.025255589 0.111978285 0.10360331 0.15294094 0.042501155 0.04930033 0.06393675
-0.089753136 -0.046554692 -0.23395427 -0.15966801 -0.086261205 0.031030314 0.10396691 0.15370686
0.024912646 0.058257792 0.28077662 0.2686215 0.011754609 -0.06416704 0.16209234 0.25074774
-0.04962631 0.133547 0.01894451 -0.15778975 -0.13974689 -0.19350235 -0.090500765 0.06477862
0.12202099 0.2693153 0.12137782 0.24721876 -0.0110243 0.099839315 0.017071953 0.10592492
0.032321412 0.2848592 -0.25149667 -0.07621853 0.23256339 -0.05005907 0.050474487 0.13586274
0.16063946 -0.09761874 -0.04105857 0.1927465 -0.061105397 0.026993569 -0.059146535 0.015119454
-0.090493545 0.06724796 0.20626038 0.27306637 0.45715922 0.12329115 0.06379232 0.24363224
0.034494255 0.13911915 0.06407883 0.04999011 -0.09570178 0.374623 0.018467423 0.18170463
-0.073785484 -0.052183248 0.06814575 0.04328981 0.10606091 -0.0910236 -0.03538805 -0.102147944
0.09864079 0.16474491 0.22803247 0.18844315 0.08785064 0.15552935 0.29203215 -0.07841627
00000000: d848 173e 90da c13e d01d ad3d dad3 293d
00000010: fa28 4dbc 7470 793c 813d 3cbd 108f 8ebd
00000020: d7b2 b93d 89a8 32bd 2d91 493e 3abf 9c3d
00000030: 83b0 3b3e 444c 063e 4e77 90bd 3455 153e
00000040: b5ad 65bd 1faf a03e dbb7 623d f982 9c3e
00000050: 4d78 3f3c a864 e13d 0d40 0b3b b6fb 783d
00000060: 821b 963e c50c d73d ff5b 903d 4d0e 883d
00000070: 8aa9 9d3e 63c3 98bd d6e2 d13c ea91 8e3e
00000080: 4f41 ce3e 8cc3 15bd b7f0 623e 2cf3 863d
00000090: 74ca 5d3e b246 123d 0f3b 8c3d 5f68 8e3e
000000a0: bf16 9fbc 974e 55bd f3a2 093e 2707 50bd
000000b0: 6e32 b83d 24db 373e 1b81 493d b0a3 023c
000000c0: 8564 9e3a 6319 653d 608a 5f3e 1cf7 e2bd
000000d0: e64a 3c3e 3561 28bb 6600 573d 0c78 4b3e
000000e0: 9afb 6ebd c63b 083d 59bc 5d3e 978b 273d
000000f0: c0ad 9a3d 8e7a 0f3e 6969 a93d 8d91 3fbd
00000100: 9b47 a6bd 712e b2bd cb18 e33d 78cd 183c
00000110: b630 333e e0ee 1cbc 0eaf c8bd 9a73 823d
00000120: bc4c 0b3d cfe4 ce3c df54 e53d f92d d43d
00000130: 8d9c 1c3e b115 2e3d 25ef 493d 45f1 823d
00000140: 7ed0 b7bd 22b0 3ebd b591 6fbe 0380 23be
00000150: b7a9 b0bd 4933 fe3c 9aec d43d 5565 1d3e
00000160: 9b15 cc3c b99f 6e3d f4c1 8f3e c288 893e
00000170: 6796 403c 026a 83bd 89fb 253e 0262 803e
00000180: f544 4bbd 8bc0 083e 8431 9b3c a393 21be
00000190: cf19 0fbe 7b25 46be 7758 b9bd a7aa 843d
000001a0: 24e6 f93d b2e3 893e ef94 f83d ea26 7d3e
000001b0: 449f 34bc 8e78 cc3d 7bda 8b3c 2aef d83d
000001c0: 7563 043d 11d9 913e 2cc4 80be 7618 9cbd
000001d0: 1925 6e3e bd0a 4dbd 56be 4e3d 9a1f 0b3e
000001e0: ac7e 243e 55ec c7bd 082d 28bd 575f 453e
000001f0: a749 7abd 9e21 dd3c a343 72bd 96b7 773c
00000200: ae54 b9bd 4cb9 893d ec35 533e 5bcf 8b3e
00000210: c610 ea3e 1280 fc3d 8ca5 823d bb7a 793e
00000220: d949 0d3d 4075 0e3e c33b 833d 6ec2 4c3d
00000230: 4bff c3bd 96ce bf3e fe48 973c c710 3a3e
00000240: d81c 97bd 1abe 55bd 0090 8b3d a850 313d
00000250: 7636 d93d 956a babd 0ff3 10bd f132 d1bd
00000260: 2f04 ca3d e4b2 283e 5881 693e 3ef7 403e
00000270: 09eb b33d 1643 1f3e 3d85 953e b698 a0bd

exp_avg f4 [1, 40]
5.374822e-05 -1.3958529e-06 2.8190525e-05 -4.338086e-05 -3.7013157e-05 2.7171684e-05 -3.168155e-05 -3.1462412e-05
-2.1181359e-05 -3.9184735e-05 -5.520112e-05 -2.3581646e-05 -2.4976598e-05 -1.5277968e-05 -1.434909e-05 -7.1511065e-05
-5.270489e-06 -4.081147e-05 4.4907443e-05 7.1108516e-05 3.927332e-05 8.073915e-05 7.5706375e-06 -2.6454069e-05
-3.568244e-05 -2.7696957e-05 1.0226344e-05 -3.576548e-05 -7.1434944e-05 -2.3431978e-05 4.091076e-05 -1.9902498e-05
-5.103841e-05 -4.9112437e-05 -3.136961e-05 5.2298094e-07 -6.822785e-05 3.335357e-05 -1.6049536e-05 -4.3052816e-05
00000000: b66f 6138 2459 bbb5 b17a ec37 d8f3 35b8
00000010: 933e 1bb8 bfee e337 cee1 04b8 82f6 03b8
00000020: 9fae b1b7 4a5a 24b8 c087 67b8 33d1 c5b7
00000030: d684 d1b7 3029 80b7 dfbc 70b7 36f8 95b8
00000040: 28d9 b0b6 fb2c 2bb8 005b 3c38 1820 9538
00000050: 68b9 2438 8052 a938 4807 fe36 aee9 ddb7
00000060: baa9 15b8 c356 e8b7 d091 2b37 e402 16b8
00000070: 58cf 95b8 ca8f c4b7 9897 2b38 4af4 a6b7
00000080: 1312 56b8 14fe 4db8 dd92 03b8 fa62 0c35
00000090: 8c15 8fb8 20e5 0b38 1ea2 86b7 9c93 34b8

exp_avg_sq f4 [1, 40]
1.8720825e-06 3.0995403e-07 9.722359e-08 8.9727706e-08 2.2035924e-07 1.3561568e-07 5.6149565e-07 5.533154e-08
1.2175573e-06 6.5788583e-07 3.782911e-06 5.1207235e-07 1.5383961e-06 9.551766e-07 5.051173e-07 2.432628e-06
6.272462e-08 1.1880617e-06 3.0953854e-06 2.0706887e-06 4.992305e-07 2.6124346e-06 1.9080198e-07 1.7691332e-06
1.3291983e-06 2.4944615e-07 1.6310177e-07 2.9201017e-06 2.7914539e-06 4.953569e-07 2.7088842e-07 6.75679e-07
1.4549474e-06 3.6685364e-07 2.6024902e-06 4.546271e-07 1.4006168e-06 4.512121e-08 1.0794322e-06 6.440854e-07
00000000: 4444 fb35 c267 a634 3cc9 d033 54b0 c033
00000010: e39b 6c34 c19d 1134 b0b9 1635 aca5 6d33
00000020: f36a a335 9299 3035 ebdd 7d36 5875 0935
00000030: e37a ce35 9e33 8035 6697 0735 3b40 2336
00000040: 39b3 8633 7d75 9f35 51ba 4f36 29f6 0a36
00000050: dc02 0635 4951 2f36 40df 4c34 f472 ed35
00000060: e866 b235 9eeb 8534 1321 2f34 f7f6 4336
00000070: d054 3b36 abf8 0435 9f6e 9134 4f60 3535
00000080: 9d47 c335 fbf3 c434 71a6 2e36 7913 f434
00000090: d4fc bb35 4ccb 4133 02e1 9035 36e5 2c35

exp_avg f4 [1, 40]
-0.002773434 0.14589483 -0.067775965 0.045412954 -0.01043215 -0.026870254 -0.14659843 -0.05288803
-0.0004135091 0.020935938 -0.017805986 -0.0069355965 -0.08756853 0.010210276 0.008280234 0.0026100501
0.04518377 0.013831817 -0.023996837 0.010839358 0.009311777 -0.0113039315 -0.03392616 0.053669736
-0.02447898 -0.0031159222 0.017629895 0.04312788 0.019238263 0.03818301 0.08997623 -0.07029052
-0.0035434365 -0.009888761 0.01300405 0.03562051 0.0008536279 -0.065339975 -0.047343273 0.004402563
00000000: 80c2 35bb 7465 153e 20ce 8abd ef02 3a3d
00000010: 9ceb 2abc 021f dcbc e61d 16be 1ea1 58bd
00000020: 40cc d8b9 d881 ab3c dcdd 91bc 0044 e3bb
00000030: 2157 b3bd 0049 273c d2a9 073c 600d 2b3b
00000040: 9e12 393d d89e 623c 0495 c4bc 9097 313c
00000050: 6c90 183c 2034 39bc 28f6 0abd ccd4 5b3d
00000060: 2488 c8bc 8034 4cbb 926c 903c dca6 303d
00000070: 9099 9d3c ca65 1c3d 7545 b83d 7af4 8fbd
00000080: 0039 68bb 7804 22bc f00e 553c d0e6 113d
00000090: 00c6 5f3a f7d0 85bd 05eb 41bd 6043 903b

exp_avg_sq f4 [1, 40]
1.5703365 0.19731295 0.22219253 0.15019467 0.5049143 0.23804358 0.23295377 0.041984994
0.07360549 1.4434954 0.9701987 1.7408812 0.1434528 0.724146 0.021194706 1.7420216
0.7251013 0.70557517 1.7617317 1.5650026 0.4758638 1.9178869 0.016983606 0.39551818
0.60359186 0.25571212 0.436351 0.9582197 2.0496166 0.014063586 0.2922385 0.3224422
1.0859126 0.9292774 1.4281266 0.19103731 1.7723693 0.47293115 0.03138328 0.80845237
00000000: c900 c93f 680c 4a3e 7086 633e a2cc 193e
00000010: 1042 013f b2c1 733e 6f8b 6e3e 75f8 2b3d
00000020: 7abe 963d 75c4 b83f f15e 783f 32d5 de3f
00000030: 4ae5 123e a261 393f 85a0 ad3c 90fa de3f
00000040: 3da0 393f 93a0 343f 6d80 e13f 0152 c83f
00000050: 6ca4 f33e 517d f53f 3421 8b3c 5c81 ca3e
00000060: ff84 1a3f b3ec 823e 6669 df3e e34d 753f
00000070: eb2c 0340 f46a 663c 49a0 953e 2517 a53e
00000080: 2fff 8a3f 20e5 6d3f dacc b63f 499f 433e
00000090: ffdc e23f 0824 f23e c18b 003d bcf6 4e3f

exp_avg f4 [1, 40]
-0.00073797605 -0.00058557716 -0.00010614375 -5.7169644e-05 0.0002637825 -0.00025955096 0.0019851653 0.0010729374
-0.00031007297 0.0020804815 0.0005913873 0.0008473975 0.00042309673 0.0014948035 7.852994e-05 0.0010659185
0.00027032645 0.00040379027 -0.0006986918 -0.0016983661 -0.00070355536 -0.0011565837 0.00041599682 -2.4509558e-05
0.0003935317 0.00019166924 -0.0007010796 3.44296e-05 0.00074700615 -0.00014991005 -0.00036492766 0.0005886288
0.0005972155 0.0009517022 0.0006332759 0.00089013355 0.0007142114 0.001415202 -0.0009702878 0.0006193935
00000000: bc74 41ba 6b81 19ba 7e99 deb8 70c9 6fb8
00000010: 4a4c 8a39 5714 88b9 8c19 023b cea1 8c3a
00000020: 4a91 a2b9 b058 083b 5407 1b3a e223 5e3a
00000030: 15d3 dd39 48ed c33a 71b0 a438 4ab6 8b3a
00000040: 9aba 8d39 d0b3 d339 6a28 37ba b69b deba
00000050: cd6e 38ba 8298 97ba 261a da39 e099 cdb7
00000060: ee52 ce39 d2fa 4839 a8c8 37ba 8068 1038
00000070: bcd2 433a 2c31 1db9 c353 bfb9 364e 1a3a
00000080: 748e 1c3a a77b 793a 6d02 263a da57 693a
00000090: ea39 3b3a 4d7e b93a e95a 7eba cb5e 223a

exp_avg_sq f4 [1, 40]
0.0005148499 5.114618e-05 7.314089e-05 4.0817828e-05 0.00015907073 7.760328e-05 5.9403214e-05 1.3752582e-05
3.7857953e-05 0.00044915001 0.00034588066 0.00047017814 3.5843394e-05 0.00020588534 1.4457092e-05 0.00057954487
0.00018656843 0.00022398708 0.00054957956 0.0005123738 0.00015696784 0.0006676425 1.2433195e-05 0.0001582396
0.0001925944 8.4011255e-05 0.00012373184 0.00032281468 0.00067759346 1.1781176e-05 0.000118958225 9.5066185e-05
0.00034489555 0.00029199492 0.0004409335 6.9457376e-05 0.0005702599 7.888761e-05 1.3422172e-05 0.00024070527
00000000: fef6 063a cb85 5638 3763 9938 cf33 2b38
00000010: 39cc 2639 f2be a238 b727 7938 e4ba 6637
00000020: abc9 1e38 e57b eb39 5157 b539 3e82 f639
00000030: 8d56 1638 ede2 5739 bd8c 7237 99ec 173a
00000040: 95a1 4339 13de 6a39 a911 103a d350 063a
00000050: bc97 2439 bb04 2f3a 2a98 5037 1fed 2539
00000060: 2af3 4939 332f b038 03be 0139 743f a939
00000070: 87a0 313a c4a7 4537 3679 f938 455e c738
00000080: 19d3 b439 e516 9939 182d e739 a5a9 9138
00000090: 7e7d 153a 7770 a538 ca2f 6137 d465 7c39
