lightning_logs/version_0/checkpoints/epoch=92-step=4650.ckpt (torch, 300014 bytes, 33 tensors)

model.param_proj.proj.0.weight f4 [1, 40]
000000 ed 41 15 be d9 6a 43 bd 65 9c 2f bf 8f fb 18 be
       -0.1457593 -0.04770932 -0.68598014 -0.14939712
000010 0c d7 57 3f 4c bc c5 be 8e 0e 1b 3d c3 0d 6e be
       0.8431251 -0.38620222 0.037855677 -0.23247437
000020 0b 8c 89 bd 0e 5c 93 3e 19 e6 dd 3c 85 0f e4 3e
       -0.06716164 0.2878117 0.027087258 0.4454309
000030 41 48 c7 3e 0c b3 90 3d e4 db de 3c 2e b5 16 3f
       0.38922313 0.070654005 0.027204461 0.5887021
000040 21 17 2b 3f bb d9 1d 3e 9f 38 0d bf 92 57 af be
       0.66832167 0.15415089 -0.5516452 -0.34246498
000050 48 05 41 be d1 ec db be 04 8e 0c 3e de d9 b3 3e
       -0.18849671 -0.42954114 0.1372605 0.35127157
000060 dc b6 5b 3d 01 bf fd 3e 32 96 fe be ce 25 b2 bd
       0.053641185 0.49559787 -0.49723965 -0.08698617
000070 b3 79 fd 3d f8 4b 82 be fb f7 be 3e 79 30 bd 3a
       0.12376728 -0.25448585 0.3729857 0.0014434002
000080 0b 4c 6f 3e 35 de 5d 3f a6 a2 00 3f 64 59 e0 3e
       0.23368852 0.86667186 0.5024818 0.438182
000090 3a df dd 3e 5d ec 86 3d 5d b7 9b 3e 95 a1 1b 3f
       0.4333437 0.065880515 0.30413333 0.6079343

model.param_proj.proj.1.weight f4 [1, 40]
000000 cc 47 12 be bc 96 0d be ea 8c 1a 3d bb 92 dd bd
       -0.14285201 -0.13827032 0.037732042 -0.10819002
000010 64 18 84 bd e3 a1 31 be c2 f4 f9 3d ea 98 10 3e
       -0.06449965 -0.17346911 0.12204887 0.14120832
000020 f2 7f 51 3e 60 64 c0 bd b7 ae 0f 3d 73 14 55 3d
       0.20458964 -0.09394145 0.03507873 0.052021455
000030 22 e5 3b bd c0 30 90 3d c6 65 31 3e 18 eb 3c 3d
       -0.045872815 0.07040548 0.1732398 0.04612264
000040 f2 32 ba bd cb a1 bc 3d 4e 47 47 3d 47 9a 71 bd
       -0.09091748 0.09210547 0.048651986 -0.05898502
000050 9d 0a 24 be c7 d9 6d bd f9 46 07 3e 0a a4 c9 3b
       -0.16019674 -0.058069017 0.13210668 0.006153588
000060 88 7d 06 3e 2a c6 a9 3d e0 51 a5 3d f4 59 06 3d
       0.13133824 0.0828975 0.08072257 0.03280063
000070 67 d5 3b 3e b9 98 09 3e 20 4e 31 bd bc a3 04 3d
       0.18343125 0.13437165 -0.043287396 0.03238271
000080 f3 bf b7 3d 0b ed 24 3e b8 52 1d be c7 03 16 3e
       0.08972158 0.1610605 -0.15363586 0.14649878
000090 04 4c 95 3d 30 09 36 be b4 0f 05 be 5d ab 07 3e
       0.072898895 -0.17776942 -0.12994272 0.13248964

model.param_proj.proj.2.weight f4 [1, 40]
000000 a0 aa 0d 3d c3 0e ba 3d aa b0 16 3f 78 45 09 3e
       0.03458655 0.09084847 0.5886332 0.13405406
000010 d1 de 18 be 91 8b 05 3e ab 25 66 3e 59 35 77 be
       -0.14928748 0.13041522 0.22475307 -0.24141444
000020 f8 39 ac 3d 23 ae f4 bd 53 25 b4 3c d1 aa c5 be
       0.08409494 -0.119472764 0.021990454 -0.38606885
000030 c9 2d 3f bf c6 9e b4 be 03 8e cd 3d 0a e5 8b be
       -0.7467924 -0.35277385 0.10036852 -0.2732318
000040 5a d6 be be 50 33 0b be e3 93 85 3e 0a d1 71 3e
       -0.37272912 -0.13593793 0.2608939 0.23614898
000050 bb 87 99 3d 26 f3 89 3e 6d 6c 3d be 13 14 c2 be
       0.07496592 0.2694332 -0.18498392 -0.3790594
000060 75 e7 51 bd b1 5c 1a be 13 0b 33 3e 22 8b 3a bd
       -0.051246125 -0.15074421 0.17484693 -0.045542844
000070 0d 4f 15 be c0 0f aa 3d 8b d8 56 bf de af 90 bd
       -0.14580937 0.08303785 -0.8392417 -0.07064794
000080 88 92 0c be e0 77 32 be f5 b4 00 be 4b fc 22 be
       -0.13727772 -0.17428541 -0.1256903 -0.15916555
000090 76 cc 48 be 5f 37 f1 be d5 05 12 bf b7 c2 7c be
       -0.19609246 -0.47112557 -0.5704015 -0.24683653

model.rnn.weight_ih_l0 f4 [160, 21]
000000 0b 37 27 3e cf da 0a 3c 83 b4 88 3e 5b 1b cc 3d
       0.16329591 0.00847502 0.2670022 0.09966155
000010 76 ce bc 3d 4a e2 00 3e 54 67 02 bd f8 30 f8 bd
       0.09219067 0.12586322 -0.031836823 -0.12118715
000020 a4 7e 6c 3d a2 c9 23 3e fe 7c 43 3d 4a e4 5c 3e
       0.05773796 0.15994886 0.047726624 0.2157146
000030 e1 71 87 3e b1 40 0b 3e 5e 97 2c 3e a3 fc 58 3e
       0.2645407 0.13598897 0.16854617 0.21190123
000040 e3 65 98 be 1b 3d b5 b9 67 a0 0c 3e 0c 0f ff be
       -0.29765233 -0.00034568537 0.13733064 -0.49816167
000050 55 e0 df 3d 2f 2c 10 3e 73 64 f5 3c 64 17 a2 3e
       0.1093146 0.14079355 0.029955124 0.3165847
000060 29 f8 49 3e 25 82 19 3e 4a cc d4 bd 89 59 b0 bd
       0.19723572 0.14991052 -0.103905275 -0.086108275
000070 81 3c cd 3d 09 b6 e6 3d df 25 a5 3e 1d f4 46 3e
       0.10021306 0.11265189 0.32255456 0.1942906
000080 71 db e4 3d 5c 26 77 3e 63 5b 75 3e 52 03 ff 3c
       0.111746676 0.24135727 0.23960643 0.031129513
000090 1d f7 ae bd cf da 48 be a1 70 d4 39 2f b8 17 3e
       -0.08543227 -0.19614719 0.00040519706 0.14816354
0000a0 d3 9d 5e bc 95 49 2e 3e 5f 80 15 3e ab 9b 2b bd
       -0.013587433 0.17020257 0.14599751 -0.041896503
0000b0 05 ca 52 be 77 32 28 be ac a7 c0 3b fc cf 1b be
       -0.20584877 -0.16425501 0.005879363 -0.15216058
0000c0 1e 56 77 3c c6 8a 18 be af 26 3e be fa a2 19 be
       0.0150962155 -0.14896688 -0.18569444 -0.15003577
0000d0 53 26 5d 3c b6 c4 a5 3e 0b b9 83 3e 0f ee 12 be
       0.013497907 0.3237664 0.25727114 -0.14348625
0000e0 00 f3 10 bd fa 47 8d 3e 63 c3 d0 bc 7a 55 31 b9
       -0.035387993 0.27593976 -0.025483793 -0.00016911878
0000f0 39 91 59 bd 87 6c fa 3e 69 3b c5 3c 87 cc b4 3e
       -0.05311701 0.48910925 0.02407618 0.35312292
000100 b1 47 8a 3e 80 de 1f 3e 6e 70 ed 3d 0a 6e 89 3e
       0.2700782 0.15612221 0.1159371 0.26841766
000110 f6 f8 87 3e 15 c1 f5 3a 61 25 09 3d 50 28 bd 3c
       0.2655713 0.001874956 0.033482913 0.023090512
000120 c6 88 84 3b 47 70 8b 3e 4c 8e a3 3e 3d 9e d5 3e
       0.004044625 0.27234098 0.319445 0.4172229
000130 7e 21 4e bc 60 a9 5d 3e df 69 ff 3d bd eb 40 be
       -0.012581227 0.21646643 0.12471365 -0.18839927
000140 1b c1 7d 38 27 23 67 3e d8 71 c5 be a2 02 39 3d
       6.0499744e-05 0.22572003 -0.38563418 0.045168526
000150 f4 4b 9d 3d 50 c8 a2 3e 4e c3 33 3e 06 e0 66 3e
       0.076805025 0.3179345 0.17554972 0.22546396
000160 f0 4e 3b 3e 68 0a 1c 3e 2f 66 d7 3d 46 18 80 bd
       0.18291831 0.15238345 0.10517537 -0.0625463
000170 8a bd 52 3b dc 46 d7 3d 06 28 07 3d 76 96 a3 bd
       0.003215643 0.10511562 0.032997154 -0.079876825
000180 54 42 9e 3d 34 07 cf 3d 90 c2 d1 bd c9 c3 92 bb
       0.07727495 0.10108796 -0.10242188 -0.004478906
000190 f7 59 73 be b2 88 c8 3a a9 c7 8f 3e 41 53 f0 be
       -0.23764788 0.0015299527 0.28082016 -0.46938518
0001a0 fb 61 22 bc 80 9f 4b 3e 26 f6 47 3e c3 b3 50 3d
       -0.009911056 0.19885063 0.19527492 0.050952684
0001b0 de 46 24 3d 37 d4 6e 3e 51 58 15 be 75 2c 49 3e
       0.040106647 0.23323141 -0.14584471 0.19645865
0001c0 cd c5 0f 3d b4 ba 8e 3e ed 62 b5 3c 46 05 5b 3d
       0.035100747 0.27876818 0.022141898 0.053471826
0001d0 f2 10 39 3e 5f 79 cd bb 1e 94 a0 3e 14 64 f1 3e
       0.1807287 -0.006270572 0.31363004 0.47146666
0001e0 5b 1d c1 3e d5 fd aa bd 29 28 19 b9 a5 3c 80 3e
       0.3771771 -0.08349196 -0.00014606178 0.25046268
0001f0 3e be 4d 3d ca 7d 7d bd 2f 6c ed 3e 70 af a6 3e
       0.050230257 -0.06188754 0.463716 0.32555723
000200 58 9c cd 3e 5f 49 59 3e 48 c1 ff 3e 89 b9 a2 3e
       0.40158343 0.21219395 0.4995215 0.31782177
000210 4d 93 a6 3e 80 6e 8f 3d 77 9f bd bc 5f 37 3f 3d
       0.32534257 0.07003498 -0.023147328 0.046683665
000220 4d eb 1b bd 22 c1 fa 3d bd 27 2d 3e 1f dd e8 3d
       -0.038066197 0.122438684 0.1690969 0.113703005
000230 c7 14 fa 3d 20 ba 4b 3d f3 22 ce be 11 3b bb ba
       0.12210994 0.04973805 -0.4026104 -0.0014284571
000240 ca c2 78 3d c1 66 2d bf b6 9e cc 3e cd 8e 42 3d
       0.06073264 -0.67734915 0.39964837 0.047499467
000250 95 65 a5 bd 6f e6 06 be ad 7d e3 bb fa 92 3b 3e
       -0.08076016 -0.13173841 -0.006942472 0.18317786
000260 c6 84 99 3d cc 48 02 be 86 c1 34 be 62 f2 77 bd
       0.07496028 -0.12723082 -0.17651948 -0.06053389
000270 af 3c 2a be de f2 f1 3c 18 ab ab bc 97 9d f7 bd
       -0.16624711 0.029534753 -0.020955607 -0.12090605
000280 72 6a 6e be f4 dd 90 bd 47 1c f5 bd da b4 c2 3d
       -0.23282793 -0.07073584 -0.11968284 0.09507151
000290 1e bb dd ba dd bc e1 bd e5 13 ec be e0 11 18 3e
       -0.0016916727 -0.11022351 -0.46108928 0.14850569
0002a0 33 8e ef 3e f0 cd 4a 3e 82 85 92 3e 0c b1 56 3e
       0.46788177 0.19805121 0.28617483 0.20965976
0002b0 54 ae 8e 3c 67 b2 03 bd 0c a9 8d 3d 63 13 57 bc
       0.01741711 -0.03215256 0.06917009 -0.013127181
0002c0 86 fa fd 3c dc 0f 01 be d9 06 7a 3b 9e 24 82 bd
       0.031003248 -0.12603706 0.0038151054 -0.063546404
0002d0 b1 fd 25 3e 98 b9 ba 3d 56 44 91 3c 7d 80 63 3e
       0.16210057 0.091174304 0.01773278 0.22216983
0002e0 1e f1 58 be 51 bf ab 3a 84 1e 98 bd 95 74 3f 3e
       -0.21185729 0.0013103281 -0.074276954 0.18696816
0002f0 34 c2 ee bc 7e 43 8b 3e f6 38 98 3e 66 c5 c3 3d
       -0.029145338 0.2719993 0.29730958 0.09559135
000300 1e a4 14 3e 6c 81 86 3e c9 24 33 3e 71 a9 83 3e
       0.1451573 0.26270616 0.17494501 0.2571521
000310 8a 30 77 3e 11 d4 30 3e 58 02 7d 3e 76 5b 36 3d
       0.2413961 0.17268397 0.24707925 0.044520818
000320 89 23 58 3d af f9 40 3d 91 06 95 3e a4 b2 5e 3d
       0.052768264 0.047113117 0.29106572 0.054369584
000330 42 d7 21 3e b1 3e d3 be df 6a fc b9 39 de 8b 3e
       0.1580477 -0.41258767 -0.0004814481 0.2731798
000340 93 e0 76 3d 85 85 7c 3e 5e e0 be 3d aa 4b fc 3d
       0.060272764 0.24660309 0.093201384 0.12319119
000350 73 c7 0b 3e 35 8c a9 bd b6 cb be 3b 37 de 17 ba
       0.13650303 -0.082786955 0.005822624 -0.00057933055
000360 26 43 d4 bd b5 ce 9c bc 3b 1d 9e bd ed d6 ed bd
       -0.1036437 -0.019141534 -0.07720419 -0.116132595
000370 b7 08 aa be 26 6d 71 be 12 19 8d be 85 31 42 bd
       -0.33209774 -0.23576793 -0.2755819 -0.047410507
000380 0f e6 73 3b 47 cf 1d bd 33 65 02 be fb b9 9e 39
       0.0037215983 -0.038527753 -0.12733917 0.00030274675
000390 cb 21 0e be e6 67 e8 bd 1b 6f d0 3d 22 24 da bc
       -0.13880078 -0.11347942 0.10177442 -0.026628558
0003a0 b0 8a 52 3e 6c 6c 32 3e 3a 1c c2 3d 10 a8 2e 3e
       0.20560718 0.17424172 0.0947804 0.17056298
0003b0 6a 56 98 3d b0 99 96 3c 85 ea 11 be 40 38 11 3c
       0.07438357 0.01838383 -0.14249618 0.008863509
0003c0 5f 07 bf 3c e1 7d dd bd cb 84 8d bb 63 3c d8 bd
       0.023318944 -0.10815025 -0.0043188087 -0.10558393
0003d0 66 4f ac 3c f8 be 04 3e 22 b8 99 bd 4f 87 08 bd
       0.021033954 0.12963474 -0.07505824 -0.033332165
0003e0 a6 7a 47 3a 42 2e 4a 3e 90 c7 e9 be 6d fe 22 3d
       0.00076095236 0.19744208 -0.45660067 0.03979342
0003f0 4c 19 76 3e a6 84 4d 3e 1b 24 65 3d d2 0d c0 3e
       0.24033087 0.20070133 0.055942636 0.37510544

model.rnn.weight_hh_l0 f4 [160, 40]
000000 47 52 7c 3d 14 66 c9 bd 73 e6 4e bd 2a 29 73 3d
       0.061601903 -0.09833923 -0.050512742 0.05936543
000010 31 9a c1 3d 88 fc a3 bd 74 f8 86 ba 48 53 48 3d
       0.09453238 -0.08007151 -0.0010297433 0.04890755
000020 74 26 00 3e 3a 75 d1 bd 13 dd 87 3c 04 b7 3d 3d
       0.12514669 -0.10227437 0.016584909 0.046317115
000030 3c ab 12 be 56 36 ce bd 70 7b 9c 3c 39 b0 63 3d
       -0.14323133 -0.100689575 0.019101828 0.05558798
000040 3c 15 2a 3e 96 d8 e8 3d 31 a1 91 3d b5 ae 30 3d
       0.16609663 0.113694355 0.07110823 0.043135364
000050 10 4c 44 bd de 6b 48 3e d2 6c 32 3e 4c 94 b4 3c
       -0.0479241 0.19572398 0.17424324 0.02204337
000060 d0 44 86 bd ac 46 32 3e 27 b1 0c be ae 56 cb bd
       -0.06556094 0.17409772 -0.13739453 -0.09928642
000070 91 bd cb 3c 75 ba 9d bd 8b f4 6c 3d a6 7b d0 bd
       0.024870666 -0.077015795 0.0578504 -0.10179834
000080 62 ba 70 be 82 4d 91 3c c2 60 68 3d 3a 64 f9 bd
       -0.235086 0.017737154 0.0567329 -0.1217732
000090 72 de 0c bd 6b 6a aa bd d0 ee 86 be 91 28 83 3e
       -0.034391828 -0.08321079 -0.26354074 0.25616887
0000a0 48 f8 a5 be 3c b0 2a be e9 76 f2 3c ac 15 87 3e
       -0.32415986 -0.1666879 0.029597716 0.26383722
0000b0 32 cd 80 3d fc 27 d9 3c 6c b2 95 3d 06 c9 cd 3e
       0.06289138 0.026508324 0.07309422 0.4019243
0000c0 f6 41 23 be d1 5e 90 3e bc 7e b4 bd 51 bd 9b b9
       -0.15943131 0.2819734 -0.08813235 -0.00029704956
0000d0 65 da a3 3e 59 20 88 be 4b be 7a be 7e ba fc bd
       0.3200256 -0.2658718 -0.24486654 -0.12340258
0000e0 ed c0 33 be 44 6d 58 be 3e a1 4a be e1 29 25 3e
       -0.17554064 -0.21135432 -0.19788072 0.16129257
0000f0 6f 2f 68 3e ac d8 c9 3b b6 f2 bc 3e 29 60 35 bd
       0.22674344 0.0061598625 0.36903924 -0.04428116
000100 7e 23 4c 3e e5 6a 01 3e 21 eb 97 bb 68 b8 20 be
       0.19935414 0.12638433 -0.004636184 -0.15695345
000110 23 d4 8c be 16 1f 4d 3e 8f 04 88 be fd c5 ae bc
       -0.27505597 0.2003139 -0.26565978 -0.021334643
000120 c9 bd 3e 3d 51 f9 42 bd 15 83 97 be 25 74 49 3e
       0.046567712 -0.047601048 -0.29592195 0.19673212
000130 a8 aa 36 be 44 b9 20 be f0 0a f6 bd 1e 41 45 3e
       -0.17838538 -0.15695673 -0.12013805 0.19263121
000140 14 91 1a 3d 6a 28 36 be bc af a7 bb b0 1b 79 3d
       0.037736014 -0.17788854 -0.0051173847 0.06081742
000150 eb a7 0d bd 7d 2c 86 be c9 c1 30 3d 5c e8 a3 bc
       -0.034583967 -0.26205817 0.043153558 -0.020008259
000160 dc 32 0d be 61 58 87 be e5 d6 37 3e b9 5a b9 3d
       -0.13788933 -0.26434615 0.1795307 0.09050507
000170 0b bf 26 3d 9c a3 38 be 64 69 a9 be 8e 38 8e 3d
       0.040709537 -0.18031162 -0.3308822 0.06944381
000180 2b cc 05 be 32 08 dd bc d3 40 5a be 21 73 30 3e
       -0.13066165 -0.026981447 -0.21313791 0.17231418
000190 06 41 4b 3e 2b a7 49 3e 0a cc 19 3e 1c 1f ac 3e
       0.19849023 0.19692676 0.15019241 0.33617485
0001a0 6a 07 10 3e 2e 6c 57 3d a6 a3 5c be 5c a1 d9 3e
       0.14065328 0.052593403 -0.21546802 0.4250592
0001b0 13 0c d3 bd fc 8b 88 be dc 7d 83 be b3 6d 79 3d
       -0.10305037 -0.266693 -0.2568196 0.060895633
0001c0 92 89 50 3d 0f 21 77 be 6b 22 d3 bd 97 65 da 3d
       0.050912447 -0.24133705 -0.10309299 0.10663908
0001d0 eb 22 1f be 9d 3a 13 3c 49 44 d2 be 67 d4 d2 3d
       -0.15540664 0.008986142 -0.41067722 0.10294419
0001e0 a4 03 65 be e9 cd 52 be c3 3c c7 3d 10 b0 8a 3d
       -0.2236467 -0.20586361 0.09728386 0.067718625
0001f0 6a 25 1f bd 75 a4 b0 bd f0 f4 42 3e b7 d6 86 bd
       -0.03885404 -0.08625118 0.19038749 -0.06583922
000200 9c cb 62 be a2 3d 93 3e 2b ce 63 3d 26 88 bb 3d
       -0.22147983 0.2875796 0.05561654 0.09156828
000210 2d 0d 7a 3e 08 08 66 3d 60 9f 33 be ab 3f 0a be
       0.24419089 0.056160003 -0.17541265 -0.1350085
000220 75 29 14 3d 42 af d0 3c e3 b9 b4 bd 0c 62 3d 3e
       0.03617235 0.025474194 -0.088245176 0.18494433
000230 f7 3e a4 3d 78 e9 af bb a5 4f 88 3c 5b 95 e2 3d
       0.08019822 -0.005368408 0.01663954 0.110636435
000240 58 27 34 3e 23 2e c0 bd f0 d6 97 bd 37 98 07 3e
       0.17593133 -0.093838 -0.07414043 0.13241659
000250 9f 0c 57 be 7a bd fa be c5 e9 26 be 83 1d 3e 3e
       -0.21000908 -0.48972684 -0.16300113 0.18565945
000260 fd 32 83 3d 23 dc 59 bd 39 17 8a bd 73 dc 1f be
       0.064062096 -0.053188454 -0.067427106 -0.15611438
000270 46 cf af 3d af 75 84 3d 5f 5b 84 3e 3f 95 06 be
       0.08584456 0.06467759 0.2585096 -0.1314287
000280 02 3f f3 3d e6 46 a9 3d 8e 19 1c bd 78 79 18 3e
       0.11877252 0.08265476 -0.03811031 0.14890087
000290 41 93 22 3c 4c 1f 96 bd 8c 1d f7 bb 4b 95 c4 3d
       0.009922803 -0.07330188 -0.007541364 0.09598788
0002a0 98 e7 ec bd e0 c8 6b 3e f8 a6 89 bd 78 a5 1a 3d
       -0.115676105 0.23025846 -0.067213 0.03775546
0002b0 bc 9e eb 3b 3a 30 53 3d f6 17 e8 bd 90 72 49 3e
       0.0071905535 0.051559664 -0.11332695 0.19672608
0002c0 71 6f 0c bd e0 34 b6 bd a3 9e 56 bc 91 1b 41 bd
       -0.034285966 -0.08896804 -0.013099345 -0.04714543
0002d0 29 98 fa bc 08 79 44 3d db e7 35 3e f4 a0 24 3e
       -0.030590134 0.047966987 0.17764227 0.16077024
0002e0 d0 8d 9c 3d 65 c4 9f bd 52 47 25 be 85 19 01 be
       0.07644236 -0.07801131 -0.16140488 -0.12607391
0002f0 25 c8 3e be fd 62 2e 3d b0 5e d7 3d 4d 92 43 3d
       -0.18631037 0.04257487 0.10516107 0.047746945
000300 cd 69 25 3e 5d c0 e0 3d 0d de 19 bd 8c f9 34 3e
       0.16153641 0.109741904 -0.03756528 0.1767332
000310 4f 76 3a be ba d9 06 be 26 cf 9f bb 56 bf 81 bd
       -0.18209194 -0.13168994 -0.004876989 -0.063353226
000320 d9 df 6b 3d 66 18 8b be 41 e2 2c bd 64 24 02 3c
       0.057586525 -0.27167052 -0.04220796 0.0079432465
000330 aa 2a b4 ba 89 11 5b bd a3 fb 12 3d 32 d0 3a bd
       -0.0013745625 -0.05348352 0.03588451 -0.045608707
000340 9f 34 af bd 00 30 d0 be 05 fe cb bd a5 26 a8 bd
       -0.085549586 -0.4066162 -0.0996056 -0.08210496
000350 25 d5 80 3e ef 32 25 bd 51 b3 e1 bd 89 a5 01 3d
       0.25162616 -0.040331777 -0.1102053 0.031652007
000360 fc 86 27 bd a1 70 e4 3d aa 34 68 bd f3 66 a4 bd
       -0.040900216 0.11154295 -0.05669085 -0.080274485
000370 93 ce e0 3b 79 7c 6a bd e5 6e 37 3e dd 84 ef 3e
       0.006860563 -0.057247613 0.17913397 0.46781054
000380 43 4a ae 3c f4 37 34 bd 20 4d b2 be 1c bf 78 3e
       0.021275645 -0.043998674 -0.34824467 0.24291652
000390 a7 fd f6 3d 0c d2 6b be ea 3e 96 3d 3a ac 4a 3d
       0.12060099 -0.23029345 0.07336219 0.049480654
0003a0 80 56 8d bd 15 69 78 3d 69 f2 0e bc 70 72 42 3d
       -0.06901264 0.06064709 -0.008724787 0.047472417
0003b0 9e b1 89 bd aa 87 d8 be 4b 7d b3 be ff 6b a1 be
       -0.06723331 -0.42291003 -0.35056528 -0.31527707
0003c0 91 a6 4b 3d b2 e8 b7 3e 16 69 48 be 76 3a 2f 3b
       0.049719397 0.3591972 -0.19571337 0.0026737726
0003d0 51 c4 5b bc 17 a7 c5 3d e9 75 cf bd b1 2b e0 3c
       -0.013413505 0.096510105 -0.101299115 0.027364584
0003e0 b7 12 bc 3c 46 2c c4 3e 74 30 8c bd 13 4b 9a bd
       0.022958143 0.38315028 -0.06845179 -0.075338505
0003f0 38 39 6c 3c 45 45 3b be e2 97 69 3d c7 87 16 3e
       0.014417939 -0.18288143 0.057029612 0.14700232

model.rnn.bias_ih_l0 f4 [160]
000000 1d 57 11 3d 1b 42 e2 3e e7 1f d6 bd 0a f7 b0 3e
       0.03548347 0.4419106 -0.10455304 0.34563476
000010 2b 41 cb 3d 00 d2 1b 3e 32 92 3f 3e 55 04 f4 bc
       0.09924539 0.15216827 0.18708113 -0.029787222
000020 90 5d d9 3d 7e 48 ee 3e 74 16 9a 3d a6 ef c4 bd
       0.10613549 0.46539682 0.07523814 -0.09616022
000030 a4 d0 5f 3e 77 b2 a3 3e c9 ab 3f 3e 55 b6 37 bd
       0.21856934 0.31972095 0.18717875 -0.04485162
000040 f4 de 11 3e 07 c2 e7 3d 90 28 8e bd 05 94 98 3e
       0.14245206 0.11316305 -0.069413304 0.2980043
000050 50 fd 8b 3e 1a b8 07 3f ce 55 cc 3e 86 ea 7a 3d
       0.273417 0.5301529 0.39909214 0.061258815
000060 74 88 85 3e 39 d5 c1 3d ef 7f 88 3d f9 99 5e 3e
       0.26080668 0.09464497 0.066650264 0.21738423
000070 68 80 be 3d 8e f7 8a 3e 20 d0 10 3e f1 ff 35 3e
       0.09301835 0.27141994 0.14141893 0.17773415
000080 ba e5 43 3e 55 9b ea bc 75 fc 74 3e a3 7c 58 3e
       0.19130602 -0.028638521 0.2392443 0.21141295
000090 1a bc 80 3e 0b 4c 00 3e fe 8a c5 3d 42 e4 ab 3d
       0.2514351 0.12529008 0.09645651 0.08393146
0000a0 39 da 16 bd 2b 01 0c 3e ca ff 19 3e d0 c0 ca bd
       -0.036829207 0.1367232 0.15038982 -0.09900057
0000b0 c9 81 5a 3d bf de 39 bd cc c1 54 3e e0 fe af bc
       0.05334643 -0.045378443 0.20777053 -0.021483839
0000c0 98 01 2e bd 88 9a 21 bd 14 a3 eb 3d 20 54 2c bd
       -0.04248199 -0.039454013 0.11505714 -0.042072415
0000d0 de 8a 1b 3e fb 3c 49 3e 89 a5 b3 3d 77 b4 33 3e
       0.15189692 0.19652168 0.08771808 0.1754931
0000e0 13 4f f3 bd 2c 12 05 3d 99 70 2a 3e 45 31 04 3e
       -0.118803166 0.032488033 0.16644515 0.1290942
0000f0 d7 db da 3c 42 8d a2 bd 83 0a d7 bd 91 0f 17 bd
       0.026716156 -0.07937099 -0.10500052 -0.03688008
000100 d9 0c 80 3e 72 de 79 bd 36 ed 9a bd 18 04 70 3d
       0.25009802 -0.061003156 -0.07564776 0.058597654
000110 bf 02 72 bb 8c 12 e5 3c 1c c6 63 3d 07 c5 53 bd
       -0.0036927906 0.027962945 0.055608854 -0.05170157
000120 c1 b5 d5 bd b1 86 0f be e7 95 e0 3d 48 9e 48 3e
       -0.104350574 -0.14016224 0.109660916 0.1959163
000130 6f 07 5d bd 0d 5b 16 3e 50 e5 ae 3d 39 65 f8 bd
       -0.053962167 0.1468317 0.08539832 -0.12128682
000140 4b 8d 00 be d9 8b 63 3e a4 bc 3c be ce 1d 35 3e
       -0.12553899 0.22221316 -0.18431336 0.17687151
000150 35 e0 9b bb 12 48 dd 3d ec 47 23 3e 8a f3 57 bb
       -0.004756952 0.10804762 0.15945405 -0.0032951557
000160 97 4a 24 be a2 a2 f6 3d 96 ec 64 3d 0a d0 9c bd
       -0.16044079 0.120427385 0.05588969 -0.07656868
000170 d1 f2 3d 3e 00 75 5a be fd 35 10 be 18 21 a6 3d
       0.18549658 -0.21333694 -0.14083095 0.08111781
000180 59 93 0d be 72 4e 68 be 6d bb 73 bd 6e 92 26 3d
       -0.1382574 -0.22686175 -0.059504915 0.04066699
000190 f9 6d f6 3d 53 98 ff 3d 23 30 9f 3e 22 d0 47 3e
       0.12032694 0.124802254 0.31091413 0.1951299
0001a0 be 7d 5f bc 79 18 a0 bd d7 4e 9e 3d 48 8e 4e bd
       -0.013640819 -0.07817168 0.07729881 -0.05042866
0001b0 11 dc 95 3c 84 80 f7 3d 2e 34 35 bd c2 2f 00 3e
       0.018293412 0.12085059 -0.044239216 0.12518218
0001c0 bf a1 12 bd f2 7d 89 be 97 02 a5 bd 52 37 96 3d
       -0.035798784 -0.268539 -0.080571346 0.0733477
0001d0 ea d9 64 bd 8b 24 5f bd fa be 8e bc d8 d2 2d 3e
       -0.05587188 -0.05447821 -0.01742505 0.16974962
0001e0 74 cd 3c 3e 6a 1d c5 3d 9c 75 c4 3a f3 35 03 bc
       0.18437749 0.09624751 0.0014988664 -0.008008468
0001f0 b5 74 08 3e 73 01 0e bd 22 ab 27 3d f3 e7 b6 3d
       0.1332577 -0.03466935 0.04093469 0.089309596
000200 b7 79 49 3e 43 0a de 3e 59 12 ba bd fc 06 91 ba
       0.19675337 0.43367204 -0.09085531 -0.0011064704
000210 5e a3 bc 3d 56 a1 8c 3d 6c 77 0e 3a d9 2f 2c 3e
       0.09210847 0.0686671 0.00054346654 0.16815127
000220 21 93 a6 3d d4 44 45 3e e0 4a d5 3d 9e 98 3d 3e
       0.08133531 0.19264537 0.10414672 0.1851525
000230 70 8c 1c 3e dd 0f 1b bd 50 f7 96 3d f5 51 5f 3e
       0.15287948 -0.037856925 0.0737139 0.21808608
000240 68 ca 33 3d e5 e2 64 3e 7b a1 4f bc 0f d6 0d 3e
       0.0438942 0.22352178 -0.012672777 0.13851188
000250 39 c8 49 3c 45 66 ce 3d b7 5f 34 bd 60 ed b3 bd
       0.012315803 0.100781 -0.044036593 -0.0878551
000260 fc e2 9b bc 25 11 26 3e 62 95 2c 3e 36 b7 47 3e
       -0.019029133 0.16217478 0.1685386 0.19503483
000270 db d9 8e 3c c2 4a 2b 3e 39 2f 6b bc 93 bd 33 3e
       0.017437866 0.16727737 -0.0143545205 0.17552786

model.rnn.bias_hh_l0 f4 [160]
000000 5e b4 9b 3d 17 af 45 3e fd 8d 90 bd 69 02 89 3e
       0.07602762 0.19305073 -0.07058332 0.2675965
000010 80 95 66 3d f5 85 7a 3e 76 5a 4e 3e e9 b1 1f be
       0.056294918 0.24465163 0.20151696 -0.15595211
000020 15 af 82 3d 24 bd f9 3e 7c fa e5 bd a9 db 7f 3b
       0.063810505 0.48777115 -0.11229417 0.003904084
000030 f8 e0 7f 3d 80 5c e4 3d 47 79 b3 3e 97 76 47 bc
       0.062470406 0.111504555 0.35053465 -0.01217427
000040 55 72 c2 3e a4 ed 0f 3e 0e f1 80 bd 6d 68 c5 3e
       0.37977853 0.14055496 -0.062959775 0.38556233
000050 a0 fa cf 3e 11 81 c9 3e 15 7c 8d 3e e7 14 79 3e
       0.406209 0.39356282 0.2763373 0.2432438
000060 33 38 4c 3e 7b fe 94 3e 4b b1 96 3d 7b 34 dc 3c
       0.19943313 0.29100403 0.07358035 0.026880493
000070 3a 97 85 3d 18 86 5e 3d 0b f6 65 3e dd 6c 98 3e
       0.06522985 0.0543271 0.22457139 0.29770556
000080 93 a4 1e 3e 0e 36 64 3e 93 8a 84 3e ad d4 c2 3e
       0.15492468 0.22286245 0.25886974 0.38052884
000090 49 a6 9b 3e c9 0b 8c bd 12 89 7b 3e 54 1a 2e 3d
       0.30400303 -0.06838185 0.24564007 0.042505577
0000a0 1a 0b 94 3d fe a1 fd 3d c2 78 a1 bc 54 ce 11 be
       0.0722868 0.12384413 -0.019710902 -0.14238864
0000b0 54 9d 26 3d 3f 85 70 bd 49 de 4e 3e ce fe 90 bd
       0.040677384 -0.058720823 0.20201983 -0.0707985
0000c0 35 1a 46 3e e7 85 7b bd 94 2b 29 3e fe 1f 69 bd
       0.19345935 -0.061406996 0.1652053 -0.056915276
0000d0 f2 88 92 3d 71 5a 5e bc 00 10 d0 3d 75 1f 0d 3e
       0.071550265 -0.013571368 0.10159302 0.13781531
0000e0 b5 fe 08 bc 72 96 de 38 90 8e 50 3d 0a fa 04 bd
       -0.008361508 0.000106138075 0.05091721 -0.03246502
0000f0 f5 f7 31 bd 32 f3 82 3c 35 aa c7 bc 38 23 c9 3d
       -0.04344936 0.015985105 -0.024373153 0.098211706
000100 7e fe 00 3e 01 16 b2 3d 85 27 17 3e 01 87 2f be
       0.12597081 0.08695603 0.14761169 -0.17141344
000110 2f 40 c9 3d fc 9b 67 bd e8 f9 58 bd 83 47 13 bd
       0.09826695 -0.056545243 -0.052972704 -0.03595687
000120 ae 9d f2 bc 65 56 e3 3d 85 b4 17 bd a4 32 08 3d
       -0.029616203 0.11100463 -0.03703739 0.03325142
000130 d3 a4 e7 3b f6 71 11 3e 9a 16 46 3d 5c 90 87 bd
       0.007069209 0.14203629 0.0483614 -0.06619331
000140 39 0c 33 bd 24 06 0b 3e c5 d8 6a bd ac f6 fe 3d
       -0.04371283 0.13576561 -0.057335634 0.12449393
000150 f9 89 b4 bc 3b 85 14 bd f4 00 6e 3e 64 56 1b 3e
       -0.022038447 -0.03625987 0.23242551 0.15169674
000160 d7 70 af 3d e3 50 fb bd 43 bb 75 bd 45 f9 c9 bd
       0.08566444 -0.12271287 -0.05999304 -0.098619975
000170 6e 5b 33 3e 78 11 4b be e6 51 53 bc 60 7d e9 3d
       0.17515346 -0.19830883 -0.012897944 0.114008665
000180 de e2 19 be 3c 5d 0a be 87 cf 0f be 6f 97 1c 3e
       -0.15027949 -0.13512129 -0.14044009 0.15292142
000190 e2 fb a1 3b b1 8d 10 3e e9 a1 61 3e 1c 9d 13 bb
       0.004943357 0.14116551 0.2203442 -0.0022524064
0001a0 f1 03 ac 3d 5e 8c 33 3e 79 5c a4 bd d5 3c 10 3e
       0.08399189 0.17534015 -0.0802545 0.14085706
0001b0 48 b0 fb bd 02 58 fb bd 61 89 d1 bd 42 03 8c 3d
       -0.12289482 -0.122726455 -0.10231281 0.06836559
0001c0 8e 94 26 3e a6 81 89 bd 4a c9 4c bd 4c 48 01 3d
       0.16267607 -0.067141816 -0.04999665 0.03156309
0001d0 42 dd 08 be 01 4a c1 bd 14 03 04 be 5b 19 2e 3e
       -0.13365653 -0.09437943 -0.12891799 0.1700186
0001e0 5c b4 b3 3d 2a d1 06 bb e8 85 b8 3d a4 07 5d 3d
       0.08774635 -0.002057145 0.090099156 0.053962365
0001f0 21 8e e5 3b ec f5 35 bd 7b a7 1b 3e 87 90 c8 3d
       0.0070054685 -0.044423983 0.15200607 0.097931914
000200 fd cd 82 3e 7a 7d ab 3e d5 0c ff bd a5 19 68 bd
       0.25547782 0.3349417 -0.124536194 -0.05666508
000210 3e d0 18 3e d8 04 3d 3e f3 d4 9a 3d ce 91 2e 3e
       0.14923188 0.18458879 0.07560148 0.17047808
000220 aa 84 81 bc d3 e2 ce bc 28 46 e3 3d 0e a4 01 3e
       -0.01581033 -0.025254643 0.110973656 0.12660238
000230 75 7b a1 3c ef 1d 67 bd 62 e9 a6 3d 69 f9 b3 3e
       0.01971219 -0.05642503 0.08149983 0.35151222
000240 ec a9 87 3e 2f 5f be 3e 37 17 14 3e 39 2f 29 3d
       0.26496828 0.37181994 0.14461981 0.0413048
000250 5c ee be bd bd 9e a4 3d eb 2b da bc a2 65 a7 3d
       -0.09322807 0.080380894 -0.02663227 0.08173682
000260 7b 92 37 3e b0 7b a6 3d 31 4d cf 3d 18 2d f2 3d
       0.17926972 0.0812906 0.10122145 0.11825007
000270 d0 2e e0 3a e8 66 85 3e f5 4b 81 bc e1 2e 6c 3e
       0.0017103795 0.26055074 -0.01578329 0.23064758

model.rnn.weight_ih_l1 f4 [160, 40]
000000 c0 84 96 be 6e 14 a5 be 77 2d dd 3d 35 a1 25 3c
       -0.29398155 -0.3224215 0.10799687 0.0101092355
000010 81 a4 5b 3e bc 01 1b 3d e2 61 e3 bd 4d 37 9b 3e
       0.21449472 0.03784345 -0.11102654 0.3031563
000020 b2 16 e2 3d 05 89 38 bf 49 5a 04 3e 68 97 b1 bb
       0.11039485 -0.72084075 0.12925066 -0.0054196604
000030 a7 bd 88 bd 11 06 85 3d 8a d0 e3 3d c7 32 0f 3d
       -0.06676798 0.06495298 0.1112376 0.034960534
000040 2d ff 9b 3e 7b ea 9a 3a 8d b1 12 bd 1a 93 b1 3e
       0.3046812 0.0011819148 -0.035813857 0.34682542
000050 3d 3a e2 3d ed d1 70 bd 6c 65 71 3e c7 3e bd 3e
       0.11046264 -0.05879395 0.23573846 0.36961958
000060 f9 d9 22 3d 24 b3 0f 3e 78 5e 95 3e 22 3e 02 bf
       0.039758656 0.1403318 0.29173636 -0.5087606
000070 54 eb f3 bd 99 d7 7c bf 8f 3c 33 bf af 05 bc 3e
       -0.1191012 -0.98766476 -0.7001428 0.36723086
000080 25 a2 9b 3e a0 79 21 be 3f 9b 35 be 5f 01 07 be
       0.30397144 -0.15769053 -0.17735003 -0.13184117
000090 37 50 64 be db 62 20 bf 90 23 37 be a4 5b 0f 3e
       -0.22296225 -0.6265084 -0.1788466 0.13999802
0000a0 a3 23 8a be d5 ad 91 3e 8f fa 53 be 8e b1 1e 3e
       -0.26980314 0.28452936 -0.2070105 0.15497419
0000b0 4c 15 f4 3d c5 26 04 3e c4 32 8d 3d bf f1 78 3e
       0.119181246 0.12905414 0.068944484 0.24310969
0000c0 c9 4c e0 bd ff bb 47 3d 89 06 91 be 6c a5 bb 3e
       -0.109521456 0.04876327 -0.28325298 0.36649644
0000d0 5f f4 93 3e a1 33 b3 bd 9a b4 2b be 11 7f 99 be
       0.28897378 -0.08750082 -0.16768113 -0.29979756
0000e0 b3 40 88 be d1 16 91 be 54 4a 4c be 40 50 4d 3e
       -0.26611862 -0.2833772 -0.19950229 0.20050144
0000f0 70 32 5d 3e 2c 65 7b 3e 4f c1 b0 3e 31 e2 80 3e
       0.21601272 0.24550313 0.34522483 0.2517257
000100 97 e5 ce 3d f8 99 98 3e a5 64 6b be 1e f9 5d be
       0.101023845 0.2980497 -0.22987612 -0.21677062
000110 82 b6 be be d9 e1 bb be d4 c2 0c be c2 97 d8 bd
       -0.37248617 -0.36695746 -0.13746196 -0.105758205
000120 52 9a 56 3e fb f7 b8 be cf a8 ac be 7e 00 88 3d
       0.20957306 -0.36126694 -0.3372254 0.06640719
000130 9e e2 79 be fd 6f e1 be 53 fb 81 be c9 70 28 3f
       -0.24402854 -0.44030753 -0.25387058 0.65797096
000140 f2 77 98 be 6f 1e 96 3e aa d2 29 be e5 8b 84 3e
       -0.2977901 0.29320094 -0.16584268 0.2588798
000150 d5 c6 3d 3e f1 6c e5 bd 1d b2 52 3e 8b 2f 62 3e
       0.1853288 -0.112024195 0.20575757 0.22088449
000160 17 25 50 be 91 43 9b 3d 2c 36 f1 bd 04 ae e7 bc
       -0.20326649 0.07581247 -0.117779106 -0.02828122
000170 58 7e 78 3e 7c 75 86 be 95 7d 87 be d4 7e 88 3c
       0.24266946 -0.26261508 -0.26463 0.016662039
000180 9b 56 3d be e5 1d 3f be 24 cd 51 3b 89 c8 d2 3d
       -0.18490069 -0.18663748 0.0032013142 0.10292155
000190 e4 56 ee 3d e1 01 eb 3d 8e 02 81 3e 99 13 77 be
       0.11637667 0.11474968 0.25197262 -0.2412857
0001a0 48 56 4c 3e ec a5 1c 3e 35 bd 5a bd bc e4 d0 3e
       0.19954789 0.15297669 -0.053403098 0.4079951
0001b0 e9 67 04 be e0 70 10 bd 67 fd 34 bd 33 8f 7b 3d
       -0.12930264 -0.035263896 -0.044186976 0.061415862
0001c0 26 f5 38 3e 3c d2 4e be e1 73 a0 bc 06 67 b4 3d
       0.18062267 -0.20197386 -0.019586505 0.08808713
0001d0 77 1a 8f bd bd 75 f3 bd 18 78 60 3e 2f 1e 49 3e
       -0.0698747 -0.11887691 0.21920812 0.1964042
0001e0 9e d5 ab bd 8a f3 23 3f 64 28 2c be ac 01 74 3c
       -0.083903536 0.64043486 -0.16812283 0.014892977
0001f0 e8 84 b9 bd 4d df fc bc 4e ab 13 bd 8b 3d c4 bd
       -0.09058553 -0.030868197 -0.03605204 -0.09582051
000200 59 fb fa bd 39 3b e5 3e 08 07 a5 bd 6b a9 15 3e
       -0.12254972 0.44771746 -0.08057982 0.14615409
000210 fb cf 01 be df 40 42 3d 63 6a 56 3c 34 09 9c bd
       -0.12676995 0.047425147 0.013086888 -0.07618943
000220 5a e0 43 be 7c 8d 3f be 1c 57 26 be c6 ab 1e 3e
       -0.19128552 -0.18706316 -0.16244167 0.15495214
000230 99 0a 46 3e 49 81 74 3e be 40 9e 3c 0c 2b cb 3e
       0.1933998 0.23877443 0.01931798 0.3968128
000240 ef d2 98 3e 47 8d de 3c 81 ff 96 bd 21 29 03 be
       0.2984843 0.027166976 -0.07372952 -0.12808658
000250 ad 5f 00 bd 22 af 77 be f7 a2 a5 be 6b b7 33 3e
       -0.031341244 -0.24187902 -0.32350895 0.17550437
000260 9f 26 7d bd fc 37 e0 bc cd 9e 5f be ca 41 98 3c
       -0.06180441 -0.027370445 -0.21837921 0.018586058
000270 3a d4 48 bc d9 6d 16 3e e3 d1 69 3e 4f e6 33 3f
       -0.01225763 0.14690341 0.22833972 0.702733
000280 7d 3b 68 bd a9 e7 9d 3c 99 f4 e6 bd cd 4b 1a 3e
       -0.056697357 0.019275503 -0.11277122 0.15067978
000290 6d d2 bd 3c 1d 51 88 ba 46 cc 19 3d 04 34 87 bd
       0.023171628 -0.001040015 0.037548326 -0.06601718
0002a0 26 61 e2 bd cb 22 90 bd 3d 1f 05 be a5 af 7b bd
       -0.11053686 -0.07037886 -0.13000198 -0.061446805
0002b0 8d c3 2e 3e 79 bd c5 bd de 7b 34 be 56 39 31 be
       0.17066784 -0.0965528 -0.17625377 -0.17307028
0002c0 83 68 5b be b6 09 70 be ab 50 8f 3d 24 08 04 3e
       -0.21426587 -0.23441204 0.06997808 0.1289373
0002d0 2c c9 42 bd 82 cf c4 3d ba a7 de bc 54 79 8e be
       -0.047555134 0.096098915 -0.027179588 -0.2782694
0002e0 29 b6 13 3e c8 d3 9b bc a2 3d 24 be 1b c1 9b 3e
       0.14424957 -0.019021884 -0.16039136 0.30420765
0002f0 c8 5f a4 bd 09 15 23 3e fa 56 45 3d 74 d1 53 bd
       -0.08026081 0.15925993 0.04817865 -0.051713422
000300 fc ca de 3d 6f 99 48 be 8e 34 9f 3c 74 e5 8d 3d
       0.1087856 -0.1958978 0.01943424 0.0692853
000310 d1 e8 45 be 4a f8 83 be 27 a8 2f 3e 67 f9 ae 3c
       -0.19327094 -0.25775367 0.17153989 0.021359159
000320 b6 78 9c bc 50 3b 26 3e 85 de 9b bd b0 19 02 3e
       -0.019100528 0.16233563 -0.076108016 0.12705112
000330 38 fc 22 3e 53 68 ba 3c 6c 2d 14 bb 79 ac 84 bd
       0.15916526 0.022754824 -0.0022610081 -0.06478209
000340 e8 6f 62 bd b9 c0 86 bd 35 d4 b7 bc 27 43 fe 3d
       -0.055282503 -0.06579728 -0.022440055 0.12415152
000350 fb 4b 94 bd e3 fb 09 be e2 ec de 3d 4a ca b5 bc
       -0.072410546 -0.13474993 0.108850256 -0.022191186
000360 c1 a1 3f bd 73 a2 ec bd bd 82 ac 3d 22 8c 6c bd
       -0.04678512 -0.11554422 0.08423374 -0.05775083
000370 99 ef 41 3e 82 45 63 3c 76 89 cf bc 73 2c 6b 3d
       0.18939056 0.013871552 -0.025334101 0.057415437
000380 4d 80 25 3e f5 69 b4 bd aa 47 de bc 6d d5 cc bd
       0.16162224 -0.08809272 -0.027133781 -0.10001645
000390 a3 04 4a 3d cd db 04 bd 1e f2 25 be 58 28 f2 3d
       0.04932083 -0.03243618 -0.16205642 0.11824101
0003a0 76 62 6b b8 b0 0f c1 3c 69 99 96 3d 40 62 7f bc
       -5.6120065e-05 0.02356705 0.073534794 -0.0155873895
0003b0 bf ed 1e 3d 55 31 55 be 47 e8 0b 3e fd 68 af bd
       0.03880095 -0.208196 0.13662826 -0.08564947
0003c0 2b 08 56 be 8b b4 97 3e c5 8d f3 bd 12 d2 92 bd
       -0.20901553 0.2962993 -0.11892275 -0.07168974
0003d0 76 aa f7 3d 97 d4 24 3e 0a ef 0d 3d fe 2a a2 3c
       0.1209306 0.16096722 0.034651794 0.01979589
0003e0 45 2a 98 bc 6b 37 a5 be cb 2a 03 bd 32 e6 27 3c
       -0.018574843 -0.32268843 -0.032023232 0.010247754
0003f0 68 e3 e7 3d f0 01 97 bd 56 04 74 3d 94 77 f6 be
       0.11322671 -0.073734164 0.059574448 -0.48138106

model.rnn.weight_hh_l1 f4 [160, 40]
000000 cd 2c 14 3c 2c 22 57 be da cf d8 3c 4e 57 8f be
       0.009043884 -0.2100913 0.026466299 -0.27996296
000010 4d 92 30 3e e6 48 2d be 5a 93 ad 3e 11 68 c3 bd
       0.1724331 -0.1692234 0.33901483 -0.095413335
000020 96 9d 0d 3e 1d d0 4e bb 15 d0 d8 3d 7d 71 a8 3d
       0.13829646 -0.003155715 0.105865635 0.08224771
000030 cf e3 58 3e 51 f5 96 bb 9d e4 11 3d 99 eb 0d bc
       0.21180652 -0.0046068807 0.035618413 -0.008662128
000040 d9 75 99 be e8 19 21 3e 9f 56 23 bf cc d5 a2 bc
       -0.29972723 0.15732539 -0.6380405 -0.019877337
000050 04 be c5 bd 35 62 18 be 7f 3f 7e 3e 7e 4e 9d bd
       -0.09655383 -0.14881213 0.2482891 -0.07680987
000060 3f 94 cf 3d 1c 51 e4 bd 4b 66 02 be ce c1 99 bc
       0.101356976 -0.11148283 -0.12734334 -0.018769171
000070 2f 64 bf 3b 77 0d ab be d8 85 90 be 32 c8 a9 be
       0.0058408002 -0.3340871 -0.28227115 -0.3316055
000080 95 7c ba 3d a1 24 bd 3c f7 6e 9a bd 5c cc 9f 3e
       0.091057934 0.023088755 -0.07540696 0.312106
000090 93 6e b5 3c ed 8a 29 3e df 3f f1 3e 04 7a 8d bb
       0.022147452 0.16556902 0.47119042 -0.004317524
0000a0 bf 25 c0 bd 31 6d 9d 3e 2d df 4b 3c fe 34 80 3e
       -0.093821995 0.3074737 0.012443346 0.2504043
0000b0 b0 d1 4a 3e 5d 79 8b be 36 07 be 3c 1b 69 40 be
       0.19806552 -0.2724103 0.023196798 -0.18790095
0000c0 07 7b 61 3e ab 98 47 3e e5 a7 f7 3d 39 21 cd 3d
       0.22019587 0.19491832 0.1209257 0.10016102
0000d0 e5 64 95 bd 19 61 53 3e ce bd 82 3e 84 38 cd ba
       -0.07294635 0.20642509 0.25535434 -0.0015657102
0000e0 b5 73 21 3e 0b 57 f1 3b 82 f8 1d be 53 1a 4a be
       0.15766795 0.0073651127 -0.1542683 -0.19736604
0000f0 d8 32 c3 bd 88 12 6b bd 82 3d ac bd ee 41 f6 3d
       -0.09531182 -0.05739072 -0.08410169 0.12024294
000100 8f ae c8 3d d4 b9 8c 3c 30 10 04 bd 74 72 19 3e
       0.097989194 0.017178454 -0.032242 0.14985067
000110 a8 b7 28 3e f3 b2 f1 3e 6c 06 2d 3d 48 5d c4 bc
       0.1647631 0.4720684 0.042242453 -0.023970261
000120 b0 5c 35 3e 50 10 15 3d 2d cc 4b 3e 46 95 36 3d
       0.17711139 0.03639251 0.19902106 0.044575952
000130 26 be db 3d 39 11 4b be 1f db 1b bf a4 bd cb 3d
       0.10729627 -0.19830789 -0.6088123 0.099482805
000140 b4 cc a3 bd 86 12 10 3e 46 c1 b0 3d 0e c6 40 be
       -0.079980284 0.14069566 0.08630614 -0.18825552
000150 9e 8e 33 bd b2 ef 2b be 5f 25 8d bc 9b 86 86 3d
       -0.043837182 -0.16790655 -0.017229734 0.06568643
000160 3b 7e 10 bd 44 c5 dc bd a8 48 f9 3d 3d 34 a8 bc
       -0.035276633 -0.10779813 0.12172061 -0.020532722
000170 6d 28 03 bc cf 44 e8 bc c0 b5 1e bd 11 f9 25 bc
       -0.008005244 -0.028353123 -0.03874755 -0.010130183
000180 9b f5 c0 3d 6d d9 c4 3c 7b b4 1c be 9c 4a 4e bd
       0.094218455 0.024029458 -0.15303223 -0.05036412
000190 03 88 1f be e9 92 d3 3d 42 15 1a bc f8 4c 41 3c
       -0.15579228 0.10330755 -0.009404482 0.011798136
0001a0 9c 80 c2 bd 58 dc 28 3e bc c4 d4 bc 8e d9 79 3d
       -0.094971865 0.16490304 -0.025972717 0.060998492
0001b0 5b 22 c1 bd b6 09 df 3d 73 4c 9a bd f8 cf 05 be
       -0.09430381 0.10890524 -0.07534113 -0.13067615
0001c0 3f 83 c4 3d 99 a2 11 3e 64 e1 a1 bd ef 1f 58 be
       0.09595346 0.14222182 -0.07904318 -0.21105932
0001d0 00 48 10 be e9 ca f1 3d ea 39 f5 be ef dc 89 bd
       -0.14089966 0.1180628 -0.47895747 -0.06731593
0001e0 56 dc e2 3d e2 f4 35 3e 18 40 b2 3d 63 30 09 be
       0.11077182 0.17769197 0.08703631 -0.13397364
0001f0 82 53 63 3e fd a0 de bc bf e0 70 be c5 20 0e 3e
       0.22199824 -0.027176375 -0.23523234 0.13879688
000200 93 80 d8 3c a7 55 c1 3b b0 80 24 3c f2 47 13 3e
       0.026428496 0.005900103 0.010040447 0.14382914
000210 a1 60 18 be b1 57 31 be c0 7d 2b 3e bf e1 8a bd
       -0.14880611 -0.17318608 0.16747189 -0.06781339
000220 20 90 53 3d d8 05 f9 3d 49 49 d5 bd c2 db b3 3d
       0.05165112 0.12159318 -0.10414369 0.0878215
000230 15 3b db 3d 7b b2 71 bc 7c 87 43 3e d0 a4 6b be
       0.107046284 -0.014752026 0.19094652 -0.2301209
000240 e8 ae 0d be 69 ff f8 bd ec ec f1 bd 3c 3b 0f be
       -0.13836253 -0.121580906 -0.118127674 -0.1398744
000250 f4 5f 96 3d 7d 91 11 3c 13 54 a5 be b6 bd 19 be
       0.0734252 0.008884785 -0.32290706 -0.15013775
000260 14 e0 06 be ab 55 23 3c 99 92 14 be da b6 b7 3d
       -0.13171417 0.009969155 -0.14509048 0.08970423
000270 69 43 b7 3d 7d 49 05 bf ba 8a 19 3f d3 a0 3e be
       0.08948404 -0.5206526 0.59977305 -0.18616037
000280 5f 65 98 bd 52 5d ed bd 30 1c 1f be a7 c6 20 be
       -0.0744121 -0.11590065 -0.15538096 -0.1570078
000290 86 65 75 3d a1 ff 55 bd 7c 3f 5a 3e 95 c2 39 bd
       0.059911273 -0.05224574 0.2131328 -0.045351584
0002a0 26 1e 86 bd 31 bb da 3d cf de 98 bd 8a ea a7 bc
       -0.06548719 0.10680235 -0.07464372 -0.02049758
0002b0 53 8c 1d bc 3f df a4 bc 78 36 03 3b 8f bb 04 3e
       -0.009615975 -0.020125983 0.002002148 0.12962173
0002c0 9d af 08 be a8 6e 2f 3e 2c 5f ce bd db 5e a4 3d
       -0.13348241 0.17132056 -0.10076746 0.08025905
0002d0 9c 39 7c bd a1 dc 01 3e fd 0c f2 3c 72 f6 06 3e
       -0.061578378 0.1268182 0.029547209 0.13179949
0002e0 4f 81 8e bd 14 25 7d bc 2b 38 84 3d 6a e5 d5 3d
       -0.069582574 -0.015450735 0.06456026 0.10444148
0002f0 03 ac 3d 3e 88 b8 d6 3d f0 90 3a bd 7e 27 6a bd
       0.18522649 0.10484415 -0.04554838 -0.05716657
000300 a3 f9 2a 3d 17 ce cf 3d 15 99 18 3e f6 41 35 be
       0.04174198 0.101467304 0.14902146 -0.17700943
000310 30 c1 39 3d 10 6e 72 be b1 c0 87 be c7 cd 0c 3e
       0.045350254 -0.23674798 -0.265142 0.13750373
000320 e4 0f f6 bd 85 c3 43 bd a2 60 c1 bd c9 45 9a bd
       -0.1201475 -0.047793884 -0.09442259 -0.07532842
000330 ca 7d 39 3e 4f 82 7a bd b7 0d 62 bd 8f 21 25 3d
       0.18114391 -0.06115943 -0.05518886 0.040315207
000340 ff 49 d7 bc 70 dc 73 3d 6e e2 00 3e a3 2c 13 3e
       -0.026280401 0.059536397 0.12586376 0.14372496
000350 0b cb 8b bc 6f 5a 12 3e 8c 99 cc bd 4b fd dd bd
       -0.017064592 0.1429231 -0.09990224 -0.108393274
000360 69 b2 3f 3d dd b0 02 3b 78 c6 c8 3b 5d 78 c8 3c
       0.046801005 0.0019941845 0.006127175 0.024471456
000370 d4 bb f4 bd b1 e4 9b 3c 42 e5 1c bc 1c 52 e1 3d
       -0.11949888 0.019029947 -0.009576144 0.11001989
000380 77 79 e2 3c 19 53 42 3d 87 e9 30 bd c8 e2 45 3d
       0.02764581 0.04744253 -0.04319146 0.04831198
000390 0b 12 bb 3d cb a4 76 bb 99 aa 99 bd 23 50 93 bd
       0.09134301 -0.0037634845 -0.07503242 -0.07193019
0003a0 38 9f e2 3c 54 be d1 3d b6 57 39 3d e7 58 83 bd
       0.027663812 0.1024138 0.045249663 -0.06413441
0003b0 59 83 1e 3e 0f 68 3a bd 63 01 fc bc 19 dc 29 3e
       0.15479793 -0.045509394 -0.03076238 0.16587867
0003c0 43 8e 25 3d ac cd 6c 3e c5 2a d6 3c de 2f 25 3d
       0.040418874 0.23125333 0.026143441 0.040328853
0003d0 f6 f6 6c 3b b2 68 2f be aa 5f 0e be 1f ca b9 3d
       0.0036157942 -0.17129782 -0.1390368 0.09071755
0003e0 5c 8b 3d 3e b3 32 38 3e 44 76 e6 bd 72 c4 dc 3d
       0.18510193 0.1798809 -0.11253026 0.107796565
0003f0 63 8c e7 3d 6d e4 04 be 03 f9 45 be 77 98 7b 3d
       0.113060735 -0.12977763 -0.19333272 0.0614247

model.rnn.bias_ih_l1 f4 [160]
000000 36 38 0b 3d bc bc bb 3e bc d7 99 3e c5 16 f6 3d
       0.033989154 0.3666743 0.30047405 0.12016062
000010 a3 51 17 3e 03 64 73 3e 07 9e 0a 3e 37 a6 b0 bd
       0.14777236 0.2376862 0.13536845 -0.08625453
000020 ec 7b 5b 3e 6e a1 67 3c 7c bb 75 3e b8 fc 7f 3e
       0.21433991 0.014137609 0.23997301 0.24998748
000030 b3 a3 ad 3d be e8 08 3e 01 6b 36 3d b9 01 9d 3d
       0.08478489 0.13370034 0.04453564 0.07666344
000040 1e 18 12 be c6 fb 0e 3e 4c 3e 2c 3e b7 67 08 3e
       -0.14267012 0.13963231 0.1682064 0.13320814
000050 d4 3a c5 3d d9 ed 64 3e ab cf 05 be 52 1c ef bc
       0.09630361 0.22356357 -0.130675 -0.029188309
000060 35 ce b5 3e 52 2e 3b 3e 2f 97 3d bc e0 68 75 3e
       0.35508886 0.18279389 -0.0115716895 0.23965788
000070 d6 b4 ce 3e c6 52 c0 bd d3 2f 25 3d 79 a8 60 3e
       0.40372342 -0.09390788 0.04032881 0.21939267
000080 97 58 c9 3e e3 50 bd 3d f4 c2 0d 3e 28 00 91 3b
       0.393254 0.092439435 0.138439 0.0044250675
000090 35 3c d0 3e de a4 67 bb 29 6b 2a 3e 0a b3 23 3d
       0.40670934 -0.0035346071 0.16642441 0.039965667
0000a0 67 84 ad bd c0 a8 0b 3e df 0d 2e 3d cb d3 37 3e
       -0.08472519 0.13638592 0.042493697 0.17951886
0000b0 7f 36 5c 3d 59 1d 7f 3d 19 56 fd 3d 69 ea 73 3d
       0.05376291 0.062283847 0.123699374 0.059549723
0000c0 5e 26 4a bd 18 1f 84 bd d9 bf 17 3e 4f a1 a6 ba
       -0.049352996 -0.06451243 0.14819278 -0.0012712869
0000d0 49 55 6d 3d d0 b0 14 3e d7 4e e4 3b 83 60 aa 3c
       0.057942662 0.14520574 0.0069674063 0.020797973
0000e0 03 ce 04 3e 2d 52 d0 3c e2 88 95 3d 41 31 45 3d
       0.12969212 0.02542981 0.07301499 0.048142675
0000f0 d9 c4 da 3d 36 e2 43 3e f3 a5 f9 3d 72 ca d8 bd
       0.10682077 0.19129261 0.121898554 -0.105854884
000100 a6 6d 23 bd 4b 29 4f bd e3 32 dd 3d cd 33 1e bd
       -0.03989949 -0.05057649 0.108007215 -0.03862362
000110 b7 01 15 3d 00 dc 9b bd 6f 8e 01 3e 6f 2f 1f bc
       0.03637859 -0.07610321 0.1265199 -0.009715899
000120 f9 e6 17 bd ab 41 98 bd 80 20 4b 3c 56 23 d9 3d
       -0.037085507 -0.074344 0.012397885 0.10602443
000130 e1 47 d8 3d 68 b5 b2 3b 01 b2 a1 bc 8c d2 55 3e
       0.10560585 0.005453754 -0.0197382 0.20881099
000140 ff c3 eb bd 09 ea 1f be 92 67 2a 3d 67 1d b2 bb
       -0.11511993 -0.15616621 0.04160268 -0.005435634
000150 73 33 ae bd 39 04 1f be e4 33 03 3e 1b 0f f2 3c
       -0.08505907 -0.15528955 0.12812763 0.029548218
000160 8c a8 83 3e 4c ea 16 3c 54 24 91 3e c5 25 1b 3e
       0.2571453 0.009211134 0.2834803 0.15151127
000170 75 b0 71 3e 18 a5 34 bd 41 df c7 3d a8 bb 92 3b
       0.2360247 -0.04410276 0.09759379 0.004477937
000180 73 ef 49 3d 5d f0 75 bd 5c 63 e4 bd 36 35 fb bd
       0.049300622 -0.06004368 -0.11151764 -0.122660086
000190 da 9d 0b be e4 4d b8 bd 87 be 9f 3c d6 1b 05 3e
       -0.13634434 -0.089992315 0.01950003 0.129989
0001a0 a6 5a 09 3e 96 ed 07 3e 35 12 e5 bd 27 81 47 3d
       0.13413486 0.13274226 -0.11185113 0.048707154
0001b0 f0 9d 83 3e 18 8a c2 3d f8 b2 15 be 73 a5 d1 3d
       0.25706434 0.094989955 -0.14619052 0.10236635
0001c0 f6 a2 ca bb 59 bc 0a 3d 1a 3d 81 be c6 bc 88 bd
       -0.0061839772 0.03387103 -0.2524193 -0.06676631
0001d0 02 fb 18 3e d7 84 48 be 11 72 0e be 07 b5 dd 3d
       0.14939502 -0.19581924 -0.139107 0.10825544
0001e0 ad f1 14 3e 34 7d 9c bd 99 5a b2 bd cf 6c f5 3c
       0.14545317 -0.07641068 -0.087086864 0.02995911
0001f0 de f8 02 3e bc f3 9c 3d eb 15 27 3e 94 4b b2 3d
       0.12790248 0.07663676 0.16316955 0.08705822
000200 96 5a 42 3d 3c ef cb bd 0c df 33 3b bb a5 5b 3e
       0.04744967 -0.0995774 0.0027446179 0.2144994
000210 a9 7c bd 3e 0f 45 b4 bd b0 21 08 be c3 9e 8e 3e
       0.3700917 -0.088022344 -0.13294101 0.278555
000220 7d 53 ab bd 92 3e 4b 3e d4 bf a7 3e e8 3d 2b 3e
       -0.083655335 0.19848087 0.3276354 0.16722834
000230 0e ed a4 3d 9a df a7 3e 45 8c 24 3e 9e 86 73 3e
       0.08053027 0.32787782 0.16069134 0.23781821
000240 9b 73 5f bd 66 db 20 bd 85 2f 46 bd 8e 89 3d 3e
       -0.05455361 -0.039271735 -0.048385162 0.18509504
000250 4d be 17 3e d4 b7 00 bd ba 5a 3c 3e bb 55 ac 3d
       0.14818688 -0.031425312 0.18393984 0.08414789
000260 6a c5 84 bd ee 20 0b 3d fb e2 9c 3c 40 02 5a 3e
       -0.06482966 0.03396695 0.019151201 0.21289921
000270 d8 c0 88 3e 37 fc 0a bc e3 b9 f7 3d e8 fa dc 3d
       0.26709628 -0.008482984 0.12096002 0.10790044

model.rnn.bias_hh_l1 f4 [160]
000000 b0 d7 18 3e 2a d8 d5 3e 5c 3d 90 3d 46 ea 1e 3d
       0.14926028 0.41766483 0.07042953 0.03879764
000010 13 04 73 bc 98 39 1e 3c 7e c0 42 bd 7b 65 93 bd
       -0.014832514 0.009657286 -0.047546856 -0.0719709
000020 60 51 b3 3d e6 dc 2f bd eb 9f 3a 3e 5d 3d b8 3d
       0.087557554 -0.042935275 0.18225066 0.08996079
000030 a0 9c 37 3e ef 04 05 3e 7a 53 95 bd 23 4e 14 3e
       0.17930841 0.12990163 -0.072913125 0.14482932
000040 31 ac 5e bd 75 b1 97 3e ae ff 58 3d 76 08 9b 3e
       -0.054363433 0.29627576 0.05297821 0.30279893
000050 71 56 b7 3b 4c 71 e8 3d ba 50 c6 ba 1e c4 89 3d
       0.0055950214 0.11349735 -0.001513026 0.067268595
000060 69 ff 8f 3e 05 00 d5 3d 0c 8a 89 3d 54 c8 92 3d
       0.2812455 0.10400394 0.067157835 0.07167116
000070 6d 6f 97 3e 28 3d 9b bd b2 a5 c3 3c aa 29 8e 3e
       0.295772 -0.07580024 0.02388272 0.27766162
000080 2b d2 c3 3e ee 8c 16 bd 20 7e 65 3e 8e 9f 84 3d
       0.38246283 -0.036755495 0.22411394 0.06475745
000090 55 8b 4c 3e 9f af 59 3d 8a 1a 7d 3d d6 10 8c 3e
       0.19975026 0.053146 0.061792888 0.27356595
0000a0 bb 11 a8 bc 8e 93 5f bd 1b 72 06 3e 4f 40 5c bd
       -0.020516267 -0.05458408 0.13129465 -0.053772267
0000b0 e3 a1 b7 3d 5d 91 37 3e 2a a7 46 3d 0f 77 11 3c
       0.08966424 0.17926545 0.048499264 0.008878483
0000c0 95 9b 52 3a bc 44 4a 3d 24 d5 60 3e 46 a2 da bd
       0.0008034048 0.049381956 0.21956307 -0.106754825
0000d0 6b 2c 3d 3e 30 15 ee bb 2a a4 53 3d 38 72 4d 3e
       0.18473975 -0.0072657093 0.05167023 0.20063102
0000e0 4a f5 79 bd 14 04 fe 3c 73 1c 63 3e 7c 44 1e 3d
       -0.06102494 0.031007804 0.22178821 0.03863953
0000f0 01 bb 94 3d f1 46 12 3e c5 67 a6 3d b3 46 2d bd
       0.07262231 0.14284874 0.08125261 -0.042303752
000100 bd df a7 bd 9f 0b b4 bd 59 fd db 3d e0 cd 21 3c
       -0.081969716 -0.08791279 0.107416816 0.009875745
000110 7a 8d 30 3e 9a 08 52 bc 76 48 c1 bd d7 9a 81 3d
       0.17241469 -0.012819434 -0.09437649 0.063283615
000120 66 3c 3d 3d 7c 14 cd 3c f6 f8 e3 3d 46 53 dd 3d
       0.04620018 0.025034182 0.1113147 0.10806899
000130 32 f9 1c 3e 39 3a 37 3d 8f 0c 2c 3d c2 db 81 3d
       0.15329435 0.04473326 0.042004164 0.063407436
000140 8f 33 ae bd d2 cc 43 bd 8f 1b 6a be 59 40 24 be
       -0.08505928 -0.047802754 -0.22862075 -0.16040172
000150 76 14 9a bd 5d 26 1a 3d 5c 87 d3 3d 7d c0 1c 3e
       -0.07523434 0.037634242 0.10328552 0.15307803
000160 af 1e 98 3c b5 a0 6a 3d 3e 39 8c 3e 15 38 88 3e
       0.018569319 0.05728217 0.27387422 0.26605287
000170 d3 40 c3 3c 6f 40 61 bd 74 51 1d 3e 18 c3 72 3e
       0.023834622 -0.05499309 0.15363103 0.23707235
000180 78 b9 44 bd 23 21 06 3e 17 55 c1 3c 7a 17 1c be
       -0.04802844 0.13098578 0.023600144 -0.1524333
000190 21 1d 0f be 8c f9 3d be 1f 10 ba bd c7 5f 89 3d
       -0.13975956 -0.18552226 -0.09085106 0.06707721
0001a0 c7 50 ea 3d 9d 75 84 3e ba f7 f1 3d 7b 91 7c 3e
       0.11441188 0.25870982 0.11814828 0.24664871
0001b0 e1 97 ac bc 21 15 ca 3d 7c 12 92 3c fe 91 d7 3d
       -0.021068515 0.09867311 0.01783108 0.10525893
0001c0 4c 9a c1 3c bb 4a 8e 3e c2 8f 7b be 45 3b 97 bd
       0.023633145 0.2779139 -0.24566558 -0.07384352
0001d0 81 39 69 3e ce db 46 bd 0a 37 5e 3d b3 a8 02 3e
       0.22775842 -0.048549466 0.054251708 0.12759666
0001e0 66 fe 21 3e 8b 52 c7 bd 29 e9 31 bd 3f 77 42 3e
       0.15819702 -0.09732541 -0.04343525 0.18990801
0001f0 19 33 80 bd 80 49 df 3c a2 7e 7e bd 81 e5 6f 3c
       -0.06259746 0.027256727 -0.062132485 0.01464212
000200 fc 85 b8 bd 46 58 85 3d 66 b5 52 3e a2 08 87 3e
       -0.090099305 0.065109774 0.2057701 0.26373774
000210 7f 24 e6 3e bf b7 f6 3d 3a e0 81 3d 60 8c 6f 3e
       0.4494972 0.120467655 0.06341596 0.23393393
000220 6b 21 06 3d 25 aa 0b 3e 8b 3b 82 3d 19 85 42 3d
       0.032746714 0.13639124 0.06359013 0.047490213
000230 01 7e c7 bd 52 d6 be 3e 59 1c 8e 3c f5 09 36 3e
       -0.0974083 0.37272888 0.017347502 0.17777236
000240 69 bb 97 bd 86 35 56 bd bd 8c 8b 3d 47 74 31 3d
       -0.074087925 -0.052297138 0.06813953 0.04332378
000250 21 92 cc 3d b4 f5 b6 bd 65 6b 13 bd 56 c2 d6 bd
       0.099888094 -0.08933583 -0.03599109 -0.104862854
000260 cf 22 c9 3d e6 bf 27 3e 26 8e 68 3e 76 5c 3f 3e
       0.09821092 0.16381797 0.22710475 0.18687615
000270 b2 1b b1 3d 9f ed 1e 3e 14 c0 94 3e 37 bd a1 bd
       0.086478606 0.15520333 0.29052794 -0.07897418

exp_avg f4 [1, 40]
000000 62 5b 1d 38 a6 86 2f 36 b9 e5 33 38 45 d9 b7 b8
       3.7516824e-05 2.6155408e-06 4.289087e-05 -8.7665896e-05
000010 ed 4b e2 b7 fc 03 0c 38 47 0a bc b6 5f d0 23 36
       -2.6976655e-05 3.338231e-05 -5.604033e-06 2.441018e-06
000020 6f ac a7 b7 60 b3 0f b8 47 0b 2c b8 fa 9e cf 34
       -1.9988247e-05 -3.4260913e-05 -4.10185e-05 3.8672425e-07
000030 33 a4 de b7 77 c9 42 b7 24 cc 60 b7 84 c8 4b b8
       -2.6540923e-05 -1.1610208e-05 -1.3398971e-05 -4.8585716e-05
000040 03 13 1c b7 d7 5b 29 b8 b9 3f 8c 37 db 32 4a 38
       -9.302751e-06 -4.0378272e-05 1.6718974e-05 4.8207916e-05
000050 41 df 03 38 23 38 88 38 f3 c3 98 37 4f 47 cc b7
       3.1440755e-05 6.4954416e-05 1.8211058e-05 -2.43519e-05
000060 07 9e d4 b7 17 76 b7 b7 53 ae 48 36 65 fd 14 b8
       -2.5345957e-05 -2.187029e-05 2.9903792e-06 -3.552194e-05
000070 4d 44 78 b8 2b 95 26 b8 d4 fc 0e 36 70 1a a2 36
       -5.9191418e-05 -3.9716408e-05 2.1306814e-06 4.831054e-06
000080 95 03 1a b8 60 c8 01 b8 59 1d 05 b8 c7 57 23 37
       -3.6719797e-05 -3.094261e-05 -3.1737003e-05 9.735994e-06
000090 6f fa 68 b8 04 38 62 38 8f 82 83 35 b3 98 04 b8
       -5.5546345e-05 5.3934767e-05 9.798258e-07 -3.1613465e-05
