lightning_logs/version_3/checkpoints/epoch=94-step=4750.ckpt (torch, 300078 bytes, 33 tensors)

model.param_proj.proj.0.weight f4 [1, 40]
00000000: 63b6 19be b913 3bbd f8c7 33bf 00ec 02be
00000010: ffd0 593f 78e6 cabe a110 1c3d 528f 6bbe
00000020: 2013 85bd fe92 963e 412a f63c 71e1 e53e
00000030: 2d1e c83e 864f 953d 530b f23c 96f2 173f
00000040: fd50 2d3f abc3 223e 96e1 0dbf 1bce b1be
00000050: 155a 46be 0fbe debe a1be 083e 7351 b53e
00000060: 6acc 673d a555 003f 0b1e 00bf 2884 abbd
00000070: 47c9 033e b4d5 7ebe cbff be3e 7161 3cba
00000080: 08c4 733e 00db 5f3f db5b 013f fd4c e03e
00000090: 982e e13e 24a9 303d 30ae 9b3e 0a11 1d3f
-0.15010981 -0.045673106 -0.70227003 -0.1278534 0.8508453 -0.3962896 0.038101796 -0.23003891
-0.064977884 0.2940902 0.030049445 0.4489856 0.39085522 0.072905585 0.029546415 0.5935453
0.67701703 0.15894954 -0.5542234 -0.34727558 -0.19370301 -0.43504378 0.13353969 0.35413703
0.05659143 0.50130683 -0.5004584 -0.08374816 0.1286975 -0.24886209 0.3730453 -0.0007186151
0.23805249 0.8744354 0.50530785 0.43808737 0.4398086 0.043130055 0.30406332 0.61354125

model.param_proj.proj.1.weight f4 [1, 40]
00000000: 5fc9 12be dd43 0ebe ff4c 183d 7159 e0bd
00000010: 85d4 83bd 617d 31be 6a9f f83d ea2a 0f3e
00000020: a885 513e 674e c0bd 16c5 0f3d 7457 563d
00000030: ba6b 3bbd b8a5 903d a67e 313e 02e5 3d3d
00000040: eb7b babd bab3 bc3d fa01 4d3d fc53 71bd
00000050: 9ffc 23be 694e 6ebd ed5d 083e c335 da3b
00000060: 0565 063e e3df a93d d7d0 a43d a50f 073d
00000070: b709 3c3e 5534 0a3e b055 2bbd 5fd8 073d
00000080: a19e b73d a5b3 243e 1e47 1dbe ed92 163e
00000090: c17c 953d 9a5c 36be 8cd4 05be fdb1 073e
-0.1433463 -0.13893075 0.037182804 -0.109545596 -0.06437019 -0.17332985 0.12139781 0.13981214
0.20461142 -0.09389954 0.035100065 0.052329496 -0.045757033 0.07062858 0.17333469 0.046360977
-0.09105667 0.092139676 0.050050713 -0.058917984 -0.16014336 -0.058180247 0.1331708 0.006659241
0.13124473 0.08294656 0.080476455 0.032973904 0.18363081 0.13496526 -0.041829765 0.033165332
0.08965803 0.16084154 -0.1535916 0.14704485 0.072991855 -0.17808762 -0.13069361 0.13251491

model.param_proj.proj.2.weight f4 [1, 40]
00000000: edb1 0c3d 43cb b83d 3777 193f d689 fa3d
00000010: 5b3f 17be 1bd4 0a3e 09af 683e dee3 77be
00000020: c31f af3d 604d fabd 1000 ab3c db30 c6be
00000030: a547 41bf 0490 b6be 1c20 c43d d362 8dbe
00000040: 5a3a bfbe 3efa 10be e459 853e cec2 743e
00000050: d5cc 993d e469 8b3e 0f2e 40be 8f47 c3be
00000060: 5c64 53bd e317 1cbe 5a84 343e 5b94 43bd
00000070: 3a1b 17be cea9 833d 8d3c 5abf 92fd 87bd
00000080: a858 0dbe 0973 34be 0062 00be 7063 28be
00000090: b9a8 4abe aae8 edbe 93fd 0dbf a58a 7ebe
0.03434937 0.09023144 0.5994753 0.12233321 -0.14770262 0.13557474 0.2272302 -0.24208018
0.0855098 -0.12221789 0.020874053 -0.3870915 -0.75499946 -0.3565675 0.09576437 -0.2761446
-0.37349206 -0.1415796 0.26045144 0.23902437 0.07509772 0.27229226 -0.1876757 -0.38140532
-0.051609382 -0.15243487 0.17628613 -0.047748905 -0.1475648 0.06428872 -0.85248643 -0.066401616
-0.13803351 -0.17622007 -0.12537384 -0.16444182 -0.19790925 -0.4646657 -0.5546505 -0.24857576

model.rnn.weight_ih_l0 f4 [160, 21]
00000000: dbe7 253e 97a6 e03b 0df6 873e 6d92 c63d
00000010: 58d4 ba3d ce5a fe3d 1c90 06bd a4fa fabd
00000020: 91df 643d d877 213e 4cae 453d a22b 5c3e
00000030: 90c2 873e d746 0e3e dfca 323e 384b 5c3e
00000040: 003f 98be cfe3 a3b9 3a47 0c3e 2f65 00bf
00000050: edb3 dc3d 4d77 113e 3bf0 f53c 117e a23e
00000060: 35ea 4b3e 66ee 183e 0f04 d5bd 9c9c afbd
00000070: ad99 cf3d 6336 e63d 768d a53e b2e3 463e
00000080: 6b61 e33d 83d2 773e b423 733e 6ded ec3c
00000090: 1c81 b4bd 3cd3 49be 8f1d c039 21ae 183e
000000a0: adb3 99bc 48b8 2f3e 4f95 163e 425e 20bd
000000b0: 3966 51be b964 27be 7a16 0f3c ab90 18be
000000c0: 7e44 903c 5123 15be 770b 3cbe b421 19be
000000d0: 5a52 2c3c 5639 a63e 47fb 843e 3d34 0fbe
000000e0: 154c 01bd 9b74 8e3e 6e11 dabc b754 20b9
000000f0: 5343 53bd 91d2 fa3e 5196 e03c b2f3 b33e
00000100: ae5c 893e 2646 1c3e ff3e e43d 1e93 883e
00000110: 5eff 863e fd4a 25bb e6cf 083d 13de b83c
00000120: 2ff6 813b 9968 8b3e 5073 a43e 56a1 d73e
00000130: 970e 08bc 6b42 613e 99ec 033e ebde 3fbe
00000140: 0d66 6538 b205 663e 2480 c8be 0449 2f3d
00000150: 4c6c a03d 4267 a33e 9817 353e e2f3 683e
00000160: e1e4 3c3e 2f45 1d3e c9b3 dc3d f7f6 78bd
00000170: 8bf3 9e3b 4c2f dc3d d0a1 0d3d cd51 a0bd
00000180: f772 a13d 2666 d43d 65fa cdbd e7a3 60bb
00000190: 6bf7 74be d785 b53a 8bb8 903e bdb3 edbe
000001a0: 36c2 06bc 532a 4f3e ccfa 453e fd5d 4d3d
000001b0: 0bbe 1d3d f7b5 6f3e d06d 17be bd8d 4b3e
000001c0: 63be e23c ccc0 8d3e fb4c a33c 81cb 423d
000001d0: c6bc 363e ff0f 16bc 8c5a a43e 66cb f63e
000001e0: e83d c53e 6de8 aabd 0878 0ab9 af33 803e
000001f0: d4a5 443d e863 7bbd 09cc ee3e a37f a73e
00000200: 2494 ce3e 2230 5b3e d119 003f cff9 a23e
00000210: 46a9 a63e 3ad6 923d a230 b9bc 6191 423d
00000220: 9c20 1bbd 7f79 fc3d f50f 2e3e 1462 e63d
00000230: 1c43 f83d f756 483d 8160 cfbe a777 a9ba
00000240: 5119 803d 4640 2dbf 204b ce3e 114e 413d
00000250: 3106 a6bd 21d6 06be 5871 e6bb 607d 3b3e
00000260: 2883 993d 8788 02be 063c 35be 795d 7bbd
00000270: 0d4e 2bbe c48b e63c 2019 b7bc 139a f9bd
00000280: 234c 6ebe 0285 8fbd 4c9a f3bd b6c1 c13d
00000290: 31bc c8ba f65f e0bd 9cd2 ecbe 6ed8 183e
000002a0: cfc4 f03e 5465 4c3e 8fe9 923e 4246 573e
000002b0: b998 9c3c 9ed4 fcbc 789c 8f3d 6827 3fbc
000002c0: f3ad 043d 4c54 febd bc13 bc3b d63a 7bbd
000002d0: 8b06 283e 49d5 c33d 7bf6 c33c 1170 693e
000002e0: f0ee 59be 3970 9b3a e612 96bd cc21 3f3e
000002f0: ef21 e6bc aecb 8c3e 99f2 983e 5bfc c53d
00000300: 7379 153e 57b0 873e 0141 353e 09a6 843e
00000310: 9f73 773e 0aa9 313e 33ce 7d3e 6757 3b3d
00000320: 78b2 5c3d 41f2 3f3d 0d86 953e a757 623d
00000330: 727b 223e 6de9 d3be dd48 e4b9 9739 8d3e
00000340: 0fb4 723d 6240 7e3e 8740 bf3d 879e fc3d
00000350: 2d0b 0c3e 0c19 a8bd 8be7 cd3b d68c 74b9
00000360: 960b d2bd ebe7 99bc 2729 9ebd 9d6d eebd
00000370: f0c7 abbe d765 74be f7aa 8ebe 2582 44bd
00000380: b50f 463b 7531 1dbd 12a3 02be d386 8f39
00000390: 9ba7 0dbe 5b8b eabd cca0 d03d f6f9 ddbc
000003a0: fa3a 523e fa8a 313e aceb c13d f636 2e3e
000003b0: 3ea2 993d 45ad 8f3c 5864 12be 8e84 023c
000003c0: 3e5d b93c 47b8 dfbd 5f33 c2bb 7b72 dabd
000003d0: e52d af3c 8a57 053e 549d 99bd d054 06bd
000003e0: 1174 343a fcce 493e 2f7a e8be 579c 203d
000003f0: fb7e 773e b931 4d3e 6d94 623d 08da c23e
0.16201727 0.0068557966 0.2655491 0.09695897 0.091225326 0.12419663 -0.032852277 -0.12254837
0.055877272 0.15768373 0.048261926 0.2150102 0.26515627 0.13894211 0.17460202 0.21513069
-0.29735565 -0.00031259513 0.13699046 -0.50154394 0.107765056 0.14205666 0.030021777 0.31736806
0.19913562 0.14934692 -0.10401165 -0.08574793 0.10136733 0.11240842 0.3233449 0.19422796
0.111025654 0.24201398 0.23744088 0.028921807 -0.08813688 -0.19709486 0.00036643117 0.14910175
-0.018762434 0.17160141 0.14705394 -0.03915239 -0.20449151 -0.16347016 0.008733386 -0.14898936
0.017610785 -0.14564253 -0.18363748 -0.14954263 0.010517681 0.3246562 0.2597296 -0.13984771
-0.031566698 0.27823338 -0.02661964 -0.00015290348 -0.051577877 0.48988774 0.027415426 0.35146862
0.2682852 0.15261135 0.11144828 0.26674742 0.26366705 -0.0025221698 0.033401392 0.02256683
0.003966115 0.2722824 0.32119226 0.42115277 -0.00830426 0.21997993 0.12883224 -0.1873738
5.4692897e-05 0.2246311 -0.39160264 0.042794243 0.07833156 0.31914717 0.17684782 0.22749284
0.18446685 0.15358423 0.10776479 -0.0607824 0.00485081 0.10751209 0.034578145 -0.07828102
0.07883256 0.10371046 -0.100575246 -0.003427738 -0.23922507 0.0013849091 0.28265795 -0.46426192
-0.008225014 0.20230989 0.19333953 0.050138462 0.038511317 0.23409258 -0.14787984 0.19878288
0.027678674 0.27686155 0.019934168 0.047557358 0.17845449 -0.009159087 0.32100332 0.48202056
0.38523793 -0.08345113 -0.0001320542 0.2503943 0.04800971 -0.061374575 0.4664004 0.32714567
0.40347397 0.2140508 0.5003939 0.31831214 0.3255102 0.07169767 -0.022606198 0.047501925
-0.037872896 0.12327861 0.16998275 0.11249176 0.12122175 0.04891106 -0.40503314 -0.0012929336
0.06254829 -0.676762 0.4029169 0.04719359 -0.0810665 -0.13167621 -0.0070325546 0.18309546
0.07495719 -0.12747394 -0.17698678 -0.06136844 -0.16728993 0.028142817 -0.022350848 -0.121875905
-0.23271231 -0.07007791 -0.11894664 0.094607756 -0.0015314874 -0.10955803 -0.46254432 0.14926311
0.47025153 0.19960529 0.28693816 0.21022895 0.019115793 -0.030863103 0.07012266 -0.01166711
0.032392453 -0.12418422 0.005739657 -0.061335407 0.16408746 0.09562165 0.023921242 0.22796656
-0.21282554 0.0011859006 -0.07327823 0.18665236 -0.028092353 0.27499145 0.29872587 0.096672736
0.1459711 0.26501724 0.17700578 0.25907925 0.241652 0.1734964 0.2478569 0.04573765
0.05388114 0.04686189 0.29203835 0.055259373 0.15867403 -0.41389027 -0.00043541836 0.27583
0.05925375 0.24829248 0.093384795 0.12334924 0.13676138 -0.08207902 0.0062837056 -0.00023322119
-0.10256116 -0.018787345 -0.07722693 -0.11642001 -0.33550978 -0.23866974 -0.2786481 -0.047975678
0.0030221764 -0.038377244 -0.12757519 0.00027375537 -0.13833468 -0.11452361 0.101869196 -0.02709673
0.2053031 0.17338172 0.09468779 0.17013153 0.07501648 0.017538676 -0.1429609 0.007966174
0.02262747 -0.1092382 -0.005926534 -0.10666367 0.021384189 0.13021675 -0.07500711 -0.032795727
0.00068837503 0.19707865 -0.4540572 0.039211597 0.24169533 0.20038499 0.05531733 0.3805697

model.rnn.weight_hh_l0 f4 [160, 40]
00000000: bd50 853d 06d4 cebd c0bf 4bbd c86d 6c3d
00000010: f7b6 c13d 26a1 a5bd ad65 2dbb 5d78 393d
00000020: 6e22 013e 709d d7bd f119 8a3c 3855 3a3d
00000030: ac36 14be a49e ccbd 0ca7 a73c ea5d 6b3d
00000040: 3138 2b3e 1710 ec3d c036 943d b7ad 2b3d
00000050: 4214 4cbd a5e1 4f3e 3032 303e 7f6a c43c
00000060: 35d9 85bd 0472 303e c67f 12be 1bc3 c1bd
00000070: 9650 d53c c8ec a2bd 0aba 793d f49f cebd
00000080: a3f0 77be 9c33 9c3c 6ebb 693d 466b fdbd
00000090: 500b 08bd e097 acbd e9ea 86be 213a 843e
000000a0: a8f3 a8be 454d 2abe a8ab e93c 84f4 883e
000000b0: 2133 863d 65a4 c33c a8da 9a3d 842e d03e
000000c0: a86c 24be c5d4 913e 3460 b3bd f8df a73a
000000d0: aca4 a53e 4c6b 8abe f940 7ebe 40a2 02be
000000e0: 93de 35be 5034 5bbe 6b05 4fbe 4a7f 283e
000000f0: 8b14 6c3e 3204 ad3b 4947 bf3e b102 42bd
00000100: e95a 4f3e 2c14 033e 9ebb 0bbb 2c36 1dbe
00000110: a7a4 8ebe 0a35 4e3e 153a 8abe c21c 94bc
00000120: 1355 4a3d bb93 4fbd 61b6 98be b909 4b3e
00000130: d165 3bbe 272f 1fbe ff1f f4bd ea72 473e
00000140: 90fd 123d 8e99 31be 8301 1cbc e3ce 823d
00000150: 73e8 0cbd 2638 86be cc41 3c3d 8562 a1bc
00000160: 5504 12be 9670 84be 5302 343e a49d c03d
00000170: 6ec9 2d3d 9ec9 37be 83e1 aabe 9834 8e3d
00000180: 2554 0abe dc42 eabc d727 5dbe 6544 333e
00000190: c2cc 4c3e 72d2 4c3e eceb 1b3e f8eb aa3e
000001a0: 0051 153e 1d69 5e3d 2edd 5dbe a49f da3e
000001b0: 6fba d7bd b966 85be 81ff 84be a56c 733d
000001c0: 3272 5a3d 3cfc 78be 9e07 d7bd f01a d93d
000001d0: d782 21be c9d1 c23b 800e d0be e975 d53d
000001e0: ad6e 66be 4251 53be 5229 cf3d e95e 853d
000001f0: f49e 19bd d988 b8bd 836c 433e cbd4 86bd
00000200: 8810 62be fddf 913e b2aa 683d 9ebc bb3d
00000210: 0bd5 7c3e 1e34 5f3d d57b 37be d706 0cbe
00000220: f06f 1a3d 9013 cd3c cd48 b6bd bf3a 403e
00000230: ce20 a23d b348 aebb 9631 9a3c 4b5c f33d
00000240: 19b5 383e 2381 c4bd 2988 a4bd e2c9 103e
00000250: dff5 57be e90d febe a1b7 29be fc41 4c3e
00000260: 9301 843d 8bac 5ebd 0c6b 8fbd 0966 20be
00000270: 9bdb ad3d f6dc 6e3d 26c6 843e c47e 0dbe
00000280: b556 ef3d 2e50 a33d 6709 1abd 34b3 183e
00000290: 7c6c 173c 1e3b 93bd 7125 e1bb b781 c83d
000002a0: 3b1b ebbd 5d47 733e a0fa 87bd d20c 1d3d
000002b0: ce16 083c eb2e 513d d8d9 e9bd 8fb5 4a3e
000002c0: ded7 0fbd 1081 b8bd 9e29 63bc 6d0a 42bd
000002d0: 2b74 f8bc 4f37 3b3d d8c1 373e d457 243e
000002e0: 20f1 9d3d 9f3a 9fbd 7e5c 23be ef1a febd
000002f0: 7485 40be 5a98 313d d7d1 d63d 708b 3b3d
00000300: d4f6 2a3e 377b de3d 1837 20bd 4f4b 353e
00000310: 035e 3bbe 0991 07be 7b80 603b 9aa2 97bd
00000320: 6ae6 703d 18aa 81be f698 2cbd 3540 003c
00000330: 605a dfb8 dc1c 65bd 8065 0c3d 33c6 49bd
00000340: e205 b3bd 0aae d1be 0c0c d1bd 4348 a6bd
00000350: 28df 803e fd64 21bd bd9b e2bd f29e 123d
00000360: d915 28bd 818f e73d e401 66bd 244d a1bd
00000370: 064c ad3b 09bd 2cbd 87d2 373e fe06 f03e
00000380: 680f a53c dc04 36bd 2cd6 b4be c11b 7c3e
00000390: e21d f63d fd0a 70be 9ee7 943d 30ce 663d
000003a0: 30c2 92bd 0ce6 753d 8785 0bbc 2a36 393d
000003b0: 00f4 88bd 2d9e debe 5524 b1be aea7 a4be
000003c0: 9ee8 443d 9009 b73e 0e82 44be 8202 29bb
000003d0: ec76 3ebc 46a6 c03d 6b6c d7bd 93aa ea3c
000003e0: 4c8f bd3c c3cd c73e 37e6 84bd 3b2b 98bd
000003f0: 8146 863c 3645 3dbe 3a94 5f3d 70ec 133e
0.0650954 -0.10099034 -0.049743414 0.057721883 0.09458726 -0.08087377 -0.0026458309 0.045280803
0.1261079 -0.10528076 0.016858073 0.045491427 -0.1447398 -0.09991196 0.020465396 0.05746261
0.16720654 0.115265064 0.07237005 0.041913714 -0.049824007 0.2030092 0.17206645 0.023976563
-0.065355696 0.17230994 -0.14306554 -0.094610415 0.026039403 -0.07955319 0.060968436 -0.100891024
-0.2421289 0.019067578 0.057063513 -0.123739764 -0.033213913 -0.08427405 -0.26351097 0.258256
-0.32998395 -0.16631038 0.028524235 0.2674905 0.06552721 0.0238821 0.075612366 0.4066049
-0.16057074 0.28482643 -0.08758584 0.0012807837 0.32352197 -0.27034986 -0.24829473 -0.12757206
-0.17760687 -0.21406674 -0.2021691 0.16454807 0.23054712 0.005280041 0.37359074 -0.047365848
0.20249523 0.12800664 -0.0021321545 -0.15352696 -0.27859995 0.2013742 -0.26997438 -0.018080119
0.04939754 -0.050677996 -0.29826644 0.19827928 -0.18300559 -0.15545331 -0.11920165 0.1947743
0.035886347 -0.17343733 -0.009521845 0.06387117 -0.03440137 -0.26214713 0.045961186 -0.019700298
-0.14259465 -0.25867146 0.17579012 0.094050676 0.042428426 -0.17948005 -0.33375177 0.06943625
-0.13508661 -0.028596334 -0.21597229 0.17506559 0.19999984 0.20002154 0.15226716 0.33383155
0.1458168 0.054299463 -0.21666405 0.4269992 -0.10533606 -0.26054934 -0.25976184 0.059429783
0.05333156 -0.2431497 -0.104995 0.10600841 -0.15772568 0.0059454185 -0.40636063 0.1042288
-0.22503157 -0.20636466 0.10115303 0.06512243 -0.037505105 -0.090104766 0.19084363 -0.06583556
-0.22076619 0.28491202 0.056803413 0.09166835 0.24690644 0.054493062 -0.17918332 -0.13674484
0.03770441 0.025033742 -0.089006044 0.1877241 0.07916413 -0.005318725 0.018822473 0.11882838
0.18037833 -0.095949434 -0.08033783 0.14139512 -0.21089886 -0.49619988 -0.16573955 0.19947046
0.06445613 -0.05436377 -0.070028394 -0.15663923 0.08489152 0.058316194 0.25932425 -0.13817888
0.1168646 0.079742774 -0.037606623 0.1491211 0.009242173 -0.0718901 -0.0068709184 0.09790366
-0.11479803 0.23757692 -0.066396 0.038342305 0.008306218 0.051070135 -0.114185035 0.19795822
-0.035117976 -0.09008992 -0.013864903 -0.047373224 -0.03032883 0.045707043 0.1794504 0.16049129
0.077120066 -0.07774853 -0.15953252 -0.12407481 -0.18800908 0.043358184 0.104892425 0.045787275
0.1669572 0.10863345 -0.03911504 0.17704509 -0.18297581 -0.1323892 0.0034256268 -0.07404061
0.05881349 -0.25325084 -0.042138062 0.007827808 -0.00010650302 -0.055935726 0.034276485 -0.049261283
-0.087413564 -0.40953094 -0.10207376 -0.081192516 0.25170255 -0.03940295 -0.11064861 0.035796113
-0.04103646 0.11306668 -0.056154147 -0.078760415 0.0052886037 -0.042172465 0.17951404 0.46880335
0.020148948 -0.044438228 -0.3531965 0.24619962 0.120174184 -0.23441692 0.0727074 0.05634898
-0.071659446 0.060033843 -0.008515722 0.04521767 -0.06687164 -0.43480054 -0.34598032 -0.3215918
0.048073404 0.35749483 -0.19190237 -0.0025788848 -0.011625033 0.09406714 -0.10518726 0.02864579
0.023139618 0.3902417 -0.064892225 -0.074301206 0.01639104 -0.18483433 0.05458472 0.14445662

model.rnn.bias_ih_l0 f4 [160]
00000000: 982f 103d d915 e33e a5c9 d2bd 037c b03e
00000010: 8227 cf3d 2ac3 1b3e 0d2e 433e 1fd4 eebc
00000020: bcf6 db3d cc9a ef3e 270b 9b3d e9df c5bd
00000030: 1ece 623e e88a a43e f8da 423e d125 37bd
00000040: 107a 113e 06df e63d 2fca 8ebd 9605 993e
00000050: 5f8e 8c3e 2127 083f 9e6e cd3e 1be6 733d
00000060: 6f1e 853e e998 c03d db53 813d ee01 633e
00000070: f722 bf3d 24d2 8b3e aaab 123e 21db 393e
00000080: 773f 433e 99d8 e9bc 4821 783e 5035 593e
00000090: 561c 803e 305a fe3d 82f8 c43d 69e9 a93d
000000a0: 5ada 18bd 1adb 0c3e 294e 193e db31 cdbd
000000b0: cfd7 543d fc5c 3cbd 1bda 553e 7e84 aabc
000000c0: 3fdc 30bd e049 22bd ad71 ec3d b7aa 2ebd
000000d0: 1106 1e3e f215 453e 87ca b73d f343 323e
000000e0: 04c2 f4bd 6f89 033d 1554 293e 7967 033e
000000f0: b02f cc3c 6a3b 9fbd 76bb debd 7fa8 17bd
00000100: a417 7e3e 751d 7abd adbe 9dbd 9ef5 753d
00000110: 550e 72bb 0a1a dc3c d5eb 5e3d 4ce3 57bd
00000120: e857 d5bd 320b 0fbe ccf1 e13d 18c0 433e
00000130: 0235 60bd 7f28 173e adfd aa3d 90ff fabd
00000140: 76a2 00be 271d 633e 796e 3cbe 41e3 313e
00000150: 6f12 a4bb fdcb e03d 5cc2 223e 9e77 023a
00000160: ea6f 22be 2dc8 f73d ddb8 643d bfec 9ebd
00000170: bff5 433e 9628 5bbe 6e87 11be 53e2 a53d
00000180: 9f14 0bbe adb4 65be e275 7bbd c86a 143d
00000190: 8031 f13d 797d fc3d 5196 9f3e 8cd0 483e
000001a0: 79b6 63bc e52b 9cbd 883a 9e3d 1974 50bd
000001b0: 8c5a b23c da17 f43d 61da 30bd 4ba9 fe3d
000001c0: 06a9 12bd 6f17 8bbe 80b9 a9bd 4da7 923d
000001d0: 7a49 61bd 7fe4 5ebd 3914 8ebc 1f98 2e3e
000001e0: 4e59 3d3e 8bf1 c63d b866 213a ff8a 08bc
000001f0: ccbd 083e 52fd 05bd e8dd 263d 88e0 b63d
00000200: f5ec 4a3e ea49 de3e 8745 b8bd 79a7 f8ba
00000210: 2041 bb3d 44f0 8a3d 446b 21ba 0b09 2a3e
00000220: 8bf0 a53d 4b36 453e 3e2e d23d 066d 3e3e
00000230: 3398 1b3e 88fc 17bd 5c58 953d 4e78 613e
00000240: 77c5 323d bd30 653e eeda 74bc 93ee 113e
00000250: 62d5 353c 3ddd d23d f76f 33bd 91bb b1bd
00000260: 0d44 edbc 723b 253e cf72 2c3e 566b 473e
00000270: 9286 8a3c 27c6 2a3e 46d1 81bc 7b7a 363e
0.03520164 0.44352606 -0.10292367 0.34469613 0.101149574 0.15211168 0.19060536 -0.029153882
0.1074042 0.46797788 0.075704865 -0.09661848 0.2214894 0.32137227 0.19028842 -0.0447138
0.1420672 0.11273007 -0.06972157 0.29887074 0.2745237 0.53184706 0.40123457 0.059545618
0.2599978 0.09404165 0.06314822 0.22168705 0.09332841 0.27308762 0.14323297 0.18149997
0.19067179 -0.028545665 0.24231446 0.21211743 0.2502162 0.12419546 0.096177116 0.082964726
-0.03731761 0.13755456 0.14971222 -0.10019275 0.051963624 -0.045987114 0.20883982 -0.02081513
-0.043178793 -0.039621234 0.115451194 -0.042643275 0.15432002 0.19246653 0.08974176 0.17408733
-0.11951068 0.03211349 0.16535981 0.1283244 0.024925083 -0.07775004 -0.10875599 -0.037025925
0.24813706 -0.06106325 -0.07702384 0.060048692 -0.0036934812 0.026867885 0.054424126 -0.052707
-0.104171574 -0.13969114 0.11032447 0.19116247 -0.054738052 0.14761542 0.08349166 -0.12255776
-0.12561974 0.2217909 -0.18401517 0.17371847 -0.0050070803 0.10976408 0.15894455 0.0004976931
-0.15863004 0.120987274 0.055840362 -0.077599995 0.19136713 -0.21402201 -0.14211819 0.080998085
-0.13582085 -0.22432204 -0.06139172 0.036234647 0.117770195 0.123286195 0.3116937 0.19610804
-0.013898485 -0.0762556 0.07726008 -0.05089197 0.021771692 0.11918612 -0.043177012 0.12434634
-0.035805725 -0.27166316 -0.082873344 0.07160816 -0.055001713 -0.05441713 -0.017343627 0.17050217
0.18491098 0.097140394 0.0006156969 -0.0083339205 0.13353652 -0.03271229 0.04073897 0.08929545
0.19816954 0.43415767 -0.08997636 -0.0018970809 0.09143281 0.06784108 -0.00061576464 0.16605012
0.081025206 0.19258992 0.10262726 0.18596277 0.15194778 -0.037106067 0.07292244 0.22018549
0.04364535 0.22381873 -0.014944775 0.14251165 0.011098238 0.10296104 -0.04380795 -0.086783536
-0.028963113 0.16135958 0.16840671 0.19474539 0.016909871 0.16677152 -0.01584686 0.1782016

model.rnn.bias_hh_l0 f4 [160]
00000000: 9520 9b3d ad56 473e bc37 8dbd 6c87 883e
00000010: 5162 6e3d 1777 7a3e 4ff6 513e e40b 1fbe
00000020: 4348 853d 6e0f fb3e c905 e5bd 25d3 613b
00000030: 14ec 853d c5be e73d 5c10 b53e 9434 45bc
00000040: ce3f c23e 237c 0f3e b292 81bd e7d9 c53e
00000050: 988b d03e 965f ca3e 5995 8e3e c353 773e
00000060: 2564 4b3e 67af 943e 3385 8f3d 4874 ff3c
00000070: ca39 863d de5a 653d 82d1 673e 745a 9a3e
00000080: 58fe 1d3e 594e 643e e81c 863e d030 c33e
00000090: 8306 9b3e 8c49 8ebd bd3f 7b3e 9e24 2a3d
000000a0: 0a0b 933d db55 ff3d a605 a7bc d706 13be
000000b0: 5bf3 203d 7c03 73bd 98f6 4f3e 36a0 8fbd
000000c0: 8f63 453e 4135 7cbd e492 293e 9576 6bbd
000000d0: 767f 973d f75e 90bc f034 d43d f2ae 0b3e
000000e0: 6096 14bc 9ab7 8cb9 971c 4c3d 1d21 08bd
000000f0: fd4d 39bd 853a 903c ce6e e6bc c0d6 c83d
00000100: e4f8 fd3d 77f6 b13d cebe 153e 9b0a 2ebe
00000110: cf3f c93d 3f18 6cbd 30d4 5dbd c965 17bd
00000120: 5126 f1bc 684d e43d 5afc 14bd 2a74 e93c
00000130: 4638 ce3b 683f 123e 4f47 3e3d b32a 8abd
00000140: eb60 33bd 7297 0a3e 14a0 69bd 9381 f83d
00000150: 8396 b6bc 607d 0dbd 627b 6d3e a538 1f3e
00000160: 2b26 b33d 572b fabd faee 75bd f915 ccbd
00000170: 685e 393e 0ec5 4bbe 4269 68bc 9a3e e93d
00000180: 2464 17be 7cc3 07be 07be 11be 850d 183e
00000190: 5b68 1c3b 4800 0f3e 916e 623e a906 a7ba
000001a0: da7c ab3d a282 353e c870 a4bd 5ec3 0f3e
000001b0: aa90 f4bd abc0 febd 7b5c cfbd 094d 8a3d
000001c0: be92 263e 4fe9 8fbd 4437 56bd 8850 f43c
000001d0: 20f9 07be fd29 c1bd b7ed 03be a3de 2e3e
000001e0: 0ccc b43d 139a 98ba ddb6 b63d 60b2 5b3d
000001f0: 24b1 ee3b cbf1 2dbd 2e74 1b3e 1c89 c83d
00000200: 9d87 833e 27bd ab3e 0040 fdbd a956 6bbd
00000210: 1e1f 183e 4f2c 3c3e 3075 983d 006b 2c3e
00000220: f00e 84bc 1057 cfbc 8629 e03d 7678 023e
00000230: 87d9 993c 9a0a 64bd 6e4a a53d 950c b53e
00000240: 4c89 873e 1486 be3e 9ec3 113e 6691 393d
00000250: b06c c1bd b515 a93d 684c d8bc 6597 a93d
00000260: 4e66 2d3e 47d0 a43d 1008 cf3d 5c95 f13d
00000270: 64fa 9a3a 9924 853e 9f85 8dbc c9eb 6e3e
0.07574574 0.19466658 -0.06895396 0.2666582 0.05819923 0.24459492 0.20504116 -0.1553188
0.065079235 0.4903521 -0.11182744 0.0034458127 0.06539169 0.11315683 0.35364044 -0.012036461
0.37939304 0.14012198 -0.06326808 0.3864281 0.40731502 0.3952605 0.27848318 0.24153046
0.19862421 0.2904007 0.070078276 0.031183377 0.06553991 0.05599486 0.22638515 0.30147135
0.15429056 0.22295512 0.2619393 0.38123178 0.30278406 -0.06947622 0.24536033 0.041538827
0.0717984 0.124675475 -0.020388436 -0.14358078 0.03929458 -0.059329495 0.20308912 -0.0701298
0.1927626 -0.061574224 0.1655994 -0.057486136 0.07397358 -0.017623408 0.103616595 0.13640955
-0.009069055 -0.00026839675 0.049831953 -0.033234704 -0.04524039 0.01760603 -0.028129008 0.09806585
0.12400988 0.086895876 0.14623567 -0.16996233 0.09826624 -0.05764031 -0.054157436 -0.036962304
-0.029437216 0.111475766 -0.036373474 0.028497774 0.0062933294 0.14282 0.046454724 -0.067464255
-0.0437936 0.13534334 -0.057037428 0.12134089 -0.022288566 -0.034543395 0.23191598 0.15548952
0.08747514 -0.12215298 -0.06004236 -0.099651285 0.1810242 -0.19899389 -0.014185252 0.113888934
-0.14784294 -0.13258165 -0.14232646 0.14848907 0.0023865912 0.13964951 0.2211249 -0.0012743074
0.08373423 0.17725614 -0.08029324 0.1403937 -0.11941655 -0.12439092 -0.10125061 0.067529745
0.16266915 -0.07026922 -0.0522988 0.029823557 -0.13278627 -0.09431837 -0.1288365 0.17077117
0.08827981 -0.0011642597 0.08921597 0.05363691 0.0072843004 -0.04246692 0.15181038 0.097917765
0.25689402 0.3354275 -0.12365723 -0.057455692 0.1485562 0.18376277 0.07444227 0.16837692
-0.016120404 -0.02531007 0.1094542 0.12741265 0.018780483 -0.055674173 0.08070837 0.35361162
0.26471937 0.37211668 0.14234778 0.04530468 -0.094445586 0.082560934 -0.02640362 0.08280829
0.16933557 0.08047538 0.1010896 0.11796066 0.001182389 0.26004484 -0.01727563 0.23332132

model.rnn.weight_ih_l1 f4 [160, 40]
00000000: 833e 92be c271 a5be fbf5 da3d c90c 073c
00000010: f4df 5d3e 384e b03c 3b0d e0bd 5fac 9d3e
00000020: 991e e23d 1cd0 3bbf 2074 003e 992e dbbb
00000030: 874e 90bd 2a37 933d 822c e23d 8780 713d
00000040: 1e11 9e3e d2bf 4e3a c638 0dbd baa4 b63e
00000050: 2790 da3d 5976 89bd 079e 6b3e d81f b73e
00000060: 7c35 1d3d 4502 0e3e 6173 973e 886a 03bf
00000070: dcad d8bd 0898 7dbf a34d 3ebf fc8f be3e
00000080: 8850 a03e 16b5 21be 61fe 32be 0b7b 05be
00000090: 988a 63be bbfa 1fbf db71 3abe e557 143e
000000a0: ba38 84be 3735 863e 96ab 4dbe 2a32 133e
000000b0: 4eb8 f93d d1ce 123e ee93 743d 7e8b 733e
000000c0: ff90 e2bd e57a a03d 004a 95be 61ce b93e
000000d0: e167 8f3e f5bc aebd 18e6 21be 0259 96be
000000e0: f0c0 80be f516 8fbe ef4a 41be de1e 493e
000000f0: 61a2 543e 5a4f 7d3e 14b7 ae3e 7aba 853e
00000100: fdce c43d 5e8d 8f3e 53d3 81be 8af1 74be
00000110: c987 bbbe 0a24 cabe 7fb5 05be 582f efbd
00000120: 080e 4a3e c545 b7be d1d3 abbe a3a4 5c3d
00000130: 2ea4 6dbe dabc e9be b5cc 8ebe 86fd 393f
00000140: c311 9abe e095 993e 6b89 2bbe dec9 863e
00000150: f383 3f3e 1136 ebbd d4a4 563e 610c 643e
00000160: 3fff 52be 73ec 9c3d 075d efbd b6ed d7bc
00000170: 8678 7b3e 51e4 87be c356 88be dcdb 7c3c
00000180: a1a2 3ebe c378 43be bebe 3839 e427 dd3d
00000190: 31b0 f83d 19b0 f33d b858 843e 492e 78be
000001a0: 3b4a 4e3e ebf7 1e3e 8a25 66bd 327d d53e
000001b0: b3f4 07be c1c2 1abd f469 45bd 3881 813d
000001c0: a968 3b3e 7f81 51be b364 b8bc 02b4 b73d
000001d0: 0bdc 97bd c96c e7bd ab51 613e 5005 443e
000001e0: a197 b1bd 8310 243f 2c6c 2fbe 860e 8c3c
000001f0: 99b6 bebd 38fb 05bd 0cb2 febc 0da8 c5bd
00000200: 9a66 eebd 91dc e73e 0155 a2bd 7604 173e
00000210: 463f 03be cec9 343d a7c5 573c 123e b0bd
00000220: 01d9 45be d25b 42be 31d4 21be 77f4 203e
00000230: 09e7 473e 4082 7a3e ce75 a03c 3280 c93e
00000240: 8cb5 973e fc44 d83c 471d 9ebd 4d5d 0ebe
00000250: fdec 0dbd db2d 73be f50e a8be 86b8 223e
00000260: 4a82 7cbd 73f9 f4bc dd4e 64be cd3c a63c
00000270: 9c29 ffbb 0d78 1e3e 6051 663e 0d4b 353f
00000280: b7c5 66bd c61d 293c a94f e4bd 2792 1a3e
00000290: 3e34 b93c 1d06 a33a ecd8 113d e731 85bd
000002a0: 4925 e2bd 5120 85bd fc8b 05be cd19 73bd
000002b0: 7d67 2e3e f048 c2bd 5a7c 34be 4825 2fbe
000002c0: 0f52 5abe 1d7a 6fbe 9158 903d 11af 053e
000002d0: 478c 45bd 360b cb3d 68f2 e5bc 3a16 8fbe
000002e0: f946 173e 1399 9fbc 03c9 28be 69d9 9b3e
000002f0: ef7f a3bd 5a3c 223e 5533 473d 4c87 62bd
00000300: 72ab e03d 4e01 4bbe c41e 943c f4f2 8c3d
00000310: 78ce 46be 4f97 85be be93 313e b3d7 d13c
00000320: 4986 97bc 1f9a 263e 6135 9bbd dbfd fd3d
00000330: 81c5 233e 08bc da3c f8e5 1fbb 731a 85bd
00000340: e6c1 5fbd 9d72 89bd a820 b8bc 2b0a fc3d
00000350: 7110 96bd 5d1e 08be 5727 e33d 3da1 c1bc
00000360: 60f7 3cbd d3ff eabd adb2 ae3d dfe5 6abd
00000370: 5e34 413e 4fc1 823c be1b dabc cc90 6a3d
00000380: 050c 243e dc23 b7bd 7ff4 e4bc 9a56 d1bd
00000390: 21c4 4a3d d420 edbc 12d9 23be d204 ef3d
000003a0: d4fe b0b9 42ff c73c fb41 983d 5a36 95bc
000003b0: bf3a 223d 52cb 57be dc7b 0b3e aec9 a4bd
000003c0: b845 4fbe 401d 9e3e ac75 f3bd 558f 91bd
000003d0: d193 f73d 288e 243e 7527 063d 0507 763c
000003e0: 0382 72bc 1c56 a5be 3b67 00bd df0f 673c
000003f0: 8413 e73d 3ace a0bd 9191 793d ab15 f5be
-0.28563318 -0.32313353 0.10691448 0.008242794 0.21667463 0.021521673 -0.109400235 0.3079557
0.11040992 -0.73364425 0.12544298 -0.0066889045 -0.07046228 0.07188256 0.110436454 0.058960464
0.30872434 0.000788686 -0.03447797 0.3567255 0.10672026 -0.06712026 0.23009501 0.35766482
0.038381085 0.13868053 0.29580215 -0.5133443 -0.10580036 -0.99060106 -0.74337214 0.37219226
0.3131144 -0.15791735 -0.1747985 -0.13035218 -0.22220838 -0.6249196 -0.18207495 0.14486654
-0.2582453 0.26212475 -0.20084986 0.14374605 0.121933565 0.14336707 0.05971139 0.23783681
-0.11062812 0.0783594 -0.2915802 0.36290267 0.2800894 -0.085321344 -0.1581043 -0.29364783
-0.251472 -0.27947202 -0.18876241 0.19640681 0.20765068 0.24737301 0.34124053 0.26118833
0.096097924 0.28037542 -0.2535654 -0.23920265 -0.36627033 -0.3948062 -0.13057517 -0.11678952
0.19731915 -0.35795417 -0.3356004 0.053867947 -0.23207161 -0.45651895 -0.27890554 0.7265247
-0.30091676 0.29997158 -0.1675164 0.26325887 0.18702678 -0.11484922 0.20961314 0.22270347
-0.20605181 0.076622866 -0.116876654 -0.026358467 0.24557695 -0.2654138 -0.26628694 0.015433278
-0.18616726 -0.19089036 0.00017618664 0.10798624 0.12142981 0.11898822 0.25848937 -0.24236406
0.20145504 0.1552426 -0.056188144 0.4169708 -0.13276939 -0.037783388 -0.048196748 0.06323475
0.18301643 -0.20459555 -0.022508955 0.08969881 -0.07415017 -0.11300046 0.2200381 0.19142652
-0.08671499 0.64087695 -0.17131108 0.017096769 -0.093121715 -0.032710284 -0.031090759 -0.09651194
-0.116406634 0.45285466 -0.079263695 0.14747795 -0.12817106 0.04413777 0.013169683 -0.08605589
-0.19321062 -0.18980339 -0.15803601 0.15718256 0.19521727 0.24463749 0.019587424 0.39355618
0.29630697 0.026400082 -0.07720428 -0.13902779 -0.034649838 -0.23747961 -0.3282391 0.15890703
-0.06164769 -0.029904103 -0.22295709 0.020292664 -0.0077869426 0.15475483 0.2249198 0.70817643
-0.0563409 0.01032204 -0.111480065 0.15094815 0.022607919 0.0012437735 0.035607263 -0.06503659
-0.11042268 -0.065003045 -0.13041681 -0.059350777 0.17031665 -0.09486568 -0.17625561 -0.17104065
-0.21320365 -0.23386426 0.07048143 0.13055064 -0.048229482 0.09914248 -0.02806969 -0.27946645
0.14773168 -0.019482171 -0.1648293 0.30439308 -0.07983386 0.15843335 0.04863294 -0.05530481
0.109702006 -0.19824716 0.018081076 0.06882277 -0.19414699 -0.26092002 0.17341515 0.025615549
-0.01849665 0.1626973 -0.075785406 0.12401935 0.1599331 0.026700988 -0.0024398547 -0.064991854
-0.054628275 -0.06711314 -0.02247651 0.12306627 -0.07327355 -0.13292833 0.11091488 -0.023636455
-0.046134353 -0.11474576 0.085301735 -0.05734813 0.18867633 0.015961317 -0.026624557 0.057266995
0.1602021 -0.089423865 -0.027948616 -0.10221596 0.04950345 -0.028946318 -0.16000775 0.11670841
-0.00033759198 0.024413709 0.0743446 -0.018214393 0.039606806 -0.21073654 0.13621467 -0.0804628
-0.2024144 0.3088169 -0.118876785 -0.071074165 0.120887406 0.16069853 0.032752473 0.015016322
-0.014801505 -0.3229226 -0.03134845 0.014102905 0.11283019 -0.078518346 0.06092984 -0.47868094

model.rnn.weight_hh_l1 f4 [160, 40]
00000000: 7923 223c 1c10 4dbe 337c 1d3d 6ccb 9bbe
00000010: d9af 2e3e 8dfd 2ebe 6549 b23e c0ec babd
00000020: cf26 103e e4d6 97bb f536 da3d bd52 b43d
00000030: 2782 583e dea9 55bb f43a 193d a03d e9bb
00000040: 63a5 9bbe 688d 213e 053a 2bbf 64ea 9abc
00000050: 1e07 c2bd 429f 17be b4c8 813e a294 94bd
00000060: 0014 d43d 64c0 e5bd b579 03be f63a c7bc
00000070: 38ce 9b3b 7a7b b1be 00d9 9abe 26d4 b1be
00000080: 224c b83d 621e bd3c 1515 a0bd d514 ad3e
00000090: b1b5 ac3c 0616 3f3e 2f86 f23e decf 9bbb
000000a0: ea73 a8bd e2ec b13e 2dd3 1c3c a3c5 993e
000000b0: 873a 433e 2658 8cbe dcc4 8a39 2634 35be
000000c0: 382f 643e a791 3d3e 8b10 ed3d bda3 ac3d
000000d0: 045d cbbd 2ad5 433e de0d 843e 7651 1ebc
000000e0: 5137 043e 4536 6a3a 0742 12be d2b0 42be
000000f0: 8378 bcbd 0b77 52bd d245 cbbd aa6a f33d
00000100: 1559 ba3d f696 473c 5b02 8bbc 4922 153e
00000110: be19 223e 5ead ff3e 20c7 0e3d a43b 9abc
00000120: 0097 2e3e cf92 e83c 2ead 403e 9c17 e23c
00000130: c4af ce3d 843b 71be 35d9 1abf 3c8a b93d
00000140: 73d6 a4bd 6101 103e 64f7 af3d 6c5a 43be
00000150: 2f86 37bd 3797 2cbe 7724 8cbc db4a 8b3d
00000160: f38d 09bd 58cc dabd 9cfd fa3d 9014 9ebc
00000170: 1c4c d7bb 2482 dfbc e512 1bbd 56a6 17bc
00000180: 9a2c c13d f1ab d03c 21b5 1cbe 0d78 50bd
00000190: f105 20be ac18 d23d ab38 24bc f44b 493c
000001a0: 84cb c0bd 3ae1 293e aeef d4bc 33e7 7c3d
000001b0: 68da bfbd 85f6 e73d 8892 9abd 0a91 05be
000001c0: ca12 c63d 4547 123e 9d47 a3bd f802 58be
000001d0: 619e 0fbe a45a ef3d 844c f5be 93bc 88bd
000001e0: b066 e13d 5ae7 2d3e bf99 b33d b7a8 14be
000001f0: 9211 663e 4265 e1bc 877a 6fbe a34e 093e
00000200: 6586 ee3c aceb e33b f85c 4a3c 9c38 133e
00000210: 1e5e 14be 0428 34be 3215 2d3e 839f 86bd
00000220: a294 533d bc5f fd3d 62af d9bd ecd5 b13d
00000230: 5570 db3d 6e34 84bc 4971 4f3e 2660 72be
00000240: b0ab 0cbe 250f f8bd d782 f5bd 187b 0ebe
00000250: fb8f 983d a490 843b 2a36 a7be 8f15 1ebe
00000260: da22 06be 32fe 223c 9992 13be 1479 af3d
00000270: aced b93d dd88 03bf 9db4 193f cf33 3fbe
00000280: 607b 97bd 779f e7bd 7e7e 1fbe 5997 1dbe
00000290: e8ad 723d c59c 54bd e2ce 5d3e 3132 45bd
000002a0: 6f29 84bd c270 d93d 361d 98bd d9ea abbc
000002b0: 1ef0 20bc cb53 a8bc d05e 173b e500 043e
000002c0: eb8a 09be a9d8 2e3e 4a87 cabd 2113 a53d
000002d0: 34ec 7cbd a01c 023e 8954 f93c 0722 043e
000002e0: 5d95 8dbd 7235 7abc 880d 873d 783b d63d
000002f0: d386 3d3e db08 d93d 9419 34bd 1e05 6fbd
00000300: 9107 2c3d 671b d03d 5211 183e c939 3abe
00000310: 79b1 393d b727 74be df6d 87be 8479 0c3e
00000320: dea6 f3bd bc56 3fbd 6ca2 bfbd 49d3 93bd
00000330: c603 393e 0a0d 77bd 2dc3 6abd 45cc 283d
00000340: 4271 e4bc eab1 753d 8a87 ff3d 3ad1 113e
00000350: 5d48 9dbc da5b 123e e9cf cfbd d93c e0bd
00000360: 0d34 3e3d 87cd 8739 6891 e63b eee8 d13c
00000370: a473 f2bd 141c a53c 401f 48bc 680e e03d
00000380: 636e d63c 3686 3c3d 4410 30bd acc4 413d
00000390: 777f b83d c560 04bb 78b9 9bbd ca14 90bd
000003a0: d519 d83c 276f cf3d 7674 373d f85d 84bd
000003b0: 9f44 1d3e 1883 3ebd f733 0bbd 00ad 283e
000003c0: c85f 253d 1e3c 783e 777c bf3c 4aca 283d
000003d0: f1b6 733b 5ef5 30be c047 0ebe 2f94 bc3d
000003e0: 49be 3e3e 3350 393e 6141 e5bd f87a dc3d
000003f0: 5e78 e23d c1a7 03be 6400 48be 00ae 7e3d
0.009896153 -0.20025676 0.038448524 -0.30428636 0.17059268 -0.1708891 0.3482162 -0.09127188
0.14077304 -0.0046337713 0.106550135 0.088048436 0.21143399 -0.003260247 0.037409738 -0.007117942
-0.30399618 0.15776598 -0.66885406 -0.018910594 -0.09474014 -0.14806846 0.25348437 -0.07254912
0.10355377 -0.11218336 -0.12839396 -0.024320107 0.004754808 -0.34664518 -0.30243683 -0.3473217
0.08998896 0.023085777 -0.07816521 0.33804956 0.021082731 0.18660745 0.47368 -0.0047550043
-0.08225234 0.3475104 0.009571833 0.30033597 0.19065295 -0.27411002 0.00026468083 -0.17695674
0.22283638 0.18512593 0.11575421 0.08429668 -0.09929851 0.19124284 0.2579183 -0.0096629765
0.12911727 0.00089344784 -0.14283 -0.19012764 -0.09202673 -0.05138306 -0.099254265 0.11885579
0.09099022 0.012181988 -0.016968897 0.1456386 0.15830132 0.49936956 0.03485787 -0.018827267
0.1704979 0.028390316 0.18816063 0.027599148 0.100921184 -0.2355786 -0.6048768 0.09059569
-0.080487154 0.14063026 0.08592108 -0.19077462 -0.0448057 -0.16854559 -0.017107232 0.06801387
-0.03358264 -0.10683507 0.122554034 -0.019296914 -0.0065703522 -0.027283736 -0.037859816 -0.009255966
0.09432335 0.025472613 -0.1530347 -0.05089574 -0.15627266 0.10258612 -0.010023276 0.012286175
-0.094138175 0.16589823 -0.025993194 0.061743926 -0.093678296 0.11326317 -0.0754748 -0.1304361
0.096715525 0.14285 -0.079726435 -0.21094882 -0.1402526 0.1168721 -0.4790994 -0.06676593
0.11005914 0.16982785 0.08769559 -0.14517485 0.2246764 -0.027514104 -0.23386584 0.13408904
0.029116819 0.0069555845 0.012351267 0.14377064 -0.14489028 -0.1759339 0.16902617 -0.06573393
0.05165542 0.123717755 -0.10629155 0.086833805 0.10714785 -0.016138282 0.20258059 -0.2366949
-0.13737369 -0.121122636 -0.11987846 -0.13914144 0.07449337 0.004045563 -0.3265851 -0.15437911
-0.13099232 0.0099483 -0.14411391 0.08568016 0.090785354 -0.5138071 0.6004122 -0.18672107
-0.07396579 -0.113097124 -0.15575597 -0.15389766 0.05924788 -0.05190732 0.21660951 -0.04814357
-0.06453215 0.1061721 -0.074274465 -0.020986008 -0.009822873 -0.020547768 0.0023097284 0.12890966
-0.13431899 0.17074837 -0.098890856 0.08060289 -0.0617487 0.12706232 0.030435817 0.12903605
-0.069132544 -0.015271531 0.06594378 0.104605615 0.18508463 0.10597392 -0.043969706 -0.05835449
0.041999403 0.101614766 0.14850357 -0.18186106 0.045335267 -0.23843275 -0.26451012 0.1371823
-0.11897062 -0.046713576 -0.093571514 -0.07218034 0.18067846 -0.06031517 -0.05731504 0.04121043
-0.027886037 0.059984125 0.12477024 0.1423997 -0.019199545 0.14292851 -0.101470776 -0.10949106
0.04643636 0.00025902336 0.0070363767 0.025623765 -0.11838463 0.02015499 -0.012214482 0.10940248
0.026175683 0.04602643 -0.042984262 0.0473067 0.09008687 -0.002019928 -0.07603735 -0.07035215
0.026379505 0.101286225 0.0447888 -0.064632356 0.15358208 -0.04651174 -0.033985104 0.16472244
0.040374547 0.24241683 0.02337478 0.041208543 0.00371879 -0.172811 -0.13894558 0.09207951
0.18627276 0.18097 -0.11194111 0.10765642 0.110581145 -0.12856962 -0.19531399 0.062177658

model.rnn.bias_ih_l1 f4 [160]
00000000: 0a1e 053d ebf2 b73e 2ad7 9c3e d931 fa3d
00000010: 49e1 173e 310d 733e 739d 0a3e 94f6 aebd
00000020: 6267 5b3e 5a9c 573c 2836 773e fec6 783e
00000030: abb7 af3d 924a 093e 5498 383d 904b 983d
00000040: 7c7a 12be bc76 1b3e 9fa2 303e 436c 083e
00000050: e417 c73d eee8 5e3e 21e2 04be b21c f8bc
00000060: ae62 b73e c4c2 3b3e bfc1 2dbc 99e9 743e
00000070: 9fd9 cf3e 666f bebd 2587 263d 00f5 633e
00000080: ca34 cb3e 03b2 bd3d 8705 0c3e ca24 b63b
00000090: a3bd d23e acb4 24bc 2daf 2d3e f97e 263d
000000a0: 7ef2 aabd d57f 0d3e ac59 323d 677e 393e
000000b0: f8ba 5d3d 720b 7d3d b28f fd3d 1640 713d
000000c0: d944 4bbd f1b6 7dbd e1d6 163e 0028 43b4
000000d0: f9b8 713d 767a 163e 5f52 eb3b 0c3f 9e3c
000000e0: b377 053e f7ec de3c 7901 933d eacf 443d
000000f0: 69b0 dc3d c33c 423e 620e fa3d 5a1a d6bd
00000100: a3b2 24bd 47b1 4dbd 8991 de3d 5215 1ebd
00000110: 0125 153d 1f88 98bd b15b fe3d 5bbd 02bc
00000120: db70 3abd 5097 97bd 1c22 463c a6e3 d73d
00000130: 5e4e d63d b052 a73b 36da a2bc deed 553e
00000140: 83a0 edbd ce26 1fbe 03c4 1f3d a4af 92bb
00000150: d243 acbd 8075 20be eac6 033e c51e f13c
00000160: d567 843e a3b2 0c3c c8e9 913e 6a96 1b3e
00000170: 4266 6e3e 6637 4fbd a7ef cb3d 1d56 043c
00000180: 23c2 4a3d f5a4 70bd 12d3 e6bd ac2c 01be
00000190: 834e 0bbe 5600 bbbd 52b8 9f3c d61a 023e
000001a0: d78f 0b3e 1ff4 0a3e 03a9 e5bd 479b 4e3d
000001b0: 3ee4 843e 2391 c13d 2bad 15be e379 d23d
000001c0: 1b3d 8ebb 9e20 0f3d 69fe 7fbe d054 88bd
000001d0: 9ee4 1a3e 0d55 49be 2631 0ebe fb7d e23d
000001e0: f8d5 153e 4495 9dbd 5fec aebd aa75 033d
000001f0: 049a 033e fc70 9c3d 819f 273e 8957 b13d
00000200: aa01 423d 9cb1 cabd 3b09 403b f561 5f3e
00000210: d2d3 bf3e d460 b2bd fcf8 07be 1fdc 8f3e
00000220: 2cd5 aabd 5162 4c3e b91c a83e b8bd 2b3e
00000230: 96ea a53d 8355 a83e b60a 253e 9c46 753e
00000240: cf7d 5ebd 5264 20bd 99a7 46bd ec8e 3d3e
00000250: aea1 183e bc25 03bd b282 3d3e 4f67 ae3d
00000260: 7456 84bd 1614 0c3d 51b1 a03c 7465 5a3e
00000270: 15f5 883e 7579 00bc e2cf f83d 1368 dd3d
0.03249935 0.3592752 0.30632907 0.12216539 0.14832033 0.23735501 0.13536625 -0.08543125
0.21426156 0.013159836 0.24141753 0.2429466 0.08579954 0.13407353 0.045067146 0.074362874
-0.14304537 0.15182012 0.17249535 0.13322549 0.09721354 0.21768543 -0.12976886 -0.03028712
0.35817474 0.18336016 -0.010605275 0.23917235 0.4059572 -0.09298591 0.040656228 0.22261429
0.39688712 0.09262469 0.13673984 0.005558585 0.41160306 -0.010052841 0.16961356 0.040648434
-0.08347033 0.13818295 0.04354255 0.18114625 0.054133385 0.061778493 0.12380923 0.058899008
-0.049626205 -0.061942045 0.14730407 -1.8175342e-07 0.059014294 0.14695153 0.0071814503 0.019317172
0.13033943 0.027212603 0.07178015 0.048049845 0.10775835 0.18968491 0.122097746 -0.10454245
-0.040209424 -0.050217893 0.108676024 -0.03859455 0.036412243 -0.07447838 0.124198325 -0.007979716
-0.045517784 -0.074019074 0.012093093 0.10541467 0.10464166 0.0051062927 -0.019879442 0.2089152
-0.11602881 -0.15542147 0.03900529 -0.0044765044 -0.08411373 -0.15669823 0.12868848 0.029433617
0.25860468 0.008587512 0.28498673 0.15194097 0.23281196 -0.05058994 0.099578194 0.008077172
0.04950155 -0.058751065 -0.11270727 -0.12614697 -0.13604169 -0.091309234 0.01949707 0.1270555
0.1362909 0.13569687 -0.11213877 0.050441053 0.25955385 0.09451511 -0.1461684 0.10277154
-0.0043407804 0.034943216 -0.24999394 -0.06656802 0.15126273 -0.1966135 -0.13885936 0.11059185
0.14632404 -0.07694486 -0.08541178 0.032094635 0.12851721 0.076387376 0.1636944 0.08659274
0.04736487 -0.098971575 0.0029302377 0.21814711 0.37466294 -0.08709875 -0.13278574 0.28097627
-0.083414406 0.1995938 0.32834414 0.1677159 0.08101384 0.3287774 0.16117367 0.23952717
-0.0543192 -0.039158173 -0.048499677 0.18511552 0.14905426 -0.03201841 0.18506888 0.08515798
-0.06461802 0.034198843 0.019615801 0.21327764 0.26749483 -0.007841458 0.121490255 0.10810866

model.rnn.bias_hh_l1 f4 [160]
00000000: 1d51 173e 4f0e d23e b33b 9c3d 7620 273d
00000010: 3009 6abc 16cd 183c c6c2 42bd d8b5 91bd
00000020: 5728 b33d 0fde 33bd c81a 3c3e 06d2 a93d
00000030: 99a6 383e c366 053e d43c 94bd 0df3 113e
00000040: 9c35 60bd cdee 9d3e 2891 6a3d b70a 9b3e
00000050: f127 d53b a067 dc3d a618 1fba 0284 873d
00000060: e993 913e eb28 d63d b984 8b3d d3c9 913d
00000070: 4c94 983e c959 99bd 5054 c63c eecf 8f3e
00000080: 60ae c53e a8ca 15bd b2c0 633e d9f1 863d
00000090: df8e 513e aafc 3e3d 3615 853d 4d6a 8c3e
000000a0: 24ca 9dbc 4137 58bd ff84 073e ce95 55bd
000000b0: 1964 b83d e10c 373e 521a 473d d0cd 063c
000000c0: e0fc 0a3a eacb 543d d8eb 5f3e d007 d8bd
000000d0: 5245 3e3e 7ae0 b4bb 9584 543d fced 4b3e
000000e0: 834e 77bd 6f4f 063d c1d8 613e 26e3 1d3d
000000f0: 91a6 963d 81a1 103e 35d0 a63d 92e6 27bd
00000100: 3682 a8bd a14f b3bd ff5b dd3d bf47 223c
00000110: 4396 303e 9569 37bc a409 c6bd 1529 853d
00000120: b5b1 1a3d e0bd cf3c 2559 e33d 9613 dc3d
00000130: 6dfc 1b3e e4cd 353d 6978 2b3d 6c12 823d
00000140: 1510 b0bd e2bf 40bd 4ac4 6cbe e844 23be
00000150: d524 98bd 0561 143d 6bad d43d 72a2 1c3e
00000160: a813 a43c c812 683d b4fe 8c3e 6670 883e
00000170: 65f0 a83c bdd2 7bbd a259 1f3e 8b72 763e
00000180: c8e6 43bd fa73 073e 4796 b73c 88a9 1fbe
00000190: cacd 0ebe b452 3fbe af11 babd c55d 833d
000001a0: 27bb ee3d d6f8 853e e860 f13d ef57 7e3e
000001b0: a132 98bc 2c1c c93d e740 923c 6e66 d83d
000001c0: aab3 d03c 3ed7 8e3e f613 79be 4fd3 96bd
000001d0: 1523 6b3e 921c 4abd ae3a 5f3d 280d 053e
000001e0: b1e2 223e 9b6a c8bd c30c 2bbd 11a7 443e
000001f0: 89e1 7dbd 6c3e dd3c 4d58 7cbd 1d45 683c
00000200: 73b2 b8bd e395 863d 0de6 523e bbe6 883e
00000210: 8e7b e83e f99b f83d a131 823d 1b07 723e
00000220: 041e 073d e4cd 0c3e 10af 833d 5784 443d
00000230: 7980 c6bd 394c bf3e e90f 923c f6c9 373e
00000240: 8a40 97bd 71be 55bd b250 8b3d be89 313d
00000250: ee58 ce3d a72c b8bd 77cb 0ebd c0b0 d4bd
00000260: c591 c93d b2fc 273e ed07 693e aabf 3f3e
00000270: 9aec b13d cd95 1f3e 9505 953e 0c50 a1bd
0.14777036 0.41026542 0.07628574 0.04080244 -0.014284417 0.00932624 -0.04754903 -0.07114762
0.087479286 -0.043912943 0.18369591 0.08292012 0.18032302 0.13027482 -0.072381645 0.14252873
-0.054738626 0.30846253 0.057267338 0.30281612 0.0065050055 0.107619524 -0.00060690416 0.06616975
0.2843316 0.10457023 0.06812424 0.07118573 0.29800642 -0.07487828 0.024210125 0.28088325
0.386096 -0.03657022 0.22241476 0.065890975 0.20464657 0.046627678 0.06498186 0.2742485
-0.019261427 -0.05278707 0.13234328 -0.052144818 0.09003467 0.17876007 0.048609085 0.00822778
0.00053019635 0.05195228 0.21867311 -0.10548365 0.18581131 -0.0055199238 0.051884253 0.19915003
-0.06037761 0.032790598 0.22055341 0.038546704 0.07355989 0.14124109 0.08145181 -0.040991373
-0.08227961 -0.087554224 0.108085625 0.009904801 0.1724482 -0.011194606 -0.096698076 0.065019764
0.03776713 0.025359094 0.11100987 0.10745923 0.15233012 0.044385806 0.04186288 0.0635117
-0.085968174 -0.047057994 -0.23121753 -0.15944254 -0.074289 0.036225338 0.10384639 0.15296343
0.020028904 0.056658536 0.27538073 0.26648253 0.020622442 -0.061480273 0.15561536 0.24067132
-0.047827512 0.13227835 0.022410525 -0.15592015 -0.1394569 -0.18683892 -0.09085404 0.064143695
0.1165679 0.2616641 0.117860615 0.24838232 -0.01857883 0.098198265 0.017853213 0.10566412
0.025476296 0.27898592 -0.2432402 -0.07364523 0.22962601 -0.049343653 0.05449932 0.129933
0.15906788 -0.097859584 -0.041760217 0.19204356 -0.061982665 0.027007304 -0.061607648 0.014176634
-0.090184115 0.065715574 0.2059557 0.26738533 0.45406765 0.121391244 0.06357122 0.23635523
0.03298761 0.13750416 0.06429875 0.04797777 -0.09692473 0.3736284 0.017829852 0.17948136
-0.07385357 -0.052183572 0.06802501 0.04334425 0.10075556 -0.08992892 -0.034862008 -0.10385275
0.098422565 0.1640499 0.2275693 0.18725458 0.08687706 0.15584488 0.2910582 -0.07876596

exp_avg f4 [1, 40]
00000000: fdbb 4538 9ed4 2237 0089 6138 b1a7 d3b8
00000010: 9c57 06b8 709b 1138 c4a4 28b7 30d2 b9b5
00000020: 89ca 90b7 0cab 1ab8 51ac 26b8 58c6 c0b6
00000030: 502d fab7 8614 84b7 9120 60b7 5e51 68b8
00000040: a215 69b7 b0e9 28b8 9be7 0d38 c0fc 6838
00000050: 4e45 ee37 4c5f 9838 a01c 9c37 9793 a7b7
00000060: de57 deb7 4f03 d7b7 6988 b936 bc89 2ab8
00000070: 40b8 88b8 d1a5 10b8 1b41 b7b6 6b94 7337
00000080: aed2 26b8 e907 1bb8 7bf0 15b8 42f9 0837
00000090: 37c4 7db8 032e 5038 ec20 95b6 6027 1ab8
4.7143538e-05 9.705456e-06 5.377177e-05 -0.00010092499 -3.2029682e-05 3.4715456e-05 -1.0051943e-05 -1.3844747e-06
-1.726045e-05 -3.687576e-05 -3.9737966e-05 -5.745136e-06 -2.9823423e-05 -1.5745183e-05 -1.3359023e-05 -5.538889e-05
-1.3892919e-05 -4.027196e-05 3.383272e-05 5.5548502e-05 2.8404083e-05 7.265675e-05 1.8609979e-05 -1.9976678e-05
-2.6505379e-05 -2.5631538e-05 5.52931e-06 -4.0659434e-05 -6.5193046e-05 -3.4486704e-05 -5.4614043e-06 1.4518485e-05
-3.9773695e-05 -3.6962247e-05 -3.5748333e-05 8.164267e-06 -6.050264e-05 4.9633916e-05 -4.4443786e-06 -3.6753132e-05

exp_avg_sq f4 [1, 40]
00000000: d4b3 1f36 24e2 d434 4869 0134 0e49 f133
00000010: 50da 9334 a75e 3634 84ee 4035 7de4 9633
00000020: 5ba6 d135 5e60 5d35 6872 a236 dea1 2a35
00000030: 6675 0436 6181 a335 7cf9 2d35 3cbe 4f36
00000040: 16bc 9933 ce12 cb35 1683 8436 47b4 3036
00000050: 6bef 2935 62f3 5e36 3e72 8334 1d0b 1836
00000060: cbf5 e335 810a aa34 a299 5b34 d4d9 7a36
00000070: d44d 6e36 0788 2a35 4bd5 b934 28cc 6735
00000080: ed89 f835 25c0 f534 acf2 5e36 6d00 1c35
00000090: 7898 ed35 784b 6d33 edeb b935 40c7 5a35
2.379752e-06 3.9652616e-07 1.2052362e-07 1.12357256e-07 2.7539727e-07 1.6984505e-07 7.187266e-07 7.026481e-08
1.5620129e-06 8.246915e-07 4.841295e-06 6.356548e-07 1.9737868e-06 1.2182101e-06 6.481057e-07 3.0956135e-06
7.15883e-08 1.5130151e-06 3.949167e-06 2.633098e-06 6.3305805e-07 3.3222245e-06 2.4483774e-07 2.2656234e-06
1.6984353e-06 3.167261e-07 2.0451856e-07 3.7379696e-06 3.5510066e-06 6.352788e-07 3.4614126e-07 8.635129e-07
1.8517582e-06 4.577461e-07 3.3221831e-06 5.811515e-07 1.770225e-06 5.52495e-08 1.3852238e-06 8.1501275e-07

exp_avg f4 [1, 40]
00000000: beb4 bbbd 8a5e ffbb c806 d3bb 9c98 49bd
00000010: 2415 5d3d 78fb 0fbd 3f27 da3d 94f8 51bc
00000020: 9ed0 993c 55de 9f3d 76b0 a33d 50d7 e53d
00000030: dbcc 173d 3758 823d 68d3 0a3c 979e cc3d
00000040: dab9 5e3d 2e9b 9e3d 161a f8bd d4cb eebd
00000050: eafe 7ebd 9cf3 c5bd 8cab dc3c 0ed3 ad3c
00000060: a167 953d 6c9d 193d dac7 3fbd f2da 873d
00000070: d32e cd3d e871 a8bc dc53 093c c621 79bd
00000080: eca2 b23d 5b13 ba3d 3c57 aa3d f777 733d
00000090: 1805 cd3d 4ebc bd3c 69c5 9b3b 7281 973d
-0.09165333 -0.0077932524 -0.0064400174 -0.049217805 0.05397524 -0.03515193 0.10652017 -0.012815613
0.018776234 0.07806078 0.07992642 0.11222708 0.0370606 0.06364482 0.008473255 0.09991186
0.05437646 0.07744442 -0.121143505 -0.11659971 -0.062254824 -0.096656054 0.026937269 0.021218803
0.07295156 0.037503645 -0.046821453 0.066335574 0.10018697 -0.020562127 0.00838181 -0.060823224
0.08722481 0.09085723 0.0831742 0.05944058 0.10010737 0.02316108 0.0047537577 0.073977366

exp_avg_sq f4 [1, 40]
00000000: 923f c23f e5c9 503e e618 503e 7335 123e
00000010: 8267 003f ca67 653e 8ed9 603e bc10 193d
00000020: 7ef9 953d 1c70 b13f e0f2 733f 4c26 d63f
00000030: 5d21 123e bc3f 313f e2d1 ac3c 5f01 d93f
00000040: ed04 2c3f 7677 2a3f 05ed d93f c7ef c13f
00000050: 9837 e73e 2585 ef3f 688a 873c 7418 d03e
00000060: ef78 173f 6e45 813e 3293 da3e 7ec7 7a3f
00000070: b289 fd3f 68d0 303c 2ac6 9b3e 9d33 a03e
00000080: f300 883f 146a 6a3f a33d b23f 9378 453e
00000090: 0c68 dd3f 20f3 ef3e 67cc f83c 1fa2 483f
1.517565 0.20389517 0.20321998 0.14278202 0.5015794 0.22402874 0.2195799 0.037369475
0.073229775 1.3862338 0.9529247 1.6730437 0.1427054 0.69237876 0.021096174 1.6953543
0.67195016 0.6658853 1.7025458 1.5151299 0.45159602 1.8712507 0.01654549 0.40643656
0.59168905 0.25248283 0.42690426 0.9796065 1.9807646 0.010791875 0.30424625 0.31289378
1.062529 0.9156811 1.392506 0.19284277 1.7297378 0.46865177 0.030370904 0.7837238

exp_avg f4 [1, 40]
00000000: 8010 aa3a 4873 c5ba 707d 93ba d6bf 883b
00000010: be03 35ba e2dd 8ab9 edb8 41ba 4070 d4b9
00000020: 4401 15ba be60 60ba a12b c3ba 02e9 f9ba
00000030: 9494 be3a 60ef 14b8 3237 bbb8 f0e4 beba
00000040: af93 cfb9 044a 27ba 8a7f ca3a 485e 5d3a
00000050: 6751 283a 78e1 5b3a 1eef f5b9 8a43 6fba
00000060: 6c2c 71ba d743 35b9 5b7c 423a b0ff aeba
00000070: bc42 92ba 9d54 0e3a 75da b73a 2c2b 213a
00000080: 244e 8aba 1ee1 6fba 625b 8dba a2fd 20ba
00000090: 6ab0 89ba 0606 afba d749 10b9 dc42 2eba
0.0012974888 -0.0015064264 -0.0011252593 0.0041732593 -0.00069051597 -0.00026486727 -0.0007389922 -0.00040519424
-0.00056840875 -0.00085593376 -0.0014890322 -0.0019066634 0.0014540129 -3.5508885e-05 -8.927136e-05 -0.0014564078
-0.0003959215 -0.00063815736 0.0015449387 0.000844453 0.00064208213 0.00083877845 -0.00046908198 -0.00091271906
-0.000920004 -0.00017286777 0.0007419043 -0.0013351347 -0.0011158804 0.00054294785 0.0014026897 0.00061480957
-0.0010551852 -0.00091506715 -0.001078468 -0.000614131 -0.0010504846 -0.0013353236 -0.00013760418 -0.0006647536

exp_avg_sq f4 [1, 40]
00000000: 4b8d 0f3a adc3 7538 50ca 9c38 be36 2c38
00000010: a93e 3239 c5d4 a838 4e25 8838 4fd7 7037
00000020: d66c 3338 3e72 f639 18b3 c139 f468 ff39
00000030: 9f4c 2538 8b32 6139 d8f3 8a37 e332 213a
00000040: ccdc 4739 fa30 7339 62f4 173a e514 0d3a
00000050: 3aa1 2b39 13e1 3a3a 54e2 7b37 d13a 3939
00000060: 9478 5a39 81c8 c038 534d 0a39 8354 bc39
00000070: aceb 3b3a 4e24 5937 c8ea 0f39 6c4c d738
00000080: 417b c039 0fc0 a339 5093 f539 14b7 9e38
00000090: de75 1e3a 7057 b438 c1aa 5937 fc6a 8439
0.00054760714 5.859479e-05 7.476343e-05 4.105898e-05 0.00016998746 8.050496e-05 6.491934e-05 1.4355245e-05
4.2778287e-05 0.00047005893 0.00036945264 0.00048715586 3.9410425e-05 0.00021476501 1.656443e-05 0.00061492453
0.00019060372 0.00023192531 0.0005796609 0.00053818367 0.00016367892 0.00071288756 1.5013462e-05 0.00017664886
0.00020835019 9.19262e-05 0.00013189511 0.0003592112 0.0007168602 1.2942661e-05 0.00013725006 0.000102662336
0.00036712925 0.00031232878 0.00046839798 7.568128e-05 0.0006044785 8.599355e-05 1.2973965e-05 0.00025256712
