lightning_logs/version_2/checkpoints/epoch=95-step=4800.ckpt (torch, 300078 bytes, 33 tensors)

model.param_proj.proj.0.weight f4 [1, 40]
0	0xbe1c9221	-0.15290119
1	0xbd36ac78	-0.044598073
2	0xbf351b5c	-0.7074487
3	0xbe029df6	-0.1275557
4	0x3f5af998	0.855371
5	0xbecd60e3	-0.4011298
6	0x3d1cc523	0.03827394
7	0xbe69c411	-0.228287
8	0xbd8336f4	-0.06406966
9	0x3e98ff5e	0.2988233
10	0x3d02178f	0.03176075
11	0x3ee7d768	0.4528153
12	0x3ec88056	0.39160413
13	0x3d99c003	0.075073265
14	0x3cfb8eed	0.0307078
15	0x3f18b8b6	0.59656847
16	0x3f2f8633	0.68564147
17	0x3e25bfbf	0.16186427
18	0xbf0e68a1	-0.556284
19	0xbeb35911	-0.3502889
20	0xbe497f92	-0.1967757
21	0xbee05394	-0.43813765
22	0x3e080567	0.13283311
23	0x3eb633ef	0.35586497
24	0x3d6f58a3	0.05843414
25	0x3f011a40	0.5043068
26	0xbf01259f	-0.5044803
27	0xbda81bfa	-0.08208461
28	0x3e06bbe3	0.1315761
29	0xbe7d293a	-0.24722758
30	0x3ebf69b8	0.37385345
31	0xbacf3a5a	-0.0015810237
32	0x3e76b6ef	0.24093221
33	0x3f612805	0.8795169
34	0x3f01e755	0.5074361
35	0x3ee1697d	0.44025794
36	0x3ee3173a	0.44353658
37	0x3d1f28a4	0.038857117
38	0x3e9bd2ec	0.30434358
39	0x3f1df6d2	0.6170474

model.param_proj.proj.1.weight f4 [1, 40]
0	0xbe12f916	-0.14352831
1	0xbe0dab48	-0.1383487
2	0x3d15c58a	0.03656534
3	0xbddfc748	-0.10926682
4	0xbd8345a4	-0.06409767
5	0xbe318e35	-0.17339404
6	0x3df92d2c	0.12166819
7	0x3e0dc0be	0.13843057
8	0x3e51b51f	0.20479248
9	0xbdc079ef	-0.09398257
10	0x3d1011a1	0.035173062
11	0x3d568d71	0.052380983
12	0xbd3be2fb	-0.045870762
13	0x3d905209	0.07046897
14	0x3e314f2d	0.1731536
15	0x3d3e8221	0.04651082
16	0xbdbaed33	-0.091272734
17	0x3dbcdd48	0.092218935
18	0x3d4e97fa	0.050437905
19	0xbd71d5d5	-0.059041817
20	0xbe240b44	-0.16019922
21	0xbd6edd19	-0.058316324
22	0x3e08e225	0.13367517
23	0x3bd0a6b7	0.00636753
24	0x3e066fd2	0.13128594
25	0x3da9d950	0.08293402
26	0x3da4a93f	0.08040094
27	0x3d071200	0.03297615
28	0x3e3c335d	0.18378969
29	0x3e0b34ef	0.13594411
30	0xbd2960f7	-0.04135224
31	0x3d07d536	0.03316232
32	0x3db7d616	0.089763805
33	0x3e24ab24	0.1608091
34	0xbe1d30c9	-0.15350641
35	0x3e15c14d	0.1462452
36	0x3d95c9fc	0.07313916
37	0xbe367336	-0.17817387
38	0xbe0587c1	-0.13040067
39	0x3e07bb99	0.13255157

model.param_proj.proj.2.weight f4 [1, 40]
0	0x3d1152a9	0.03547922
1	0x3dc34c70	0.09536064
2	0x3f1a1130	0.60182476
3	0x3dfe257e	0.12409495
4	0xbe19cd60	-0.1501975
5	0x3e0c0f69	0.13677754
6	0x3e6b4b8d	0.22978039
7	0xbe7e7e22	-0.24852803
8	0x3dafe149	0.085878916
9	0xbe003781	-0.12521173
10	0x3c9d9d57	0.019240065
11	0xbec64511	-0.38724568
12	0xbf424a26	-0.7589439
13	0xbeb7bafb	-0.35884842
14	0x3dc247aa	0.09486325
15	0xbe8e5cc6	-0.27805156
16	0xbebfbc42	-0.37448317
17	0xbe128403	-0.14308171
18	0x3e86273a	0.26201802
19	0x3e777999	0.2416748
20	0x3d9faf82	0.07797147
21	0x3e8c801c	0.2744149
22	0xbe414dcf	-0.18877338
23	0xbec39bdd	-0.38204852
24	0xbd57073b	-0.05249713
25	0xbe1d2b8d	-0.15348645
26	0x3e363b1b	0.17795984
27	0xbd43f7d6	-0.047843777
28	0xbe18befd	-0.14916606
29	0x3d736181	0.05941916
30	0xbf5a9c23	-0.85394496
31	0xbd8e7091	-0.06955064
32	0xbe0f9915	-0.1402324
33	0xbe36a7fc	-0.17837518
34	0xbe02790b	-0.12741487
35	0xbe29b135	-0.16571505
36	0xbe4c7fc1	-0.19970609
37	0xbeefa872	-0.468082
38	0xbf0d87f6	-0.55285585
39	0xbe804d46	-0.25058955

model.rnn.weight_ih_l0 f4 [160, 21]
0	0x3e257035	0.16156085
1	0x3bc9f2ed	0.006162992
2	0x3e878092	0.2646528
3	0x3dc66703	0.09687617
4	0x3dba2762	0.09089543
5	0x3dfd029e	0.12354015
6	0xbd0810c8	-0.03321913
7	0xbdfbd9f2	-0.12297429
8	0x3d64689a	0.05576382
9	0x3e210d57	0.15727745
10	0x3d463dba	0.04839871
11	0x3e5b7fed	0.21435519
12	0x3e875f52	0.2643991
13	0x3e0e9282	0.13923076
14	0x3e325ac1	0.17417432
15	0x3e5ccd5c	0.21562713
16	0xbe97f21e	-0.29676908
17	0xb99bd8f6	-0.00029725552
18	0x3e0b81e6	0.13623771
19	0xbf01007f	-0.5039138
20	0x3ddb3862	0.107041135
21	0x3e116f64	0.14202648
22	0x3cfbd163	0.030739492
23	0x3ea28b1f	0.31746766
24	0x3e4bbfdd	0.19897409
25	0x3e1a909a	0.15094224
26	0xbdcf9ec6	-0.101377055
27	0xbdad87fc	-0.084732026
28	0x3dd0cdec	0.101955265
29	0x3de7eef4	0.113248736
30	0x3ea643c4	0.32473576
31	0x3e488695	0.19582589
32	0x3de23199	0.11044616
33	0x3e76c5a3	0.2409883
34	0x3e7555ca	0.23958507
35	0x3cf612fc	0.03003835
36	0xbdb6717d	-0.08908365
37	0xbe4a9dc7	-0.1978675
38	0x39b6b16c	0.00034845935
39	0x3e196297	0.14979015
40	0xbbb7e06a	-0.005611469
41	0x3e311db6	0.1729649
42	0x3e154da6	0.14580402
43	0xbd21decb	-0.039519113
44	0xbe523580	-0.20528221
45	0xbe28cb9a	-0.16483918
46	0x3bfdfd46	0.00775114
47	0xbe1a7a9f	-0.15085839
48	0x3c6d956d	0.014500958
49	0xbe174bbb	-0.14774983
50	0xbe3ef177	-0.18646799
51	0xbe1d4e09	-0.153618
52	0x3c1c135d	0.009526101
53	0x3ea6e97b	0.32600006
54	0x3e859637	0.26091167
55	0xbe0da557	-0.13832603
56	0xbcf8a085	-0.03034998
57	0x3e8eeec3	0.27916536
58	0xbcd0d04e	-0.025489952
59	0xb9187351	-0.00014538808
60	0xbd59cda7	-0.05317464
61	0x3ef8728c	0.48524892
62	0x3cd487b6	0.025943618
63	0x3eb39fb2	0.35082775
64	0x3e894de4	0.26817238
65	0x3e1c38dd	0.15256067
66	0x3de55e8e	0.111996755
67	0x3e893e32	0.26805264
68	0x3e87b90e	0.26508373
69	0xbab80aab	-0.0014041265
70	0x3d149bd5	0.036281426
71	0x3ccaf440	0.02477467
72	0x3bf7d17e	0.007562815
73	0x3e8bbe73	0.2729374
74	0x3ea58f1f	0.32335755
75	0x3ed85b6e	0.42257255
76	0xbbce5e88	-0.00629789
77	0x3e61d641	0.22054388
78	0x3e0321f2	0.12805918
79	0xbe3e38d4	-0.18576366
80	0x385a1c98	5.200188e-05
81	0x3e63e63f	0.222558
82	0xbec7486d	-0.38922444
83	0x3d306b7b	0.04307125
84	0x3da0cab6	0.07851164
85	0x3ea39781	0.31951526
86	0x3e3573d9	0.17719974
87	0x3e690268	0.22754824
88	0x3e3d1040	0.1846323
89	0x3e1d7eb6	0.15380368
90	0x3ddd37ba	0.108016446
91	0xbd7b063a	-0.061285235
92	0x3b978264	0.004623698
93	0x3ddb5fe6	0.107116506
94	0x3d0d086d	0.034431864
95	0xbda0bf88	-0.07849032
96	0x3da12e3a	0.07870145
97	0x3dd54997	0.10414427
98	0xbdccf6f2	-0.100080386
99	0xbb556bdc	-0.003256551
100	0xbe745294	-0.23859626
101	0x3aacb32e	0.0013175958
102	0x3e9069e0	0.28205776
103	0xbef12849	-0.47101048
104	0xbc094d62	-0.008380266
105	0x3e4e77da	0.20162907
106	0x3e449837	0.1919869
107	0x3d48e076	0.049042188
108	0x3d1af812	0.037834235
109	0x3e6ecdfd	0.23320766
110	0xbe180405	-0.14845283
111	0x3e4b14a5	0.19832094
112	0x3ce1a1f2	0.027543042
113	0x3e8d861d	0.27641383
114	0x3ca1607d	0.01969933
115	0x3d42469c	0.04743062
116	0x3e379653	0.17928438
117	0xbc09ae3a	-0.008403355
118	0x3ea4f793	0.32220134
119	0x3ef77ff7	0.48339817
120	0x3ec5d828	0.38641477
121	0xbda9c5ef	-0.08289706
122	0xb903a959	-0.0001255622
123	0x3e7f9cb4	0.24962121
124	0x3d43a573	0.047765207
125	0xbd7c2d38	-0.06156656
126	0x3ef062e7	0.46950457
127	0x3ea8996a	0.32929546
128	0x3eceb684	0.40373623
129	0x3e5bb456	0.21455511
130	0x3f00158c	0.5003288
131	0x3ea30739	0.31841448
132	0x3ea6c000	0.3256836
133	0x3d93a682	0.07209493
134	0xbcb39481	-0.021921398
135	0x3d4547d0	0.04816419
136	0xbd1b9d33	-0.037991714
137	0x3dfb93c6	0.12284045
138	0x3e2d7afb	0.16941445
139	0x3de19c1d	0.11016104
140	0x3df3d8c8	0.11906582
141	0x3d3ffe44	0.046873346
142	0xbecf7aa4	-0.40523255
143	0xbaa13969	-0.0012300435
144	0x3d7e4d45	0.06208541
145	0xbf2e5911	-0.68104655
146	0x3ecef4ba	0.40421087
147	0x3d3de95b	0.046365123
148	0xbda7ca2b	-0.08192857
149	0xbe080173	-0.13281803
150	0xbc05e630	-0.008172557
151	0x3e3a14b5	0.18171962
152	0x3d966c8a	0.07344921
153	0xbe03ecc9	-0.12883295
154	0xbe365839	-0.17807092
155	0xbd7f34f2	-0.062306352
156	0xbe2c526f	-0.16828321
157	0x3cdd833f	0.027040122
158	0xbcbf9aa6	-0.023389172
159	0xbdfbc6bd	-0.12293766
160	0xbe6ec6ce	-0.23318025
161	0xbd90518a	-0.07046802
162	0xbdf466c4	-0.119336635
163	0x3dc3a695	0.095532574
164	0xbabefd65	-0.0014571367
165	0xbde2a902	-0.11067392
166	0xbeedc80d	-0.4644169
167	0x3e17bcd8	0.14818132
168	0x3ef0cdd7	0.47032043
169	0x3e4ce4a9	0.20009102
170	0x3e9325bb	0.28739724
171	0x3e57951e	0.21052977
172	0x3c9eb924	0.019375391
173	0xbcfadf88	-0.030624166
174	0x3d8fb485	0.07016853
175	0xbc3d1274	-0.011540044
176	0x3d03f1bf	0.03221297
177	0xbdff45d8	-0.124644935
178	0x3bb3e536	0.0054899706
179	0xbd7a8e6f	-0.06117099
180	0x3e289dc5	0.16466434
181	0x3dc56357	0.09638088
182	0x3cceea3d	0.025258178
183	0x3e6b5e1a	0.22985116
184	0xbe59e41a	-0.2127842
185	0x3a93def5	0.0011281656
186	0xbd9688ec	-0.073503345
187	0x3e3a644e	0.18202326
188	0xbce71417	-0.028207822
189	0x3e8d4d1e	0.27597898
190	0x3e9982a3	0.2998248
191	0x3dc8d6f9	0.09806628
192	0x3e168630	0.14699626
193	0x3e885249	0.2662528
194	0x3e36c1fc	0.17847437
195	0x3e85a6e4	0.2610389
196	0x3e79076e	0.2431924
197	0x3e32fbd0	0.17478871
198	0x3e7e80e0	0.2485385
199	0x3d3c135a	0.045916893
200	0x3d5cbeb7	0.053892817
201	0x3d4111a3	0.04713596
202	0x3e95a6bc	0.2922877
203	0x3d644fb7	0.055740084
204	0x3e2302ad	0.1591899
205	0xbed42381	-0.41433337
206	0xb9d9188b	-0.0004140775
207	0x3e8db214	0.27674925
208	0x3d80d4df	0.06290602
209	0x3e7f3dd9	0.24925937
210	0x3dc07e53	0.093990944
211	0x3dfdb98c	0.12388906
212	0x3e0ced28	0.13762343
213	0xbda6a27b	-0.081364594
214	0x3be64e9e	0.007028415
215	0x39e4074a	0.0004349298
216	0xbdd13c2c	-0.10216555
217	0xbc99d5f0	-0.018778771
218	0xbd9e0c09	-0.07717139
219	0xbdee350d	-0.116312124
220	0xbeac04d3	-0.3359743
221	0xbe74f9b2	-0.23923376
222	0xbe8edfb9	-0.27905062
223	0xbd458e33	-0.048231315
224	0x3b2d0433	0.0026400208
225	0xbd1f413d	-0.038880575
226	0xbe03103e	-0.12799165
227	0x39887b19	0.00026031656
228	0xbe0d1112	-0.13776043
229	0xbded9b72	-0.116019145
230	0x3dd13573	0.10215273
231	0xbce59a32	-0.028027628
232	0x3e516d3a	0.20451823
233	0x3e30b78a	0.17257515
234	0x3dc09975	0.094042696
235	0x3e2d7e14	0.16942626
236	0x3d98070a	0.074232176
237	0x3c879dee	0.016554799
238	0xbe13497f	-0.14383505
239	0x3be9bbb7	0.007132973
240	0x3cb37c72	0.021909926
241	0xbde11806	-0.1099091
242	0xbbdc9b70	-0.006732397
243	0xbddb74f0	-0.107156634
244	0x3caca407	0.021074308
245	0x3e05299e	0.13004157
246	0xbd998df1	-0.07497776
247	0xbd03c3ce	-0.032169156
248	0x3a2ba140	0.00065471604
249	0x3e4907f4	0.1963194
250	0xbeea0827	-0.45709345
251	0x3d1cc212	0.038271017
252	0x3e75b956	0.23996481
253	0x3e4aa3b3	0.19789009
254	0x3d5c408e	0.0537725
255	0x3ec22572	0.37919194

model.rnn.weight_hh_l0 f4 [160, 40]
0	0x3d857a02	0.06517412
1	0xbdc6af4a	-0.097014025
2	0xbd4e1ce2	-0.050320514
3	0x3d68e5db	0.056859832
4	0x3dc0041c	0.09375784
5	0xbda28b67	-0.07936745
6	0xbb78202c	-0.0037860973
7	0x3d362a4b	0.044473927
8	0x3e0101aa	0.12598291
9	0xbdd8c089	-0.10583598
10	0x3c70bc9c	0.0146934055
11	0x3d3cccb1	0.046093646
12	0xbe15ae1b	-0.14617197
13	0xbdcb7a2e	-0.09935413
14	0x3cb14c9e	0.02164298
15	0x3d6385a8	0.055547386
16	0x3e2af934	0.16696626
17	0x3df039a0	0.11729741
18	0x3d95a81f	0.07307457
19	0x3d2a8fc7	0.041641023
20	0xbd4f3768	-0.05058995
21	0x3e527f97	0.20556484
22	0x3e2eeadd	0.1708178
23	0x3cb06498	0.021532342
24	0xbd86732c	-0.06564936
25	0x3e30e25a	0.17273846
26	0xbe155611	-0.14583613
27	0xbdbe11a4	-0.092807084
28	0x3cdb8a06	0.026799213
29	0xbda49070	-0.08035362
30	0x3d82794b	0.06370791
31	0xbdd3714b	-0.10324343
32	0xbe79a5dc	-0.24379677
33	0x3c9ff7fd	0.01952743
34	0x3d6dd864	0.058067694
35	0xbdfdc1a3	-0.12390449
36	0xbd039b5f	-0.032130595
37	0xbdb30f02	-0.08743097
38	0xbe861c0b	-0.2619327
39	0x3e847af0	0.25875044
40	0xbea9af33	-0.3314148
41	0xbe2abc15	-0.1667331
42	0x3ce6308b	0.028099319
43	0x3e892e2a	0.26793033
44	0x3d87dddc	0.06634113
45	0x3cc0c5c5	0.023531804
46	0x3d9b74a1	0.075906046
47	0x3ed0767a	0.4071539
48	0xbe23ffc9	-0.16015543
49	0x3e914cf1	0.28379014
50	0xbdb4772c	-0.08811793
51	0x3abf58ab	0.0014598569
52	0x3ea6206a	0.32446605
53	0xbe8b3971	-0.27192262
54	0xbe7eb887	-0.24875079
55	0xbe030dcf	-0.12798236
56	0xbe36990e	-0.17831823
57	0xbe5beaa7	-0.21476232
58	0xbe4f7dbc	-0.20262808
59	0x3e29bdb6	0.16576275
60	0x3e6da4b7	0.23207365
61	0x3be0272f	0.0068406085
62	0x3ebfc165	0.37452236
63	0xbd40b4e8	-0.047047526
64	0x3e4f5bea	0.20249906
65	0x3e026442	0.12733558
66	0xbb882397	-0.0041546333
67	0xbe1eef91	-0.15521075
68	0xbe8eeed6	-0.27916592
69	0x3e4c0a91	0.19925906
70	0xbe8a5c0b	-0.27023348
71	0xbc9a781a	-0.018856097
72	0x3d498345	0.049197454
73	0xbd524d5f	-0.051343318
74	0xbe98f0ea	-0.29871303
75	0x3e4b8959	0.19876613
76	0xbe3c3c44	-0.18382365
77	0xbe20716a	-0.15668264
78	0xbdf79891	-0.120896466
79	0x3e48e4e1	0.1961856
80	0x3d1dc795	0.038520414
81	0xbe37527e	-0.17902562
82	0xbb98a8ca	-0.004658793
83	0x3d755c15	0.05990227
84	0xbd0f43f5	-0.03497692
85	0xbe8a9f86	-0.27074832
86	0x3d32841c	0.04358302
87	0xbcbb3248	-0.022851124
88	0xbe0cfa2a	-0.13767305
89	0xbe898f50	-0.2686715
90	0x3e3f977f	0.18710135
91	0x3db99fca	0.090636805
92	0x3d2a0fd7	0.041519012
93	0xbe37e09d	-0.17956777
94	0xbeaa209d	-0.33228007
95	0x3d905fa4	0.07049492
96	0xbe05c5b9	-0.13063706
97	0xbcdd66ff	-0.027026651
98	0xbe59f7b3	-0.21285896
99	0x3e310a01	0.17288972
100	0x3e4ae4b0	0.198138
101	0x3e4b76ef	0.19869588
102	0x3e189c65	0.1490341
103	0x3eaf0381	0.3418236
104	0x3e0decaf	0.13859819
105	0x3d527462	0.051380523
106	0xbe6a2538	-0.2286576
107	0x3ede4b2b	0.43416724
108	0xbdd3c103	-0.103395484
109	0xbe8ac8fb	-0.2710646
110	0xbe8360e7	-0.25659868
111	0x3d6025b0	0.05472344
112	0x3d4f6a10	0.05063826
113	0xbe76714f	-0.24066661
114	0xbdd35646	-0.1031919
115	0x3dd413df	0.103553526
116	0xbe1f3247	-0.15546523
117	0x3c2bf851	0.010496215
118	0xbed39c2b	-0.41330084
119	0x3dd01b41	0.10161448
120	0xbe659b62	-0.22422555
121	0xbe4e694a	-0.20157352
122	0x3dc8507b	0.097809754
123	0x3d85bec7	0.065305285
124	0xbd1dd7e4	-0.038535967
125	0xbdb6ffa2	-0.08935477
126	0x3e4277dc	0.18991035
127	0xbd89a536	-0.067209646
128	0xbe61c138	-0.22046363
129	0x3e9299dc	0.2863301
130	0x3d57128b	0.05250792
131	0x3dbc8ea5	0.09206895
132	0x3e7b9b35	0.24570926
133	0x3d64711e	0.05577194
134	0xbe366734	-0.17812806
135	0xbe0bb842	-0.13644508
136	0x3d150f85	0.036391754
137	0x3cd48f4f	0.025947241
138	0xbdb58daf	-0.088649146
139	0x3e40aa83	0.18815045
140	0x3da17a9c	0.07884714
141	0xbba3c3d3	-0.0049977093
142	0x3c91bf24	0.017791338
143	0x3defecf2	0.117151156
144	0x3e37b168	0.17938769
145	0xbdc3ff31	-0.09570158
146	0xbdab2e58	-0.08358449
147	0x3e0fc5f0	0.14040351
148	0xbe571c09	-0.21006788
149	0xbefdfb68	-0.4960587
150	0xbe29009d	-0.1650414
151	0x3e48e85c	0.19619888
152	0x3d82099a	0.063494876
153	0xbd5b9092	-0.05360467
154	0xbd8d5047	-0.06900077
155	0xbe217507	-0.15767299
156	0x3daf86be	0.08570622
157	0x3d53653f	0.051610228
158	0x3e850240	0.2597828
159	0xbe0aa2b4	-0.13538629
160	0x3df272de	0.118383154
161	0x3da5bfa3	0.080931924
162	0xbd1ad638	-0.03780195
163	0x3e1853c4	0.14875704
164	0x3c091067	0.008365727
165	0xbd95d3b4	-0.0731577
166	0xbbf541c2	-0.0074846456
167	0x3dc84dd4	0.097804695
168	0xbdeab28d	-0.11459837
169	0x3e7297c3	0.23690705
170	0xbd880275	-0.06641094
171	0x3d198c8f	0.037487563
172	0x3c02326f	0.007946595
173	0x3d542491	0.051792685
174	0xbde99144	-0.1140466
175	0x3e4af644	0.19820505
176	0xbd0fc8a3	-0.03510345
177	0xbdb784b1	-0.08960856
178	0xbc5f44d9	-0.013627254
179	0xbd446f6e	-0.04795783
180	0xbcf9c7d9	-0.030490803
181	0x3d3ee0db	0.046601158
182	0x3e36b3b6	0.17841992
183	0x3e24b236	0.16083607
184	0x3d9c4a7b	0.076313935
185	0xbd9ed275	-0.07754985
186	0xbe2291f1	-0.15875985
187	0xbe008a63	-0.1255279
188	0xbe408a3b	-0.1880273
189	0x3d2f940f	0.04286581
190	0x3dd71f06	0.10503964
191	0x3d39b24d	0.045336057
192	0x3e2ab3cb	0.16670148
193	0x3ddee66a	0.10883792
194	0xbd1d09b3	-0.038339328
195	0x3e3541d6	0.17700896
196	0xbe3b5304	-0.18293387
197	0xbe09e905	-0.13467796
198	0x3b8b219c	0.00424595
199	0xbd95ef43	-0.07321026
200	0x3d7444bc	0.059635863
201	0xbe828432	-0.25491482
202	0xbd28245a	-0.041050293
203	0x3bf4abfa	0.0074667903
204	0xba73c13e	-0.00092985097
205	0xbd604829	-0.054756317
206	0x3d0a79a7	0.033807423
207	0xbd490018	-0.049072355
208	0xbdb57db8	-0.088618696
209	0xbed11b3f	-0.408411
210	0xbdd24bb5	-0.10268346
211	0xbda72525	-0.08161382
212	0x3e805eda	0.25072366
213	0xbd1d44d9	-0.038395736
214	0xbde0b4e6	-0.10972004
215	0x3d12da51	0.035852734
216	0xbd283d48	-0.041074067
217	0x3de872a2	0.113499895
218	0xbd647602	-0.055776604
219	0xbda4eff2	-0.080535784
220	0x3b9571d5	0.004560689
221	0xbd369246	-0.04457309
222	0x3e37ee78	0.17962062
223	0x3ef0132a	0.4688962
224	0x3ca88c61	0.02057475
225	0xbd36ce50	-0.04463035
226	0xbeb379ea	-0.3505395
227	0x3e7c098c	0.24613017
228	0x3df751e5	0.12076167
229	0xbe6fe5fe	-0.23427579
230	0x3d979596	0.07401578
231	0x3d631da6	0.055448197
232	0xbd92998e	-0.071581945
233	0x3d78954f	0.060689267
234	0xbc03d586	-0.008046513
235	0x3d35bdbe	0.044370405
236	0xbd87b508	-0.06626326
237	0xbede5494	-0.43423903
238	0xbeb20a5a	-0.34773523
239	0xbea51173	-0.32239875
240	0x3d408609	0.047002826
241	0x3eb72277	0.35768482
242	0xbe41c911	-0.18924357
243	0xbbbf1ba0	-0.0058321506
244	0xbc26c9ac	-0.010179918
245	0x3dbcf78e	0.09226905
246	0xbdd9a48b	-0.10627087
247	0x3cf30bf3	0.029668784
248	0x3cbb3ff6	0.022857647
249	0x3ec809ac	0.3906988
250	0xbd7e9b5a	-0.062159874
251	0xbd9624be	-0.07331227
252	0x3c8f0827	0.017459942
253	0xbe3ed617	-0.18636356
254	0x3d5887a0	0.052863717
255	0x3e117398	0.14204252

model.rnn.bias_ih_l0 f4 [160]
0	0x3d0cbd90	0.03436047
1	0x3ee3c78b	0.44488177
2	0xbdd5ec8e	-0.1044551
3	0x3eaf63de	0.3425588
4	0x3dcdce0f	0.10049068
5	0x3e1aec84	0.15129286
6	0x3e4389c6	0.19095525
7	0xbcf82c56	-0.030294579
8	0x3ddbd9c3	0.10734894
9	0x3ef0121b	0.46888813
10	0x3d9c1e9c	0.07623026
11	0xbdc779c9	-0.097400256
12	0x3e5d72b4	0.21625787
13	0x3ea643cf	0.3247361
14	0x3e420157	0.18945824
15	0xbd3db368	-0.046313673
16	0x3e1167c9	0.14199747
17	0x3de7d0e9	0.11319143
18	0xbd92843a	-0.071541265
19	0x3e97ef62	0.29674822
20	0x3e8b8638	0.27250838
21	0x3f087498	0.5330291
22	0x3eccf19e	0.4002809
23	0x3d6fa60c	0.058507964
24	0x3e85b5bf	0.26115224
25	0x3dc42fcc	0.09579429
26	0x3d8469a4	0.06465462
27	0x3e62a865	0.2213455
28	0x3dbe75d7	0.0929982
29	0x3e8bda08	0.27314782
30	0x3e126321	0.14295627
31	0x3e3bb164	0.18329388
32	0x3e43afab	0.19109981
33	0xbcea2776	-0.02858327
34	0x3e795ee8	0.2435261
35	0x3e5cba0a	0.21555343
36	0x3e805a94	0.25069106
37	0x3dfcd194	0.12344661
38	0x3dc07982	0.09398176
39	0x3da86904	0.08223155
40	0xbd19fb4a	-0.037593164
41	0x3e0c25ed	0.13686343
42	0x3e1ba6ab	0.15200298
43	0xbdccb282	-0.09994985
44	0x3d4f9b02	0.050684936
45	0xbd3be64f	-0.045873936
46	0x3e540c63	0.2070785
47	0xbcb12f47	-0.021628989
48	0xbd32013f	-0.04345822
49	0xbd225061	-0.039627437
50	0x3dec24cf	0.11530458
51	0xbd312441	-0.043247465
52	0x3e1bd28c	0.15217036
53	0x3e484712	0.19558361
54	0x3dba6646	0.09101538
55	0x3e363400	0.17793274
56	0xbdf4f290	-0.119603276
57	0x3d0659ea	0.032800592
58	0x3e294a13	0.16532163
59	0x3e045ef1	0.12926842
60	0x3cdae404	0.026720054
61	0xbda6790e	-0.08128558
62	0xbddfcb8d	-0.10927496
63	0xbd1423da	-0.036167003
64	0x3e7f57e5	0.24935873
65	0xbd7965e6	-0.060888194
66	0xbd9d8112	-0.07690634
67	0x3d683f8c	0.056701228
68	0xbb6506a9	-0.0034946597
69	0x3cd5f633	0.026118373
70	0x3d5e70c3	0.054306757
71	0xbd55319d	-0.052049268
72	0xbdd4812d	-0.10376201
73	0xbe0f9380	-0.1402111
74	0x3ddcae0d	0.10775385
75	0x3e4cff29	0.20019211
76	0xbd6062ce	-0.054781727
77	0x3e18ae74	0.14910299
78	0x3da9334e	0.08261739
79	0xbdfcbffa	-0.12341304
80	0xbe008c37	-0.12553488
81	0x3e632613	0.22182493
82	0xbe3bfa72	-0.18357256
83	0x3e3340e7	0.17505227
84	0xbbc42b3d	-0.0059865997
85	0x3ddf7f8d	0.10913
86	0x3e207e0c	0.15673083
87	0x3b130599	0.0022433756
88	0xbe22bf28	-0.15893233
89	0x3df7d962	0.12102009
90	0x3d64a88c	0.0558248
91	0xbd9f8f91	-0.07791055
92	0x3e3ea2b4	0.18616754
93	0xbe57f2c2	-0.21088699
94	0xbe12c6bb	-0.14333622
95	0x3da5ceb1	0.08096064
96	0xbe0bb1b5	-0.13642009
97	0xbe67d818	-0.22641027
98	0xbd600067	-0.054687884
99	0x3d14628d	0.036226798
100	0x3df2ef51	0.11862052
101	0x3dfbde00	0.122982025
102	0x3e9f128c	0.31068838
103	0x3e48a62e	0.19594643
104	0xbc55f9f6	-0.013060084
105	0xbda0aaa4	-0.07845047
106	0x3d9eacb5	0.07747785
107	0xbd4fe056	-0.050751053
108	0x3cad8f48	0.021186486
109	0x3df4be05	0.11950306
110	0xbd3144c2	-0.043278463
111	0x3dfe8eee	0.124296054
112	0xbd153d03	-0.03643514
113	0xbe8bbf65	-0.2729446
114	0xbdaa36ef	-0.08311259
115	0x3d959dcc	0.07305488
116	0xbd6b29a4	-0.05741276
117	0xbd5ed09f	-0.054398175
118	0xbc8eef5d	-0.017448122
119	0x3e2e31db	0.17011206
120	0x3e3c5e09	0.18395247
121	0x3dc39100	0.09549141
122	0x3a0ca2b0	0.00053648185
123	0xbc19c35a	-0.009384954
124	0x3e0877ec	0.13326997
125	0xbd079e79	-0.033110116
126	0x3d236948	0.039895326
127	0x3db5a135	0.088686384
128	0x3e4b99a0	0.19882822
129	0x3ede0d7c	0.43369663
130	0xbdb72ce7	-0.08944111
131	0xbafd21a5	-0.0019312395
132	0x3dba06b5	0.090833105
133	0x3d8b27e8	0.06794721
134	0xba3557e7	-0.00069177005
135	0x3e2af623	0.16695456
136	0x3da569e4	0.08076838
137	0x3e451bff	0.19248961
138	0x3dd2e527	0.102976136
139	0x3e3e3f3b	0.18578808
140	0x3e1ae92c	0.1512801
141	0xbd1d1971	-0.03835434
142	0x3d94f826	0.07273893
143	0x3e61bcd1	0.22044684
144	0x3d32b1d1	0.04362661
145	0x3e663f42	0.22485068
146	0xbc829f58	-0.015945122
147	0x3e0f3977	0.13986765
148	0x3c281d34	0.010260869
149	0x3dd4be58	0.10387868
150	0xbd32aa58	-0.043619484
151	0xbdb2d71e	-0.087324366
152	0xbcd4ca5a	-0.025975395
153	0x3e24e404	0.16102606
154	0x3e2beae2	0.1678882
155	0x3e47b3db	0.19502203
156	0x3c87560d	0.016520524
157	0x3e293974	0.16525823
158	0xbc8e2d91	-0.017355712
159	0x3e362dff	0.17790984

model.rnn.bias_hh_l0 f4 [160]
0	0x3d99678c	0.07490453
1	0x3e48ba28	0.19602263
2	0xbd905aa5	-0.07048539
3	0x3e876f4e	0.26452106
4	0x3d6baf76	0.05754038
5	0x3e79a071	0.2437761
6	0x3e525207	0.20539103
7	0xbe2036e9	-0.15645947
8	0x3d852b48	0.06502396
9	0x3efb86c0	0.49126244
10	0xbde3f252	-0.11130203
11	0x3b2e972f	0.0026640405
12	0x3d766b43	0.060160886
13	0x3deea287	0.116520934
14	0x3eb4a34e	0.35280842
15	0xbc5f6ad8	-0.013636313
16	0x3ec236ac	0.37932336
17	0x3e0ff519	0.14058341
18	0xbd854cb7	-0.06508773
19	0x3ec4c3b0	0.38430548
20	0x3ecf834f	0.40529868
21	0x3ecafabb	0.39644417
22	0x3e8e188f	0.27753112
23	0x3e7643c5	0.2404929
24	0x3e4c92cd	0.19977875
25	0x3e95951d	0.29215327
26	0x3d929b00	0.0715847
27	0x3cfca7f7	0.03084181
28	0x3d858cb0	0.06520975
29	0x3d659a16	0.05605515
30	0x3e6788e7	0.22610818
31	0x3e9b4591	0.30326512
32	0x3e1e6e90	0.15471864
33	0x3e64447a	0.22291747
34	0x3e86bbb2	0.26315075
35	0x3ec4f306	0.38466662
36	0x3e9b44c1	0.30325893
37	0xbd8fd228	-0.07022506
38	0x3e79002d	0.24316473
39	0x3d2723ce	0.04080563
40	0x3d927a95	0.07152287
41	0x3dfdeb8f	0.12398445
42	0xbc9441b2	-0.018097732
43	0xbe12c730	-0.14333797
44	0x3d1bb68d	0.03801589
45	0xbd728ccd	-0.05921631
46	0x3e4e28e3	0.20132785
47	0xbd914ae2	-0.07094361
48	0x3e451a47	0.19248305
49	0xbd7c3bbd	-0.06158041
50	0x3e296c70	0.16545272
51	0xbd6df01f	-0.058090325
52	0x3d931874	0.071823984
53	0xbc6da54c	-0.014504742
54	0x3dd6d0a8	0.10489017
55	0x3e0f9efe	0.14025494
56	0xbc161aab	-0.009161632
57	0x39db867c	0.00041871134
58	0x3d4bf49d	0.04979383
59	0xbd044343	-0.03229071
60	0xbd31f3d3	-0.04344542
61	0x3c668813	0.014070529
62	0xbceaaf91	-0.02864817
63	0x3dca990e	0.09892474
64	0x3e003ca9	0.1252314
65	0x3db25246	0.08707099
66	0x3e15dd94	0.14635307
67	0xbe31781b	-0.17330973
68	0x3dc9a804	0.098464996
69	0xbd6f2a27	-0.05838981
70	0xbd5e4f3d	-0.054274786
71	0xbd14b419	-0.036304567
72	0xbcedcb7a	-0.02902769
73	0x3de33cb9	0.11095566
74	0xbd1f83b9	-0.03894398
75	0x3d19b680	0.03752756
76	0x3bccc9ed	0.0062496574
77	0x3e13c55e	0.14430758
78	0x3d3ab28e	0.04558044
79	0xbd8beb1e	-0.068319544
80	0xbd3307de	-0.043708675
81	0x3e0aa05e	0.13537738
82	0xbd67d004	-0.056594864
83	0x3dfb3cdd	0.12267468
84	0xbcbe9cb7	-0.023268087
85	0xbd101643	-0.03517748
86	0x3e6b370f	0.22970222
87	0x3e21023d	0.1572351
88	0x3db287b6	0.08717291
89	0xbdfa1a21	-0.12212015
90	0xbd75ff4b	-0.06005792
91	0xbdccb8cb	-0.09996184
92	0x3e340b5a	0.17582455
93	0xbe488f3a	-0.19585887
94	0xbc7c5dcc	-0.015403222
95	0x3de92af9	0.113851495
96	0xbe18013a	-0.14844218
97	0xbe09e6ed	-0.13466997
98	0xbe0ae09d	-0.13562246
99	0x3e180b77	0.14848123
100	0x3b542258	0.0032369103
101	0x3e0eb088	0.13934529
102	0x3e616745	0.2201205
103	0xbabc3010	-0.0014357585
104	0x3dad3465	0.08457259
105	0x3e334342	0.17506126
106	0xbda3fe9a	-0.08007546
107	0x3e0fe853	0.14053468
108	0xbdf5c379	-0.12000174
109	0xbdfe1a84	-0.12407401
110	0xbdcf91af	-0.10135209
111	0x3d8a32a9	0.06747944
112	0x3e25edb9	0.16203965
113	0xbd9289f5	-0.071552195
114	0xbd573237	-0.052538123
115	0x3d001544	0.03127028
116	0xbe0a7125	-0.13519724
117	0xbdc1200b	-0.0942994
118	0xbe040921	-0.12894107
119	0x3e2e785e	0.17038104
120	0x3db2d58e	0.087321386
121	0xbb385e0d	-0.002813223
122	0x3db68d52	0.089136735
123	0x3d57644f	0.052585896
124	0x3be5f561	0.007017777
125	0xbd2f92f2	-0.042864747
126	0x3e1a9701	0.15096666
127	0x3dc749c6	0.09730868
128	0x3e83ddf0	0.25755262
129	0x3eab80c4	0.33496678
130	0xbdfc2762	-0.12312199
131	0xbd6b7a71	-0.057489816
132	0x3e1781eb	0.14795654
133	0x3e3c481c	0.18386883
134	0x3d984d52	0.07436623
135	0x3e2d5818	0.16928136
136	0xbc86298e	-0.016377237
137	0xbcd02969	-0.02541037
138	0x3de0e06f	0.10980307
139	0x3e024aab	0.12723796
140	0x3c94616f	0.018112866
141	0xbd692782	-0.056922443
142	0x3da4ea38	0.08052486
143	0x3eb52ed3	0.35387287
144	0x3e8786d5	0.26470056
145	0x3ebf0d5a	0.37314874
146	0x3e10bd61	0.14134742
147	0x3d2ebd0f	0.04266077
148	0xbdc323b9	-0.09528298
149	0x3daaf6d1	0.08347858
150	0xbcd6c135	-0.026215175
151	0x3da87bd1	0.08226741
152	0x3e307581	0.17232324
153	0x3da42168	0.08014184
154	0x3dcdf82c	0.10057101
155	0x3df2266b	0.11823734
156	0x3a4fe41a	0.0007930413
157	0x3e845e36	0.25853127
158	0xbc99e1e7	-0.018784476
159	0x3e6e9f4c	0.23302954

model.rnn.weight_ih_l1 f4 [160, 40]
0	0xbe90c7d7	-0.28277466
1	0xbea3c287	-0.3198435
2	0x3de48402	0.11157991
3	0x3bf84333	0.00757637
4	0x3e6003c4	0.21876436
5	0x3c476c50	0.01217182
6	0xbdde5035	-0.10855142
7	0x3e9d84dc	0.30765426
8	0x3de21413	0.11038985
9	0xbf3cd44b	-0.73761433
10	0x3e0092c9	0.12555994
11	0xbb5853a2	-0.0033008833
12	0xbd90c5ec	-0.070690006
13	0x3d954685	0.07288841
14	0x3dda07bb	0.10646006
15	0x3d8b030f	0.06787693
16	0x3e9e4c33	0.3091751
17	0x3ac76760	0.0015213303
18	0xbcecd63d	-0.02891075
19	0x3eb8ada1	0.36069968
20	0x3dd68f79	0.10476584
21	0xbd90a615	-0.07062928
22	0x3e6f224f	0.23352931
23	0x3eb666cd	0.35625306
24	0x3d112330	0.035433948
25	0x3e0e3418	0.1388706
26	0x3e9993c8	0.2999556
27	0xbf01e714	-0.5074322
28	0xbdd64209	-0.10461814
29	0xbf7d4bcb	-0.98943776
30	0xbf41ef35	-0.75755626
31	0x3ec22d4a	0.37925178
32	0x3ea00b9d	0.3125886
33	0xbe21479a	-0.1574997
34	0xbe332667	-0.17495118
35	0xbe07fe3c	-0.13280576
36	0xbe62a74c	-0.22134131
37	0xbf1f0a46	-0.6212505
38	0xbe3dcff9	-0.18536367
39	0x3e0971db	0.13422339
40	0xbe83201b	-0.25610432
41	0x3e8339b2	0.25629956
42	0xbe3cc631	-0.18434979
43	0x3e04cd78	0.12969005
44	0x3dee9f69	0.11651499
45	0x3e211981	0.15732385
46	0x3d5422f0	0.05179113
47	0x3e686091	0.22693087
48	0xbde5a0fd	-0.11212347
49	0x3ddac0a6	0.10681276
50	0xbe91ac87	-0.2845194
51	0x3eb6f244	0.3573171
52	0x3e8896cb	0.26677546
53	0xbd96d081	-0.07363988
54	0xbe1952df	-0.14973019
55	0xbe952dec	-0.29136598
56	0xbe80e226	-0.25172538
57	0xbe8d4986	-0.27595156
58	0xbe32c48e	-0.17457792
59	0x3e3f2ad0	0.18668675
60	0x3e4a6efd	0.19768901
61	0x3e7fcac8	0.24979699
62	0x3eac24a2	0.336217
63	0x3e8b7263	0.27235708
64	0x3daed661	0.08536983
65	0x3e8b802e	0.2724623
66	0xbe8da703	-0.27666482
67	0xbe7ed941	-0.24887563
68	0xbeb889e6	-0.36042708
69	0xbecc32dd	-0.39882556
70	0xbde5e6ca	-0.1122566
71	0xbe045bae	-0.12925598
72	0x3e467020	0.1937871
73	0xbeb46434	-0.352327
74	0xbeabf781	-0.33587268
75	0x3d1cb040	0.038254023
76	0xbe616a6a	-0.2201325
77	0xbef2257c	-0.47294223
78	0xbe95f366	-0.2928726
79	0x3f45cf11	0.77269083
80	0xbe9a1cdc	-0.30100143
81	0x3e985cae	0.2975821
82	0xbe2c11b5	-0.1680363
83	0x3e8709a7	0.26374552
84	0x3e4050da	0.18780842
85	0xbde6d824	-0.11271694
86	0x3e5709c3	0.20999818
87	0x3e6447da	0.22293034
88	0xbe527c2d	-0.20555182
89	0x3da497ab	0.08036741
90	0xbdef863c	-0.11695525
91	0xbcd94c7d	-0.02652573
92	0x3e7c3f2f	0.24633478
93	0xbe8873f9	-0.2665098
94	0xbe885e57	-0.26634476
95	0x3c822fb8	0.015891895
96	0xbe3db1f1	-0.1852491
97	0xbe43c3bc	-0.19117635
98	0x38058a14	3.1838266e-05
99	0x3dddc358	0.108282745
100	0x3df79c11	0.12090314
101	0x3df3b67b	0.1190004
102	0x3e83fff9	0.2578123
103	0xbe753cee	-0.23949024
104	0x3e4e182d	0.2012641
105	0x3e1d1329	0.1533934
106	0xbd6a398a	-0.05718378
107	0x3ed3d87e	0.41376108
108	0xbe0819d8	-0.13291109
109	0xbd25e7f2	-0.040504403
110	0xbd448319	-0.047976587
111	0x3d7daa54	0.061930016
112	0x3e3ab905	0.18234642
113	0xbe5232aa	-0.2052714
114	0xbcb60239	-0.022217857
115	0x3db56fad	0.08859191
116	0xbd980c6e	-0.07424246
117	0xbddeafc4	-0.108733684
118	0x3e606df8	0.2191695
119	0x3e4db73a	0.20089427
120	0xbdb95131	-0.09048689
121	0x3f242c14	0.6412976
122	0xbe2a6b59	-0.16642512
123	0x3c435e92	0.011924403
124	0xbdc033b4	-0.093848616
125	0xbd00e0a6	-0.03146424
126	0xbd0980e7	-0.033570196
127	0xbdc212fe	-0.09476279
128	0xbddede0c	-0.10882196
129	0x3eeb0551	0.45902494
130	0xbda22b97	-0.0791847
131	0x3e1399db	0.1441416
132	0xbe04f741	-0.12984945
133	0x3d3e5046	0.046463273
134	0x3c34325b	0.010998334
135	0xbd9cd645	-0.07658056
136	0xbe45c597	-0.19313656
137	0xbe43213d	-0.19055648
138	0xbe24e17a	-0.16101637
139	0x3e223acc	0.15842742
140	0x3e45208a	0.19250694
141	0x3e783b61	0.24241401
142	0x3c944413	0.018098867
143	0x3eca174e	0.39470905
144	0x3e97fce2	0.29685122
145	0x3cf14fb2	0.029456947
146	0xbd9c42dd	-0.07629941
147	0xbe10c60d	-0.1413805
148	0xbd0b260f	-0.033971842
149	0xbe7047c4	-0.23464876
150	0xbea7fa5d	-0.328082
151	0x3e2a7ea9	0.1664988
152	0xbd8018ac	-0.06254706
153	0xbcea4dfe	-0.028601643
154	0xbe614def	-0.22002386
155	0x3ca67ac1	0.020322205
156	0xbc002dee	-0.0078234505
157	0x3e1da9c4	0.15396792
158	0x3e6465a7	0.22304402
159	0x3f360cba	0.7111317
160	0xbd68ad45	-0.056805868
161	0x3c0cd98e	0.008596791
162	0xbde62d2a	-0.11239083
163	0x3e19449a	0.14967576
164	0x3cbd16b6	0.023082118
165	0x3b3691ab	0.002785782
166	0x3d1c9443	0.03822733
167	0xbd881ddd	-0.06646321
168	0xbddf1b42	-0.10893871
169	0xbd815c5a	-0.06316443
170	0xbe061bed	-0.1309659
171	0xbd75b1cf	-0.059984025
172	0x3e3251b2	0.17413977
173	0xbdc59734	-0.0964798
174	0xbe344d30	-0.1760757
175	0xbe30c561	-0.17262794
176	0xbe5b38bc	-0.21408361
177	0xbe6fad2d	-0.23405905
178	0x3d8e5f1e	0.06951736
179	0x3e04f6d6	0.12984785
180	0xbd418605	-0.04724695
181	0x3dc5c11e	0.09655975
182	0xbce0c3db	-0.027437141
183	0xbe8fdd36	-0.28098458
184	0x3e15fc9a	0.14647141
185	0xbc9a0bd9	-0.018804478
186	0xbe2949dd	-0.16532083
187	0x3e999f10	0.30004168
188	0xbda5e000	-0.08099365
189	0x3e23da8c	0.16001338
190	0x3d5183e9	0.05115119
191	0xbd84657a	-0.064646676
192	0x3ddf7b75	0.109122194
193	0xbe49581d	-0.19662519
194	0x3c9187f5	0.017765025
195	0x3d8d1e18	0.068905056
196	0xbe4687b1	-0.193877
197	0xbe83042a	-0.25589114
198	0x3e3132fc	0.17304605
199	0x3ce4b7c2	0.027919654
200	0xbca31c8f	-0.019911079
201	0x3e2b8874	0.16751271
202	0xbd9bf39e	-0.07614826
203	0x3e022adb	0.1271166
204	0x3e24d21c	0.16095775
205	0x3cc5ea50	0.02415958
206	0xba202cce	-0.0006110192
207	0xbd80a44a	-0.06281336
208	0xbd618a82	-0.055063732
209	0xbd888ac9	-0.06667096
210	0xbcbec626	-0.023287844
211	0x3e006323	0.12537818
212	0xbd9226f6	-0.071363375
213	0xbe0896f1	-0.1333883
214	0x3dde94fe	0.10868262
215	0xbccf6f0b	-0.025321504
216	0xbd420af5	-0.04737373
217	0xbded1afe	-0.11577414
218	0x3dac35bc	0.084086865
219	0xbd5f8064	-0.054565802
220	0x3e422df6	0.18962845
221	0x3c8e7968	0.017391875
222	0xbcc57a4c	-0.024106167
223	0x3d6cf676	0.05785223
224	0x3e25a23c	0.16175169
225	0xbdb4d0d9	-0.08828897
226	0xbcee8e58	-0.02912061
227	0xbdc81ac4	-0.0977073
228	0x3d44bad8	0.04802975
229	0xbced00a0	-0.028930962
230	0xbe25b36f	-0.1618173
231	0x3df7af12	0.12093939
232	0x39bffe2f	0.0003661974
233	0x3cb95ba6	0.02262671
234	0x3d9276bf	0.07151555
235	0xbc8c5445	-0.017130027
236	0x3d1a6330	0.03769225
237	0xbe5b40ec	-0.21411484
238	0x3e0ce5b9	0.13759507
239	0xbdaad4f4	-0.08341399
240	0xbe518920	-0.20462465
241	0x3e9ea16d	0.30982533
242	0xbdea4235	-0.11438409
243	0xbd98f2ef	-0.07468211
244	0x3df57007	0.11984258
245	0x3e2532fc	0.1613273
246	0x3d00fc2a	0.031490482
247	0x3c815142	0.015785817
248	0xbc7a96dc	-0.015294757
249	0xbea62b4e	-0.32454914
250	0xbcf0d465	-0.029398153
251	0x3c0f61df	0.008751362
252	0x3de697e6	0.11259441
253	0xbd989bc6	-0.074515864
254	0x3d770085	0.06030323
255	0xbef6068e	-0.48051876

model.rnn.weight_hh_l1 f4 [160, 40]
0	0x3c2e55c2	0.010640563
1	0xbe4d276e	-0.20034572
2	0x3d343641	0.043997053
3	0xbe9f876c	-0.31158006
4	0x3e2d0cee	0.16899464
5	0xbe2d61ea	-0.16931883
6	0x3eb61416	0.355622
7	0xbdb9eb69	-0.09078104
8	0x3e0f9a0d	0.1402361
9	0xbbccdb1b	-0.0062517053
10	0x3dda09a5	0.10646371
11	0x3db43e97	0.088010006
12	0x3e59b283	0.21259503
13	0xbba5202b	-0.005039235
14	0x3d158ff4	0.036514238
15	0xbbf0538e	-0.0073341792
16	0xbe9d57da	-0.30731088
17	0x3e1feb43	0.15617089
18	0xbf2d576e	-0.6771153
19	0xbc9d12b5	-0.01917396
20	0xbdc60ee6	-0.096708104
21	0xbe16973c	-0.14706129
22	0x3e833e9b	0.25633702
23	0xbd97dd9f	-0.07415318
24	0x3dd3e2be	0.10345982
25	0xbde7f70d	-0.11326418
26	0xbe02c567	-0.12770616
27	0xbcd994cb	-0.026560208
28	0x3b6499c8	0.00348817
29	0xbeb3c47b	-0.3511084
30	0xbe9d28ab	-0.3069509
31	0xbeb56eee	-0.35436195
32	0x3db708ef	0.08937251
33	0x3cb90242	0.022584084
34	0xbda2eb2e	-0.07955013
35	0x3eb01ce0	0.3439703
36	0x3ca2da96	0.01987962
37	0x3e41646d	0.18885966
38	0x3ef44d6f	0.47715327
39	0xbbbfd363	-0.0058540567
40	0xbd8169db	-0.063190185
41	0x3ec426e8	0.38310933
42	0x3cb45096	0.022011083
43	0x3ea93bf2	0.33053547
44	0x3e33c522	0.17555669
45	0xbe847dd5	-0.25877252
46	0xbd288faa	-0.041152634
47	0xbe27b97d	-0.16379352
48	0x3e5e10fb	0.21686165
49	0x3e2c7c43	0.16844277
50	0x3dd1ac7f	0.10237979
51	0x3d6ca6fd	0.05777644
52	0xbe01a72d	-0.12661429
53	0x3e2d10f6	0.16901001
54	0x3e8164e6	0.25272292
55	0xbcce604d	-0.025192404
56	0x3dbf8432	0.09351386
57	0xbc5fd204	-0.0136609115
58	0xbe004c7d	-0.12529178
59	0xbe32072a	-0.17385545
60	0xbda0757b	-0.078349076
61	0xbd15df27	-0.036589768
62	0xbdee8756	-0.11646907
63	0x3de20862	0.11036755
64	0x3d97807e	0.07397555
65	0xbaedf965	-0.001815599
66	0x3bbbbed7	0.005729537
67	0x3e0960ec	0.13415879
68	0x3e11e0e3	0.14245944
69	0x3f033943	0.5125925
70	0x3cecc891	0.028904231
71	0xbc042fac	-0.0080680065
72	0x3e1e8f43	0.15484338
73	0x3c1a353e	0.009412108
74	0x3e2e67bd	0.1703176
75	0xbbda6065	-0.006664323
76	0x3dae53a4	0.08512047
77	0xbe8cf9f1	-0.2753444
78	0xbf1bc2ca	-0.608441
79	0x3d8e7186	0.069552466
80	0xbda487d4	-0.0803372
81	0x3e1152b9	0.14191712
82	0x3db0a2a0	0.08624768
83	0xbe400923	-0.18753485
84	0xbd394b10	-0.0452376
85	0xbe2cb613	-0.16866331
86	0xbc907c0d	-0.017637277
87	0x3d8b96c7	0.06815868
88	0xbd07adfd	-0.033124913
89	0xbddb264b	-0.10700663
90	0x3dfb46f2	0.12269391
91	0xbca21b96	-0.019788545
92	0xbbfa8744	-0.0076455195
93	0xbce15ba7	-0.027509524
94	0xbd180bae	-0.037120514
95	0xbc1737a0	-0.009229571
96	0x3dc05192	0.09390558
97	0x3cd2ebc0	0.02574718
98	0xbe1c44c9	-0.15260614
99	0xbd4fb99d	-0.050714124
100	0xbe1fd2c5	-0.15607746
101	0x3dd22e44	0.10262731
102	0xbc4170e6	-0.011806702
103	0x3c49c20b	0.01231433
104	0xbdc11f7f	-0.094298355
105	0x3e29bc0c	0.1657564
106	0xbcd3ca0e	-0.025853183
107	0x3d7e36f6	0.062064134
108	0xbdbfe46e	-0.093697414
109	0x3deef532	0.11667861
110	0xbd9b155d	-0.07572434
111	0xbe058fc9	-0.13043131
112	0x3dc5bc9b	0.09655114
113	0x3e120f7f	0.14263724
114	0xbda43439	-0.08017773
115	0xbe588fab	-0.21148555
116	0xbe0fb6d7	-0.14034592
117	0x3debc1f3	0.11511602
118	0xbef52812	-0.47882134
119	0xbd8932f8	-0.06699175
120	0x3de2b5b1	0.11069811
121	0x3e2945f5	0.16530593
122	0x3db469e2	0.08809258
123	0xbe17a599	-0.14809264
124	0x3e65ddd0	0.22447896
125	0xbce6049c	-0.02807837
126	0xbe71286a	-0.23550573
127	0x3e05012f	0.12988733
128	0x3ce46171	0.027878495
129	0x3bcf2a7b	0.0063222027
130	0x3c457012	0.012050645
131	0x3e131d71	0.143667
132	0xbe166b2e	-0.14689323
133	0xbe354fef	-0.17706273
134	0x3e2d6486	0.16932878
135	0xbd870984	-0.06593612
136	0x3d54391c	0.051812276
137	0x3dfcc2de	0.123418555
138	0xbdda1244	-0.10648015
139	0x3db21835	0.086960234
140	0x3ddc04fa	0.10743137
141	0xbc82913c	-0.015938394
142	0x3e549048	0.20758164
143	0xbe75136d	-0.23933192
144	0xbe0d3a79	-0.13791837
145	0xbdf9b50e	-0.121927366
146	0xbdf4ebe5	-0.11959056
147	0xbe0ef061	-0.13958885
148	0x3d980b4a	0.07424028
149	0x3a9e4d2d	0.0012077444
150	0xbea71dd2	-0.3263994
151	0xbe1eba39	-0.15500726
152	0xbe06e9de	-0.13175151
153	0x3c19f72b	0.009397308
154	0xbe13e0a5	-0.14441164
155	0x3dacbc69	0.08434374
156	0x3db92de3	0.09041955
157	0xbf03b633	-0.5144989
158	0x3f1a8867	0.60364383
159	0xbe403829	-0.18771423
160	0xbd96d994	-0.073657185
161	0xbde6c949	-0.11268861
162	0xbe1f7fc5	-0.15576084
163	0xbe1d6235	-0.15369494
164	0x3d6ff1f5	0.058580358
165	0xbd56f19f	-0.05247652
166	0x3e5b5aef	0.21421407
167	0xbd503ef5	-0.05084129
168	0xbd8360d3	-0.06414952
169	0x3dd9aa0c	0.10628137
170	0xbd985e29	-0.074398346
171	0xbcab6fb7	-0.020927293
172	0xbc22a75a	-0.009927595
173	0xbca72f35	-0.020408252
174	0x3b30274d	0.0026878894
175	0x3e03c59d	0.12868352
176	0xbe08dd6c	-0.13365716
177	0x3e2f6fc7	0.17132483
178	0xbdc94197	-0.098269634
179	0x3da5b40e	0.08090983
180	0xbd7a9265	-0.06117477
181	0x3e02406a	0.12719885
182	0x3cedc5db	0.029025009
183	0x3e04278d	0.12905712
184	0xbd8de5ff	-0.06928634
185	0xbc782070	-0.015144452
186	0x3d871d01	0.06597329
187	0x3dd6dfdb	0.10491916
188	0x3e3d8d61	0.18510963
189	0x3ddafa26	0.10692243
190	0xbd32629f	-0.043551084
191	0xbd6e808c	-0.05822806
192	0x3d2c186c	0.042015478
193	0x3dcf8b36	0.10133974
194	0x3e17b9d6	0.14816985
195	0xbe3a06ca	-0.18166652
196	0x3d392f5d	0.045211185
197	0xbe746383	-0.23866086
198	0xbe87513b	-0.2642916
199	0x3e0c6538	0.13710487
200	0xbdf610cf	-0.12014925
201	0xbd42acc1	-0.047528032
202	0xbdc189ca	-0.09450109
203	0xbd9443f3	-0.07239523
204	0x3e3a308e	0.18182585
205	0xbd7be43f	-0.06149697
206	0xbd60da98	-0.054895967
207	0x3d2af890	0.041740954
208	0xbcd8cb5e	-0.02646416
209	0x3d796229	0.06088463
210	0x3e010969	0.12601246
211	0x3e1315de	0.1436381
212	0xbc951f5d	-0.018203432
213	0x3e132334	0.14368898
214	0xbdcd92a1	-0.10037733
215	0xbdddf6e9	-0.1083811
216	0x3d406a31	0.046976272
217	0x3a7a3b60	0.0009545591
218	0x3bc18033	0.005905175
219	0x3cc7bb43	0.024381286
220	0xbdf54bc8	-0.11977345
221	0x3c9c3cb6	0.019071918
222	0xbc3bcacb	-0.011461924
223	0x3de09eaa	0.10967763
224	0x3ce00b5a	0.027349163
225	0x3d404399	0.046939466
226	0xbd33fa7b	-0.04394005
227	0x3d44f087	0.048080947
228	0x3dbaae38	0.09115261
229	0xb9cc83be	-0.00039008068
230	0xbd9b12e2	-0.07571961
231	0xbd91318d	-0.07089529
232	0x3ce0585b	0.027385881
233	0x3dd1b58c	0.102397054
234	0x3d3b75f7	0.045766797
235	0xbd85097f	-0.06495952
236	0x3e1e754c	0.15474433
237	0xbd3d81e3	-0.046266448
238	0xbd08e400	-0.033420563
239	0x3e29c263	0.16578059
240	0x3d287df1	0.041135732
241	0x3e791da8	0.24327719
242	0x3cd2d6da	0.025737215
243	0x3d254e3d	0.040357817
244	0x3b34dffb	0.0027599323
245	0xbe30ce9e	-0.17266318
246	0xbe101048	-0.14068711
247	0x3dc48764	0.09596136
248	0x3e3e5978	0.18588817
249	0x3e38cf3e	0.18047807
250	0xbde65418	-0.11246508
251	0x3ddc4e27	0.10757094
252	0x3de60099	0.11230583
253	0xbe0289a5	-0.1274782
254	0xbe47d69b	-0.19515459
255	0x3d7c1595	0.06154402

model.rnn.bias_ih_l1 f4 [160]
0	0x3d04f0a6	0.032456063
1	0x3eb25f46	0.34838313
2	0x3e9d59ee	0.30732673
3	0x3dfa07e9	0.1220854
4	0x3e17db9f	0.14829873
5	0x3e756424	0.23963982
6	0x3e0a1385	0.13484009
7	0xbdafbd5a	-0.08581038
8	0x3e5cbfb6	0.21557507
9	0x3c1beb6a	0.009516576
10	0x3e7a1a5b	0.24424116
11	0x3e7a535b	0.2444586
12	0x3db316ff	0.087446205
13	0x3e08d53b	0.13362591
14	0x3d39e9d8	0.045389026
15	0x3d9c2aff	0.07625388
16	0xbe130ffa	-0.14361563
17	0x3e1d6686	0.15371141
18	0x3e2da433	0.16957168
19	0x3e09ab96	0.13444361
20	0x3dc9060a	0.09815605
21	0x3e6133f8	0.21992481
22	0xbe03fd0c	-0.12889498
23	0xbcf92f15	-0.030417958
24	0x3eb78c73	0.35849342
25	0x3e3bc94a	0.18338504
26	0xbc2b4721	-0.01045397
27	0x3e74c613	0.23903684
28	0x3ed16490	0.40897036
29	0xbdc0007b	-0.09375092
30	0x3d246add	0.040140975
31	0x3e62c037	0.22143637
32	0x3ecc16f1	0.39861253
33	0x3dbde008	0.09271246
34	0x3e0b7002	0.13616946
35	0x3bc4942e	0.0059991097
36	0x3ed32caa	0.41245013
37	0xbbc14b84	-0.0058988947
38	0x3e2c81cb	0.16846387
39	0x3d27d50d	0.040974665
40	0xbdad3e64	-0.08459166
41	0x3e0d362d	0.13790198
42	0x3d3448c3	0.044014703
43	0x3e3a3531	0.18184353
44	0x3d5ab70e	0.05339723
45	0x3d8075b9	0.06272454
46	0x3dfe1086	0.12405495
47	0x3d76f202	0.06028939
48	0xbd49d371	-0.049273912
49	0xbd80c7e9	-0.0628813
50	0x3e18a89c	0.1490807
51	0xbb4f5b8a	-0.0031640255
52	0x3d6fe736	0.05857011
53	0x3e1684ba	0.14699069
54	0x3be8770f	0.007094271
55	0x3cbbddb0	0.022932857
56	0x3e05f10b	0.13080232
57	0x3cd4fefc	0.026000492
58	0x3d9179d4	0.07103315
59	0x3d3e589f	0.046471234
60	0x3ddfcd02	0.10927774
61	0x3e434b9b	0.1907181
62	0x3dfbae3c	0.12289092
63	0xbdd5136b	-0.10404094
64	0xbd23061e	-0.039800756
65	0xbd4ed989	-0.050500426
66	0x3ddff256	0.10934894
67	0xbd1dad62	-0.03849543
68	0x3d198fa0	0.037490487
69	0xbd9852ab	-0.07437643
70	0x3dfe0e1e	0.124050364
71	0xbc1bf26b	-0.009518246
72	0xbd323214	-0.04350479
73	0xbd977bf1	-0.07396687
74	0x3c4e2be0	0.012583703
75	0x3dd7a57b	0.1052961
76	0x3dd96402	0.10614778
77	0x3b7d71e7	0.0038672627
78	0xbc943e28	-0.018096045
79	0x3e5606f8	0.20901096
80	0xbdedb96d	-0.11607633
81	0xbe1e9ef0	-0.15490317
82	0x3d15a546	0.03653457
83	0xbb7f4912	-0.0038953465
84	0xbdaed7aa	-0.085372284
85	0xbe215916	-0.1575664
86	0x3e03474e	0.1282017
87	0x3cf54245	0.029938826
88	0x3e84c1d6	0.25929135
89	0x3bf906dd	0.007599695
90	0x3e9203cb	0.2851852
91	0x3e1b4446	0.15162763
92	0x3e6b0fb0	0.22955203
93	0xbd34f512	-0.04417903
94	0x3dcdd3f0	0.100501895
95	0x3bee0fef	0.007265083
96	0x3d48671e	0.048926465
97	0xbd7a7051	-0.06114227
98	0xbde97b00	-0.114004135
99	0xbdfcbf4c	-0.123411745
100	0xbe0a0beb	-0.13481109
101	0xbdb93d6a	-0.09044917
102	0x3ca18691	0.019717487
103	0x3e05223f	0.13001345
104	0x3e0b71fd	0.13617702
105	0x3e0bd120	0.13653994
106	0xbde31d49	-0.1108957
107	0x3d4e92ee	0.05043309
108	0x3e854698	0.2603042
109	0x3dc45852	0.09587158
110	0xbe151ec6	-0.1456252
111	0x3dd37102	0.10324289
112	0xbb7848c1	-0.0037885162
113	0x3d1243ec	0.035709307
114	0xbe82d0f6	-0.2555005
115	0xbd89f6ba	-0.067365125
116	0x3e1ae0ba	0.15124789
117	0xbe4953c8	-0.19660866
118	0xbe105579	-0.14095105
119	0x3de2a961	0.11067463
120	0x3e16642a	0.14686647
121	0xbd9c3739	-0.076277204
122	0xbdaf6706	-0.08564572
123	0x3d04c5bf	0.032415148
124	0x3e0315d5	0.12801297
125	0x3d9d2745	0.07673506
126	0x3e288f45	0.16460903
127	0x3db0df9d	0.08636401
128	0x3d41d812	0.0473252
129	0xbdcad0b6	-0.0990309
130	0x3b470360	0.0030367002
131	0x3e60bc51	0.21946837
132	0x3ebe7f87	0.3720667
133	0xbdb1805c	-0.08667061
134	0xbe080504	-0.13283163
135	0x3e905ca3	0.28195676
136	0xbda955c4	-0.082683116
137	0x3e4d3c5a	0.20042554
138	0x3ea7d974	0.3278309
139	0x3e2c2bd2	0.16813591
140	0x3da60710	0.08106816
141	0x3ea8638b	0.32888445
142	0x3e25d202	0.16193393
143	0x3e751f66	0.23937759
144	0xbd5e40d8	-0.05426106
145	0xbd1fa804	-0.03897859
146	0xbd46d70e	-0.048544936
147	0x3e3dce2a	0.18535677
148	0x3e193929	0.14963211
149	0xbd046ee4	-0.032332316
150	0x3e3c675e	0.18398806
151	0x3daf693e	0.08564995
152	0xbd83ebb0	-0.06441438
153	0x3d0d4067	0.034485247
154	0x3ca1c269	0.019746022
155	0x3e5bce83	0.21465497
156	0x3e892538	0.26786208
157	0xbc021ee3	-0.007941934
158	0x3df51e37	0.11968654
159	0x3dddbf61	0.10827518

model.rnn.bias_hh_l1 f4 [160]
0	0x3e1745c0	0.14772701
1	0x3ecc7aa9	0.39937332
2	0x3d9e471a	0.07728405
3	0x3d26cc8f	0.040722426
4	0xbc6a63fe	-0.014306067
5	0x3c3e3c7c	0.0116111
6	0xbd44ea92	-0.048075266
7	0xbd927c9e	-0.07152675
8	0x3db5d8fa	0.088792756
9	0xbd42ca36	-0.047556125
10	0x3e3eff12	0.18651989
11	0x3daceac0	0.084432125
12	0x3e3a5646	0.18196973
13	0x3e04f16e	0.12982723
14	0xbd939407	-0.07205968
15	0x3e13e2b8	0.14441955
16	0xbd628ba2	-0.055308945
17	0x3e9ee6a4	0.3103534
18	0x3d5e979f	0.054343816
19	0x3e9baa57	0.30403396
20	0x3bf40a16	0.0074474914
21	0x3de0fdca	0.109859064
22	0x398c0266	0.00026704668
23	0x3d873f68	0.06603891
24	0x3e91bdb6	0.2846505
25	0x3dd635f4	0.104595095
26	0x3d8bd409	0.06827552
27	0x3d9182cb	0.07105025
28	0x3e9a1f44	0.3010198
29	0xbd9aeade	-0.075643286
30	0x3cc21bc5	0.023694882
31	0x3e8f3589	0.27970532
32	0x3ec6908a	0.3878215
33	0xbd156eb2	-0.03648252
34	0x3e632b2d	0.22184439
35	0x3d87d8cc	0.066331476
36	0x3e526d28	0.20549452
37	0x3d500053	0.05078156
38	0x3d82ba99	0.06383247
39	0x3e8c9511	0.2745748
40	0xbca6f9bb	-0.020382753
41	0xbd595dd5	-0.053068
42	0x3e0800bd	0.13281532
43	0xbd52bac6	-0.051447652
44	0x3db6e230	0.089298606
45	0x3e3804e2	0.17970613
46	0x3d481bfd	0.048854817
47	0x3c1d957e	0.009618161
48	0x3a67563c	0.00088248006
49	0x3d50f308	0.051013023
50	0x3e61bd75	0.22044928
51	0xbdde828b	-0.10864743
52	0x3e3dd0e0	0.1853671
53	0xbbb39793	-0.0054807155
54	0x3d54292a	0.05179707
55	0x3e4fa1cf	0.20276569
56	0xbd75690b	-0.05991463
57	0x3d015870	0.03157848
58	0x3e6114e9	0.21980633
59	0x3d176bda	0.03696809
60	0x3d99c32a	0.07507928
61	0x3e11b059	0.14227428
62	0x3da8700e	0.08224498
63	0xbd25d8ae	-0.040489845
64	0xbda7abfa	-0.08187099
65	0xbdb3e3b9	-0.08783669
66	0x3ddebccc	0.10875854
67	0x3c23e76b	0.010003905
68	0x3e31b0f5	0.1735266
69	0xbc35be1f	-0.011092692
70	0xbdc65732	-0.096846
71	0x3d820277	0.063481264
72	0x3d22f00e	0.039779715
73	0x3cd02b78	0.025411353
74	0x3de45a63	0.111500524
75	0x3ddbd56b	0.107340656
76	0x3e1d873c	0.15383619
77	0x3d30baaf	0.043146785
78	0x3d32c66d	0.043646265
79	0x3d824497	0.06360739
80	0xbdb02902	-0.086015716
81	0xbd3ea070	-0.046539724
82	0xbe6f4bdf	-0.23368786
83	0xbe22ac90	-0.1588614
84	0xbd9ab8ae	-0.07554756
85	0x3d10d28b	0.03535704
86	0x3dd3ae2c	0.10335955
87	0x3e1d26e1	0.15346862
88	0x3ca9b406	0.020715725
89	0x3d6406fa	0.055670716
90	0x3e8d18b7	0.27557918
91	0x3e88474d	0.26616898
92	0x3c8e3c92	0.017362867
93	0xbd619068	-0.055069357
94	0x3e204bcc	0.15653914
95	0x3e759d94	0.23985893
96	0xbd4641cd	-0.048402596
97	0x3e05011f	0.12988709
98	0x3cacf66f	0.021113602
99	0xbe1cdc80	-0.15318489
100	0xbe0d8b32	-0.1382263
101	0xbe3e7132	-0.18597868
102	0xbdb99e14	-0.09063354
103	0x3d896c9d	0.067101695
104	0x3dee7f82	0.11645414
105	0x3e866751	0.262507
106	0x3df3ec9f	0.11910366
107	0x3e7e55ce	0.2483742
108	0xbc920ce1	-0.017828407
109	0x3dcbe35b	0.09955474
110	0x3c96b40a	0.018396396
111	0x3dd95d8e	0.10613547
112	0x3cd539cc	0.026028536
113	0x3e8f3ba7	0.279752
114	0xbe7eb77e	-0.24874684
115	0xbd987538	-0.07444233
116	0x3e6b1f2f	0.22961114
117	0xbd4a177f	-0.049338814
118	0x3d56a969	0.052407656
119	0x3e0522de	0.13001582
120	0x3e2370e3	0.15961032
121	0xbdc70c8f	-0.09719192
122	0xbd2c01ff	-0.04199409
123	0x3e44fb15	0.19236405
124	0xbd7ff261	-0.06248701
125	0x3ce017bc	0.027355067
126	0xbd78994f	-0.06069308
127	0x3c6485b7	0.013947896
128	0xbdb8c737	-0.09022372
129	0x3d8676c9	0.06565625
130	0x3e5301fb	0.20606224
131	0x3e8993ee	0.26870674
132	0x3ee72736	0.45147103
133	0x3df97c70	0.12181938
134	0x3d821983	0.06352522
135	0x3e730815	0.23733552
136	0x3d0a1cea	0.03371898
137	0x3e0da7ed	0.1383359
138	0x3d82a224	0.06378582
139	0x3d463cc4	0.048397794
140	0xbdc663ff	-0.096870415
141	0x3ebf5a42	0.3737355
142	0x3c984a6c	0.018590175
143	0x3e37a2be	0.17933175
144	0xbd972205	-0.073795356
145	0xbd550224	-0.052003995
146	0x3d8b38f3	0.067979716
147	0x3d3286a7	0.043585446
148	0x3dcf87c9	0.10133321
149	0xbdb8d139	-0.09024281
150	0xbd1338d3	-0.035942864
151	0xbdd3aecd	-0.10336075
152	0x3dc9fc86	0.09862618
153	0x3e2847c4	0.16433626
154	0x3e692a11	0.22769953
155	0x3e4128b9	0.1886319
156	0x3db2ad41	0.08724452
157	0x3e1f7b70	0.15574431
158	0x3e941927	0.2892544
159	0xbda0f8be	-0.07859944

exp_avg f4 [1, 40]
0	0x390b04b9	0.00013257832
1	0x376624f2	1.371767e-05
2	0x389329ed	7.0173155e-05
3	0xb834d3f7	-4.3112752e-05
4	0xb89c501a	-7.45358e-05
5	0x38894b9b	6.546752e-05
6	0xb8ad1d79	-8.2547725e-05
7	0x359d8a3c	1.1737643e-06
8	0xb81f8109	-3.8028727e-05
9	0xb8ed1a78	-0.00011305971
10	0xb8e7df70	-0.00011056557
11	0xb8e41b3e	-0.000108769615
12	0xb84e0188	-4.9115653e-05
13	0xb880b78b	-6.137703e-05
14	0xb7cdf9f7	-2.4554303e-05
15	0xb91b1fa4	-0.00014793739
16	0xb8773222	-5.893608e-05
17	0xb8ce250a	-9.8297445e-05
18	0x38ffcafa	0.00012197155
19	0x3928252f	0.0001603558
20	0x38b9fd11	8.868625e-05
21	0x392f197d	0.00016698796
22	0x36353da8	2.700699e-06
23	0xb838f43f	-4.409649e-05
24	0xb8b8e759	-8.8168956e-05
25	0xb87935eb	-5.941644e-05
26	0x3844166b	4.675092e-05
27	0xb8e6f2db	-0.0001101249
28	0xb92a3342	-0.00016231558
29	0xb802e303	-3.1205836e-05
30	0xb7487817	-1.194889e-05
31	0x3888194a	6.489696e-05
32	0xb8eea0c5	-0.0001137867
33	0xb8e129b8	-0.00010736607
34	0xb8e1540e	-0.000107444925
35	0xb7b3f38a	-2.145187e-05
36	0xb91f501c	-0.00015193265
37	0xb6d37346	-6.3017096e-06
38	0x37823998	1.5524027e-05
39	0xb8d9dd33	-0.00010388568

exp_avg_sq f4 [1, 40]
0	0x361863fd	2.2707966e-06
1	0x34ca7fdd	3.7718465e-07
2	0x33f901f9	1.1595325e-07
3	0x33e50b5f	1.0665712e-07
4	0x348df9c6	2.644503e-07
5	0x342f0bc5	1.6302427e-07
6	0x35379adf	6.839818e-07
7	0x338fa784	6.689427e-08
8	0x35c77d5b	1.4863139e-06
9	0x35544f4c	7.9091546e-07
10	0x369ab3ea	4.6105024e-06
11	0x3523f2e9	6.107571e-07
12	0x35fc0df7	1.8779527e-06
13	0x359be327	1.161451e-06
14	0x35258914	6.1666765e-07
15	0x36463221	2.9533478e-06
16	0x3397f45a	7.075933e-08
17	0x35c1aecc	1.4430493e-06
18	0x367c9513	3.7637699e-06
19	0x3628a5a4	2.5130366e-06
20	0x35225881	6.0478493e-07
21	0x3654c913	3.1707502e-06
22	0x347a0d19	2.3287829e-07
23	0x3610c7f8	2.157407e-06
24	0x35d92f47	1.6181519e-06
25	0x34a2585e	3.0239147e-07
26	0x34527bf0	1.9602862e-07
27	0x366ed70d	3.558994e-06
28	0x366364c6	3.3884294e-06
29	0x35224926	6.045615e-07
30	0x34b0df54	3.2945047e-07
31	0x355c8ee9	8.216435e-07
32	0x35ed1e24	1.7666648e-06
33	0x34ec1519	4.3973776e-07
34	0x365479ba	3.1661316e-06
35	0x35149127	5.534552e-07
36	0x35e337e6	1.6929087e-06
37	0x3362af44	5.277913e-08
38	0x35b0dc1b	1.3177081e-06
39	0x355118b7	7.789453e-07

exp_avg f4 [1, 40]
0	0xbb9b3120	-0.0047360808
1	0xbd013a0d	-0.031549502
2	0xbce344b6	-0.027742725
3	0x3d3c6225	0.045992035
4	0xbb9e70e0	-0.004835233
5	0xbc355838	-0.011068396
6	0x3d1b807e	0.037964337
7	0xbd52e174	-0.05148454
8	0xbbc93e4c	-0.0061414596
9	0x3c655918	0.013998292
10	0xbc6da458	-0.014504515
11	0x3c8b26f0	0.01698634
12	0x3c5d7688	0.01351703
13	0x3c02d150	0.007984474
14	0xb89c9700	-7.4667856e-05
15	0xbccffed8	-0.025390074
16	0x3c30a3b8	0.010781221
17	0xbabc9880	-0.001438871
18	0xbce96ee8	-0.028495267
19	0x3c2dc440	0.010605872
20	0xbb3def40	-0.0028981715
21	0x3b192080	0.0023365319
22	0x3b0fed04	0.002196134
23	0xbc92a564	-0.01790113
24	0x3bdabed0	0.0066755787
25	0x3c0a0b64	0.008425567
26	0xbc438e90	-0.011935845
27	0x3cdc3968	0.026882842
28	0x3c0cc540	0.00859195
29	0xbbb47daa	-0.0055081444
30	0x3d277a2f	0.040888008
31	0xbd7d783e	-0.06188225
32	0x3b1fdbe0	0.002439253
33	0x3bc0d2e0	0.0058845133
34	0x3b497e80	0.0030745566
35	0xbc29cd98	-0.010363959
36	0x3ba28200	0.004959345
37	0x3da766cc	0.08173904
38	0xbd2696fe	-0.04067134
39	0x3c340b88	0.010989077
