lightning_logs/version_6/checkpoints/epoch=99-step=5000.ckpt (torch, 300078 bytes, 33 tensors)

model.param_proj.proj.0.weight f4 [1, 40]
000000 da d4 29 be c5 e7 30 bd b1 10 3c bf 2b 73 ef bd
       -0.16585103 -0.043189783 -0.7346297 -0.116918884
000010 3e 68 60 3f bd dc d8 be 58 c2 33 3d b5 98 69 be
       0.8765906 -0.4235591 0.043886513 -0.2281216
000020 6e 4b 75 bd 40 fb a2 3e f4 8b 20 3d 64 71 f2 3e
       -0.05988639 0.31832314 0.03919597 0.47352135
000030 86 fc c9 3e 27 00 ae 3d 18 d2 0e 3d 21 ee 1b 3f
       0.39450473 0.08496123 0.03486833 0.6091023
000040 92 0c 3a 3f 21 b7 31 3e 80 ec 10 bf bd ca b9 be
       0.7267543 0.17355014 -0.5661087 -0.3628749
000050 fe b3 57 be 86 19 e7 be 01 79 06 3e f2 55 b9 3e
       -0.21064755 -0.4513666 0.13132097 0.36198384
000060 30 e9 89 3d 62 a4 04 3f 62 a2 05 bf 37 a7 98 bd
       0.0673393 0.5181333 -0.522009 -0.07453769
000070 a4 bd 13 3e 71 50 77 be 1d 2d c2 3e 38 cd 0e bc
       0.14427811 -0.2415178 0.37925044 -0.00871592
000080 0f 84 81 3e 30 b6 66 3f 67 62 04 3f be 8b e4 3e
       0.25296065 0.90121746 0.5171265 0.44637865
000090 c8 96 eb 3e f9 de 27 3d b9 78 9b 3e c4 fa 21 3f
       0.46013474 0.040984128 0.30365542 0.6327326

model.param_proj.proj.1.weight f4 [1, 40]
000000 7c ff 12 be f3 69 0e be 7c cc 15 3d 17 f7 e1 bd
       -0.14355272 -0.13907604 0.036571965 -0.11033457
000010 7c 89 82 bd 8c fd 30 be 07 62 f5 3d 2a 37 0c 3e
       -0.06373879 -0.1728422 0.11981588 0.13692918
000020 95 3b 51 3e 5d 80 c0 bd e2 5f 0e 3d 08 0e 58 3d
       0.20432885 -0.09399483 0.03475941 0.052747756
000030 8e 38 3a bd d2 be 8d 3d 97 e7 30 3e d4 32 3d 3d
       -0.04546409 0.06921162 0.17275845 0.04619105
000040 37 3f ba bd aa a1 bb 3d c3 8d 53 3d 4a e0 70 bd
       -0.090940885 0.09161694 0.051648866 -0.05880765
000050 f1 9c 23 be 4c 62 6e bd 1b 3e 09 3e 14 2e d3 3b
       -0.15977837 -0.058199212 0.13402598 0.006444702
000060 b4 db 05 3e 82 51 a8 3d 37 20 a3 3d 45 6c 04 3d
       0.13072091 0.082186714 0.07965129 0.032329816
000070 2a 47 3c 3e 03 ee 09 3e 59 c2 26 bd 27 cf 08 3d
       0.18386522 0.134697 -0.040712688 0.03340068
000080 7a 1a b7 3d 17 ee 23 3e 6b 11 1d be de 1c 14 3e
       0.08940597 0.16008793 -0.15338676 0.14464137
000090 77 ab 95 3d e5 67 35 be 54 8f 07 be ba 2e 07 3e
       0.07308095 -0.17715414 -0.13238269 0.13201419

model.param_proj.proj.2.weight f4 [1, 40]
000000 1b 49 21 3d 25 71 c1 3d 1a e6 1c 3f d4 62 e7 3d
       0.03937636 0.09445409 0.6128861 0.11298147
000010 97 26 1d be c7 e4 14 3e 37 f6 6a 3e 0c de 87 be
       -0.15346752 0.14540397 0.22945486 -0.26536596
000020 bd 59 b0 3d 8f ce 05 be a4 8a 7f 3c 8b d1 c6 be
       0.08610866 -0.13067077 0.015597019 -0.38831744
000030 80 b4 44 bf f0 c4 b9 be 13 08 b2 3d 21 b3 90 be
       -0.7683792 -0.36283064 0.08692946 -0.28261665
000040 cd e6 c0 be 21 76 18 be b8 9f 87 3e 5b 67 7c 3e
       -0.37676087 -0.14888813 0.26489043 0.24648802
000050 5f e9 a4 3d ae 85 8f 3e fb 85 48 be ae 25 c6 be
       0.080523245 0.28031677 -0.1958236 -0.38700622
000060 bd c8 5e bd 6c 3f 20 be 1b 2c 39 3e 91 d7 46 bd
       -0.054390658 -0.15649194 0.18083231 -0.048545424
000070 ba 8e 1d be f5 68 2e 3d e3 71 5c bf 0b 3e 92 bd
       -0.15386477 0.042580564 -0.8611128 -0.0714074
000080 9c 04 13 be df 00 3a be fc 2c 06 be 47 9f 2f be
       -0.14357227 -0.18164395 -0.13103098 -0.17150603
000090 67 67 51 be 7e bb eb be ad 19 0a bf 5d 59 82 be
       -0.20449601 -0.46041483 -0.5394543 -0.25458804

model.rnn.weight_ih_l0 f4 [160, 21]
000000 cc f9 28 3e da 89 17 3c d9 c1 88 3e bd 9d c8 3d
       0.1650154 0.009249175 0.26710394 0.09795711
000010 d5 ae c0 3d cb 82 01 3e 12 d8 f7 bc 8b c3 fa bd
       0.094083466 0.1264755 -0.030254398 -0.12244328
000020 be 1f 67 3d 91 0f 22 3e 53 30 51 3d 47 21 5d 3e
       0.056426756 0.1582625 0.051071476 0.21594726
000030 88 58 89 3e bc f7 10 3e 5b c5 37 3e d4 3c 5f 3e
       0.26825356 0.14157003 0.17946379 0.21800548
000040 aa 89 99 be ee b0 82 b9 cd 04 10 3e 5e 0a 02 bf
       -0.29987842 -0.00024927355 0.14064331 -0.5079707
000050 06 4b e1 3d 00 48 10 3e ec 4f f7 3c 72 fb a2 3e
       0.11000638 0.14089966 0.030189477 0.31832463
000060 29 94 4d 3e ff 92 18 3e 94 6b d3 bd f3 a2 ac bd
       0.2007605 0.14899825 -0.10323253 -0.084295176
000070 67 7e d6 3d f2 bf e8 3d 94 6b a6 3e 23 14 4b 3e
       0.10473328 0.11364736 0.3250395 0.198319
000080 2a ca e4 3d cf af 78 3e 5c 30 77 3e 44 1a 00 3d
       0.11171372 0.24285816 0.24139541 0.03127505
000090 f3 fa b1 bd 8d 21 4b be 97 37 99 39 43 f2 17 3e
       -0.08690443 -0.19837017 0.00029223852 0.1483851
0000a0 1e d0 3b bb ad 9c 31 3e fb 2a 14 3e 6f e3 1e bd
       -0.0028657983 0.17344923 0.14469521 -0.038791116
0000b0 e3 3f 50 be 66 89 28 be 24 61 0d 3c 5f c6 18 be
       -0.20336871 -0.16458663 0.008629117 -0.14919423
0000c0 48 f2 86 3c d4 35 15 be 24 ab 3e be bb ca 1d be
       0.01647295 -0.14571315 -0.18619972 -0.15409367
0000d0 7f 2a 15 3c 20 b2 a7 3e 62 7d 87 3e 33 90 08 be
       0.00910437 0.32753086 0.26462847 -0.13336258
0000e0 e4 b5 df bc 10 f7 8f 3e fd 27 cf bc 36 9d ff b8
       -0.027308412 0.2811818 -0.025287623 -0.0001218863
0000f0 4e 59 5b bd c8 f5 fc 3e 87 e6 ea 3c 0a 26 b3 3e
       -0.053551964 0.49406266 0.028674377 0.3498996
000100 05 fb 88 3e d5 f3 1b 3e cd c1 e0 3d d3 77 88 3e
       0.26754013 0.15229733 0.109744646 0.2665392
000110 ce 76 88 3e c1 77 9f 3a 8d 72 23 3d f8 15 e2 3c
       0.2665314 0.0012166427 0.039904166 0.027598366
000120 3d 58 2f 3c b6 7a 8e 3e b0 5d a8 3e 0e 46 dc 3e
       0.01070219 0.27827996 0.32883978 0.43022197
000130 92 92 73 3b fe 45 69 3e a5 ab 0b 3e 52 3a 3e be
       0.003716622 0.22780606 0.13639696 -0.18576935
000140 5c d2 36 38 ef d9 63 3e de 5f c8 be c7 e9 2f 3d
       4.3588094e-05 0.22251104 -0.3913564 0.042947557
000150 8f db a4 3d de 2e a4 3e 4d bb 36 3e a4 cb 6b 3e
       0.0804969 0.32067007 0.17844887 0.23026901
000160 6b a1 3f 3e 52 77 1f 3e 10 b9 e2 3d 1e b2 71 bd
       0.1871392 0.15572861 0.11070454 -0.059007756
000170 e9 b7 d1 3b c5 b8 e0 3d b2 df 16 3d f0 22 9c bd
       0.0064000976 0.10972742 0.036834426 -0.07623851
000180 50 e3 a4 3d e4 10 da 3d dc 18 c8 bd 89 71 e9 ba
       0.08051169 0.10647753 -0.097703665 -0.0017810325
000190 2a 3f 76 be ea 0e 91 3a 18 99 91 3e bd 47 ed be
       -0.24047533 0.0011067067 0.28437114 -0.46343794
0001a0 40 a6 d4 bb b3 7c 50 3e ef 0e 42 3e 0f 74 43 3d
       -0.006489545 0.20360069 0.18951009 0.047718104
0001b0 8a 96 17 3d c6 8c 6f 3e fc 9a 19 be d1 83 4c 3e
       0.0370088 0.23393545 -0.15000528 0.19972159
0001c0 f1 2a c4 3c 03 f7 8c 3e ed 23 9b 3c 57 f9 3a 3d
       0.023946257 0.27532205 0.01893803 0.045647945
0001d0 2b aa 38 3e 17 0f f7 bb 35 a7 a7 3e 15 0e fb 3e
       0.18033664 -0.0075396406 0.32744756 0.4903418
0001e0 01 eb c7 3e 00 f8 aa bd b6 bf dc b8 46 54 80 3e
       0.3904648 -0.083480835 -0.000105261264 0.25064296
0001f0 08 e9 45 3d a7 f2 75 bd b5 00 f2 3e 23 d8 a9 3e
       0.04831794 -0.060045864 0.47266164 0.33172712
000200 bf 3c d0 3e 37 be 5e 3e 6c e2 00 3f f1 4b a4 3e
       0.40671346 0.21752249 0.5034549 0.3208919
000210 dc ea a7 3e 30 6b 9a 3d 94 a4 98 bc 1a 70 4e 3d
       0.3279637 0.07539976 -0.018633164 0.050399877
000220 53 eb 13 bd 53 05 01 3e d6 72 30 3e ee a6 e3 3d
       -0.036113095 0.12599687 0.17231306 0.11115824
000230 26 11 f8 3d 40 de 53 3d f8 a4 d2 be 01 67 87 ba
       0.12112646 0.051725626 -0.41141486 -0.001033038
000240 3d 6a 85 3d 4f a8 2c bf 45 d7 d1 3e dc 91 3b 3d
       0.06514404 -0.6744432 0.4098455 0.0457934
000250 bc 78 a8 bd 1a 95 08 be e9 17 0f bc 14 1c 3a 3e
       -0.08226153 -0.13338128 -0.008733728 0.18174773
000260 8e 90 96 3d a9 0a 04 be 53 f0 36 be 59 3d 81 bd
       0.0735179 -0.12894692 -0.17865114 -0.06310529
000270 6a 0c 2d be 85 f5 d5 3c 3a 39 c7 bc 63 cd fc bd
       -0.16899267 0.02611805 -0.02431928 -0.12343862
000280 37 95 6f be dd e4 90 bd 7d a0 f5 bd bd 57 c3 3d
       -0.23396765 -0.07074902 -0.11993501 0.09538219
000290 e3 73 a0 ba b3 ee e1 bd c4 d5 ee be 8d de 17 3e
       -0.0012241568 -0.110318564 -0.46647465 0.1483099
0002a0 85 ba f2 3e 80 0e 50 3e b4 8c 94 3e e6 06 5a 3e
       0.47407928 0.20318031 0.29013598 0.21291694
0002b0 1b 84 b7 3c 4f 82 e5 bc e2 0b 94 3d b1 11 1f bc
       0.02240186 -0.028016238 0.07228829 -0.009708808
0002c0 8a cb 0b 3d 1d c3 f9 bd 37 0f 12 3c e0 60 6b bd
       0.034129657 -0.12195418 0.00891476 -0.057465434
0002d0 50 be 2c 3e 09 da d0 3d e9 91 02 3d 54 95 6f 3e
       0.16869473 0.10197837 0.031877432 0.23396808
0002e0 a9 9f 5b be 9b 56 78 3a 1d 98 92 bd 5c b8 3b 3e
       -0.21447624 0.00094733544 -0.071579196 0.18332046
0002f0 1e dd d4 bc a3 f8 8e 3e 15 4c 9a 3e 1d be cd 3d
       -0.025984343 0.2792407 0.3013617 0.10046027
000300 25 30 18 3e 18 11 89 3e bb ee 38 3e 24 ad 86 3e
       0.14862116 0.26770854 0.18059818 0.2630397
000310 d6 5c 7a 3e 30 cc 34 3e 3d 07 80 3e 16 6f 41 3d
       0.24449477 0.17656016 0.25005522 0.04722508
000320 6c c1 61 3d 15 81 3f 3d ad a7 95 3e b0 f5 64 3d
       0.055116102 0.04675396 0.2922949 0.05589837
000330 50 40 23 3e b6 0f d5 be 1c 17 b6 b9 c6 a1 8f 3e
       0.15942502 -0.4161355 -0.00034730963 0.2805311
000340 e7 30 80 3d 4f 9e 80 3e 72 95 c3 3d e3 4c 00 3e
       0.062593274 0.2512078 0.09549989 0.1252933
000350 24 47 0e 3e 60 f9 a2 bd 79 94 0b 3c de 57 e7 3a
       0.13894325 -0.07957721 0.008519285 0.0017650088
000360 69 80 cd bd 0d e9 87 bc 72 7e 9b bd 47 c3 ec bd
       -0.10034258 -0.01659062 -0.07592477 -0.11560684
000370 16 d9 ab be 85 7b 74 be df e5 8e be 23 06 3e bd
       -0.3356406 -0.23875244 -0.27909753 -0.04639257
000380 70 d6 8c 3b 71 5a 15 bd bd 20 04 be ca e2 64 39
       0.004298024 -0.036463205 -0.12903114 0.0002182826
000390 b0 8b 0b be e2 f4 e4 bd d1 44 d3 3d 12 ca ef bc
       -0.13627505 -0.1117952 0.1031586 -0.02927116
0003a0 ec 45 50 3e e4 ac 2f 3e 75 f3 bf 3d 82 17 2d 3e
       0.20339173 0.17155796 0.093726076 0.16903499
0003b0 aa 59 98 3d 60 d8 82 3c 25 75 14 be 10 84 c3 3b
       0.07438977 0.015972316 -0.14497812 0.005966671
0003c0 7b eb ac 3c 9b 34 e4 bd 4a a7 0a bc 8d 03 de bd
       0.02110838 -0.11142846 -0.008462736 -0.10840521
0003d0 d3 1f a8 3c c2 b7 04 3e 54 ee 9a bd fb f4 00 bd
       0.020522987 0.12960723 -0.07564989 -0.03148363
0003e0 83 03 10 3a 24 89 48 3e 10 e9 e9 be 3e c2 17 3d
       0.00054936873 0.19583565 -0.45685625 0.03705048
0003f0 a2 bf 79 3e d9 10 4b 3e 4b f9 53 3d 91 33 c4 3e
       0.24389508 0.19830646 0.051751416 0.38320592

model.rnn.weight_hh_l0 f4 [160, 40]
000000 5d c1 80 3d dd 36 bf bd de 8b 5e bd 33 3b 78 3d
       0.06286881 -0.09336636 -0.054332606 0.06060333
000010 5e 88 c5 3d b8 31 a4 bd 71 c9 ca ba 91 20 4c 3d
       0.096451506 -0.080172956 -0.0015471411 0.049835745
000020 f8 f3 fa 3d 2f 1b e1 bd 19 65 10 3c 85 b9 43 3d
       0.122535646 -0.10991513 0.008813166 0.047784347
000030 8f 6d 11 be f9 75 d6 bd 21 5b 95 3c 1d 40 58 3d
       -0.1420195 -0.1047172 0.01823193 0.05279552
000040 2d 86 28 3e f4 c0 ea 3d 7f e8 8d 3d 56 3c 37 3d
       0.16457434 0.11462584 0.06929111 0.044735275
000050 4d 83 43 bd d2 5d 57 3e e3 29 34 3e 99 36 8a 3c
       -0.04773264 0.21031883 0.17594104 0.016871737
000060 9b 94 7a bd 16 09 34 3e 2c a0 12 be 1c 25 b3 bd
       -0.061176877 0.17581591 -0.14318913 -0.087473124
000070 15 b4 c7 3c fc 04 9c bd 36 c1 84 3d 9e a5 c3 bd
       0.024377862 -0.07618138 0.064821646 -0.09553073
000080 9a e8 77 be 0d 82 87 3c 3e 63 64 3d bd bc f9 bd
       -0.24209824 0.016541505 0.055758707 -0.12194202
000090 4c 54 14 bd 26 33 c2 bd 0f 35 86 be 90 be 80 3e
       -0.036213204 -0.09482412 -0.26212355 0.25145388
0000a0 6d b1 ab be a6 de 28 be 41 d9 d9 3c 34 16 8b 3e
       -0.33533803 -0.16491184 0.026592853 0.27165377
0000b0 cb 9b 8b 3d 20 08 b7 3c 77 00 9e 3d 67 2c d2 3e
       0.068168245 0.022342741 0.077149324 0.410495
0000c0 fe 30 24 be 89 49 91 3e 66 cf b2 bd ad a6 31 3b
       -0.16034314 0.28376415 -0.08730964 0.0027107403
0000d0 b8 07 a7 3e 84 63 8c be 2b 0a 80 be 14 56 05 be
       0.32623076 -0.27419674 -0.25007758 -0.13021117
0000e0 cb 11 38 be 11 46 5d be 3a ce 51 be c2 b5 2a 3e
       -0.17975537 -0.2160876 -0.20488825 0.16670898
0000f0 06 c1 6d 3e 2c 42 fa 3b a0 75 c1 3e 5a 03 53 bd
       0.23218164 0.007637283 0.37785053 -0.05151687
000100 4d ce 50 3e a9 f9 04 3e 57 d7 ad ba f7 11 20 be
       0.20391198 0.12985863 -0.0013263029 -0.15631853
000110 62 1b 90 be 64 4d 4c 3e b7 a2 8b be c6 e3 96 bc
       -0.2814589 0.19951397 -0.2727258 -0.018419158
000120 43 ad 51 3d 2f a4 5a bd 80 e2 99 be 90 5c 4c 3e
       0.051190626 -0.053379234 -0.30055618 0.19957185
000130 83 12 3f be 83 6d 22 be 0b 73 f9 bd 15 9e 49 3e
       -0.18659405 -0.15862088 -0.12180146 0.1968921
000140 d3 11 21 3d 1e 24 35 be b8 2e e0 bb cb 4b 7b 3d
       0.03932364 -0.17689559 -0.006841507 0.06135158
000150 14 db 14 bd 4d f0 8d be 85 95 3a 3d 01 23 d2 bc
       -0.03634174 -0.27722397 0.04555275 -0.025651457
000160 a0 ab 10 be d0 03 88 be f1 79 46 3e 80 ea bc 3d
       -0.1412797 -0.2656541 0.19382454 0.09224415
000170 7b 82 2d 3d 40 e7 35 be 63 4c ac be 62 cb 93 3d
       0.042360764 -0.17763996 -0.33652028 0.072165266
000180 c8 9c 09 be 4a cb ea bc f2 4d 5b be 67 0c 31 3e
       -0.13438714 -0.028661389 -0.21416453 0.17289887
000190 2e 8d 4b 3e cc e5 4c 3e 3b 89 19 3e f4 25 b0 3e
       0.19878075 0.20009536 0.14993756 0.34403956
0001a0 d1 ce 0d 3e 91 27 55 3d da 33 6f be 97 01 e4 3e
       0.13848425 0.052039687 -0.23359624 0.44532463
0001b0 97 7c d6 bd 80 73 8a be 83 8b 83 be 6f b8 7b 3d
       -0.104729824 -0.27041245 -0.25692376 0.061455186
0001c0 ed 1d 55 3d 2b 86 76 be 1a 3b d4 bd c3 78 d3 3d
       0.052030493 -0.24074619 -0.10362835 0.10325768
0001d0 b5 a3 20 be e2 17 4d 3c 4a 73 d1 be 2c 49 d1 3d
       -0.1568745 0.012517901 -0.4090827 0.102190346
0001e0 df de 66 be f7 b9 4f be ff 53 cc 3d 36 aa 83 3d
       -0.22545956 -0.20285784 0.099769585 0.064289495
0001f0 73 40 1a bd cd 23 bb bd f1 f0 43 3e dc a4 89 bd
       -0.03765912 -0.09137688 0.1913488 -0.067208976
000200 8c 5f 61 be 1c 1b 93 3e f1 2d 56 3d 88 f9 be 3d
       -0.22009104 0.2873162 0.052289907 0.09324938
000210 38 25 7d 3e 7f c0 5f 3d 6f 71 3c be 99 0a 0d be
       0.24721229 0.054626938 -0.18402646 -0.13773574
000220 c3 94 19 3d bc b9 ce 3c 14 ab b7 bd f3 5e 40 3e
       0.037495386 0.02523505 -0.089681774 0.1878622
000230 10 67 a1 3d e0 ff a0 bb a2 03 9a 3c b5 a9 ee 3d
       0.07880986 -0.004913315 0.01880056 0.11653463
000240 59 c3 38 3e 35 30 c5 bd 94 43 b6 bd cc d5 13 3e
       0.18043269 -0.096283354 -0.08899608 0.14437026
000250 5d 57 58 be e2 34 00 bf ac 14 2a be a8 4b 4d 3e
       -0.21127076 -0.5008069 -0.16609448 0.20048392
000260 b9 ca 83 3d 08 0b 60 bd 66 dc 90 bd d2 a5 21 be
       0.06435151 -0.05469802 -0.07073288 -0.15785912
000270 2e 94 ad 3d 0d 34 6c 3d a5 ad 85 3e 74 21 09 be
       0.08475529 0.057666827 0.26109043 -0.13391668
000280 0b af f6 3d f5 69 ba 3d a3 38 1a bd 7d c9 18 3e
       0.120451055 0.09102241 -0.03765167 0.14920612
000290 f3 f1 f2 3b 60 ab 98 bd 47 07 fd bb 05 12 c9 3d
       0.0074140965 -0.07454562 -0.007721815 0.0981789
0002a0 df 16 ed bd fe c7 73 3e 22 65 86 bd 0f 77 18 3d
       -0.11576628 0.2380676 -0.06562258 0.037222918
0002b0 25 4d 15 3c d8 e3 52 3d 8a 5d eb bd 96 7b 49 3e
       0.009112631 0.05148682 -0.114924505 0.1967605
0002c0 d9 d9 11 bd 77 27 b9 bd 25 67 68 bc d9 cb 3e bd
       -0.035608146 -0.090407304 -0.014184748 -0.046581123
0002d0 2a d9 ff bc 79 24 3b 3d 55 66 38 3e 7b 9f 21 3e
       -0.031231482 0.04568908 0.18007787 0.15783493
0002e0 ca 44 9d 3d 4d 4c 9e bd 55 ef 23 be c7 3c f5 bd
       0.07679136 -0.07729397 -0.16009267 -0.11974483
0002f0 a2 aa 41 be 20 9d 2e 3d 63 dd d2 3d 7e ec 3b 3d
       -0.18912748 0.042630315 0.102961324 0.045879833
000300 db 85 2b 3e 98 a8 dd 3d 36 4f 22 bd 90 97 34 3e
       0.1675028 0.10823172 -0.039626323 0.17635942
000310 19 04 3c be 18 f0 18 be c6 e3 7e 3c bb 0b b5 bd
       -0.18360938 -0.14935338 0.015557235 -0.08840128
000320 19 84 77 3d 0b 3f 80 be 44 32 20 bd bd 23 fc 3b
       0.060428713 -0.25048098 -0.039110437 0.00769469
000330 ee 77 3a ba e4 c8 61 bd fd cc 08 3d 09 9c 49 bd
       -0.0007113208 -0.055123225 0.033398617 -0.049221072
000340 e6 8d b9 bd 8a 17 d1 be a6 33 d1 bd cf 7b a7 bd
       -0.09060268 -0.4083827 -0.10214929 -0.081779115
000350 03 6d 80 3e ea 68 20 bd 8b a0 e3 bd 05 58 18 3d
       0.2508317 -0.039162554 -0.111146055 0.037193317
000360 8e 2a 2a bd 65 55 e8 3d ba 8e 65 bd 85 f9 a6 bd
       -0.04154449 0.11344413 -0.056044318 -0.08153061
000370 8a c5 76 3b 31 da 25 bd 55 d8 38 3e 69 16 f0 3e
       0.0037654364 -0.040491287 0.18051274 0.46892098
000380 e6 aa ae 3c c6 cf 36 bd 34 c7 b2 be 72 dc 7d 3e
       0.021321725 -0.044631742 -0.34917605 0.24791124
000390 2b 22 f6 3d 06 a0 71 be 4a 04 97 3d dc 0d 73 3d
       0.12018236 -0.235962 0.07373865 0.05933939
0003a0 f2 f8 93 bd 30 c2 77 3d 23 e3 05 bc 83 18 30 3d
       -0.07225217 0.060487926 -0.008171829 0.042992126
0003b0 2d 62 88 bd 91 f1 de be 51 c2 ae be 91 37 a7 be
       -0.066593505 -0.43543676 -0.34132627 -0.3265958
0003c0 e7 02 27 3d ac ca b4 3e c4 da 3a be 72 9c 2d bc
       0.040774252 0.35310876 -0.18247515 -0.0105963815
0003d0 04 f3 a2 bb ca 36 af 3d a8 ea d5 bd ef 51 0a 3d
       -0.0049728174 0.08555372 -0.10445148 0.033769544
0003e0 c0 b8 dc 3c 84 8a c9 3e 88 b1 5f bd 8e 1c 90 bd
       0.026943564 0.39363492 -0.054612666 -0.070366964
0003f0 c8 f1 bc 3c 6d 0c 45 be 97 70 40 3d c4 21 0c 3e
       0.023064509 -0.19243021 0.046982374 0.13684756

model.rnn.bias_ih_l0 f4 [160]
000000 4a 9f 1e 3d 52 3b e4 3e 3b 3b d6 bd 6d 75 af 3e
       0.03872613 0.44576508 -0.10460516 0.34269276
000010 45 9a d2 3d 4f df 1b 3e eb a0 4c 3e 16 fe f5 bc
       0.10283331 0.15221904 0.1998326 -0.030028384
000020 5d 60 e0 3d 8d f3 f1 3e 48 0f 9f 3d 85 db c8 bd
       0.1095588 0.47256127 0.077665865 -0.09807495
000030 65 80 5f 3e 1b 9a a5 3e 45 66 49 3e a1 4c 45 bd
       0.21826322 0.32344136 0.19667919 -0.048168782
000040 ec 5f 13 3e 1f 5b e5 3d 6a 36 95 bd de b1 97 3e
       0.1439206 0.111990206 -0.07285769 0.2962789
000050 68 d6 8d 3e 28 41 09 3f d0 21 cf 3e fb e6 72 3d
       0.2770264 0.53615046 0.40455484 0.05930231
000060 cb 97 84 3e 4f 7f c1 3d 95 b6 82 3d b8 9b 67 3e
       0.2589706 0.0944811 0.06382481 0.22617996
000070 54 3f bf 3d 58 24 8c 3e 75 c5 13 3e 27 10 3f 3e
       0.09338251 0.27371478 0.14430793 0.18658505
000080 17 75 43 3e f1 a3 f0 bc b2 e8 7d 3e 62 5b 62 3e
       0.19087635 -0.029375048 0.24795797 0.22105172
000090 4b 5b 7e 3e 92 b8 ff 3d 05 0a bf 3d 5c d7 a9 3d
       0.24839513 0.12486376 0.09328083 0.0829303
0000a0 d8 a8 18 bd 7d 9b 0b 3e f2 ee 19 3e e5 18 cc bd
       -0.037270397 0.13633533 0.15032557 -0.09965686
0000b0 ba 7e 4c 3d 4d 87 3b bd b3 9c 57 3e 8b 9b a8 bc
       0.049925543 -0.04578333 0.2105587 -0.020581981
0000c0 0b 87 2c bd 04 c9 1f bd c3 e1 eb 3d bb 31 34 bd
       -0.042120975 -0.039010063 0.1151767 -0.04399274
0000d0 fb a7 1c 3e 19 4c 41 3e bf 7f c3 3d 64 bc 36 3e
       0.15298454 0.18876685 0.0954585 0.17845303
0000e0 cc 41 f5 bd 9b 7f 01 3d b1 a0 2b 3e 85 d6 05 3e
       -0.119754404 0.031615835 0.16760518 0.13070114
0000f0 3e 92 ce 3c 67 a4 a6 bd bf ed da bd 08 b2 17 bd
       0.025216218 -0.08136826 -0.10689878 -0.03703502
000100 ca 72 7f 3e 0f 31 74 bd df 4a 9c bd 0d 8e 68 3d
       0.24946132 -0.0596171 -0.07631468 0.056776095
000110 76 50 37 bb ef 91 e7 3c 5d e4 64 3d fb 28 4b bd
       -0.0027971542 0.028267829 0.055881847 -0.04959963
000120 d2 bd da bd 06 66 0f be cc c8 dc 3d 9b 3e 46 3e
       -0.106807366 -0.14003763 0.107804865 0.1935982
000130 8a e0 64 bd 84 49 18 3e 7c 92 aa 3d 0b 19 fc bd
       -0.0558782 0.14871794 0.08328721 -0.12309464
000140 81 ad 00 be 8a 10 63 3e 9b ec 3b be 87 55 32 3e
       -0.12566186 0.22174278 -0.18351977 0.17415439
000150 33 e0 b6 bb 4a 6a e0 3d df 1f 1e 3e 5d fd 9c 3b
       -0.005580926 0.10957773 0.15441845 0.0047909454
000160 9f f4 20 be ac 19 f8 3d fa 72 68 3d 4a ae a2 bd
       -0.15718316 0.121142715 0.056750275 -0.07943399
000170 ca 11 40 3e e4 a9 58 be bb 88 0b be ec 92 a5 3d
       0.18756786 -0.21158558 -0.13626377 0.08084664
000180 8f 36 07 be 63 74 68 be 7d 3c 47 bd 5b be 0a 3d
       -0.13204406 -0.22700648 -0.04864167 0.033872943
000190 ff ad ec 3d 70 81 fc 3d 55 43 a0 3e 84 50 49 3e
       0.115566246 0.12329376 0.3130137 0.1965962
0001a0 f0 37 6b bc 63 8e 9c bd 0b 5a 9e 3d f7 b6 51 bd
       -0.014356598 -0.076443456 0.07732018 -0.05119988
0001b0 b8 a5 b8 3c a4 9f f3 3d aa 55 2c bd 2f 18 fe 3d
       0.022539958 0.118956834 -0.042073883 0.124069564
0001c0 d4 3f 16 bd a2 2e 8d be 47 49 b0 bd 7d 1e 94 3d
       -0.036681965 -0.2757464 -0.086077265 0.07232378
0001d0 f9 6b 63 bd d2 07 5e bd f4 85 91 bc ca a9 2f 3e
       -0.055522893 -0.054206677 -0.01776407 0.17154613
0001e0 ff 3e 3d 3e ac 32 c7 3d d5 84 f0 b9 47 fa 19 bc
       0.18481062 0.09726462 -0.00045875335 -0.00939805
0001f0 07 0f 08 3e ed ba 02 bd 9d 65 1f 3d 2d de b6 3d
       0.13286982 -0.031916548 0.038915265 0.089290954
000200 67 2f 4e 3e 3c 80 de 3e a7 eb b5 bd 80 09 4a bb
       0.2013527 0.4345721 -0.08882838 -0.0030828416
000210 69 ff b8 3d 55 42 89 3d b2 a9 ac ba 12 a2 2b 3e
       0.090330906 0.06702105 -0.0013173132 0.16761044
000220 4b c2 a5 3d 18 ae 44 3e 52 3d d1 3d ab aa 3e 3e
       0.08093699 0.19207036 0.10216774 0.18619792
000230 e4 21 1a 3e 26 3f 15 bd 16 c2 92 3d e4 92 62 3e
       0.15051991 -0.036437176 0.07165925 0.22126347
000240 90 59 33 3d 54 c1 66 3e 94 f5 5f bc c2 c2 12 3e
       0.043786585 0.22534686 -0.01366939 0.14332107
000250 5d 8e 20 3c 8b 53 d9 3d af a8 2f bd cb df b1 bd
       0.009799567 0.10611638 -0.04288548 -0.08685263
000260 f2 44 04 bd 90 1c 24 3e aa a0 2c 3e 3c 39 46 3e
       -0.032292314 0.1602652 0.16858163 0.1935777
000270 42 23 80 3c 21 f7 29 3e 8f c9 a1 bc fa 39 37 3e
       0.015641812 0.16598178 -0.019749431 0.1789321

model.rnn.bias_hh_l0 f4 [160]
000000 6d 58 a2 3d 04 a2 49 3e 57 a9 90 bd f6 80 87 3e
       0.07927022 0.1969071 -0.07063549 0.26465577
000010 20 48 75 3d 31 93 7a 3e 28 69 5b 3e 17 f1 1f be
       0.059883237 0.24470212 0.21426833 -0.15619312
000020 e5 b1 89 3d 22 68 fd 3e a2 01 e1 bd 07 60 02 3b
       0.06723384 0.4949351 -0.109866396 0.0019893663
000030 6e a4 7e 3d ce fc eb 3d be 54 b8 3e d9 cf 7d bc
       0.06216853 0.11522828 0.36002153 -0.015491449
000040 8a 32 c3 3e 23 ba 0e 3e ee fe 87 bd ff 85 c4 3e
       0.38124496 0.13938193 -0.06640421 0.3838348
000050 42 d3 d1 3e af 94 cc 3e 85 49 90 3e f9 13 77 3e
       0.4098149 0.39957187 0.2818109 0.24128713
000060 0b 57 4a 3e ed e8 94 3e f0 e7 90 3d 86 21 12 3d
       0.19759767 0.29083958 0.070754886 0.0356765
000070 38 56 86 3d 4c ec 67 3d 26 eb 68 3e f2 f4 9c 3e
       0.06559414 0.056621835 0.22745952 0.30655628
000080 01 34 1e 3e e2 74 63 3e 6f 00 89 3e 4b c3 c7 3e
       0.15449525 0.22212556 0.26758143 0.39016184
000090 cd 17 9a 3e 00 eb 8c bd 43 48 78 3e 95 00 2a 3d
       0.30096284 -0.0688076 0.24246316 0.04150446
0000a0 cb 23 93 3d a6 d6 fc 3d 49 ff a1 bc 5a 7a 12 be
       0.07184561 0.123456284 -0.01977505 -0.14304486
0000b0 44 9a 18 3d cb 2d 72 bd 33 b9 51 3e fd 25 8f bd
       0.037256494 -0.059125703 0.20480804 -0.069896676
0000c0 d2 78 46 3e 62 b4 79 bd f3 4a 29 3e 97 fd 70 bd
       0.19382027 -0.060963042 0.16532497 -0.058835592
0000d0 8d c3 94 3d b5 9d ae bc 04 ea df 3d 63 27 10 3e
       0.07263861 -0.021315435 0.10933307 0.14077525
0000e0 b2 94 18 bc 12 ce 48 ba 56 4f 55 3d a2 c9 fc bc
       -0.0093127955 -0.00076601014 0.052077614 -0.030857865
0000f0 a2 1c 38 bd 47 2d 65 3c e0 39 d7 bc fb d1 c8 3d
       -0.04494918 0.013987846 -0.026272714 0.098056756
000100 9e 57 00 3e ab ec b4 3d b1 78 16 3e 78 64 31 be
       0.12533423 0.08834203 0.14694478 -0.17323482
000110 b0 15 cb 3d 3b 5c 66 bd a1 db 57 bd 79 ab 0a bd
       0.09916246 -0.0562403 -0.05269969 -0.033854935
000120 03 5f 03 bd a5 97 e3 3d b6 4d 1f bd 44 69 fd 3c
       -0.032073032 0.11112908 -0.03889247 0.030933984
000130 ec db a8 3b 6d 60 13 3e ed 70 3d 3d 30 44 8b bd
       0.00515317 0.14392252 0.046250273 -0.06800115
000140 fa 8c 33 bd d5 8a 0a 3e ac 98 67 bd 28 66 f9 3d
       -0.043835618 0.13529523 -0.056542084 0.12177688
000150 fb 49 bb bc e8 40 0e bd db d8 68 3e fa 9d 23 3e
       -0.022862425 -0.03472987 0.22738974 0.15978232
000160 c3 1c b6 3d d8 d9 f9 bd d9 34 72 bd 83 d7 cf bd
       0.088922046 -0.121997535 -0.05913243 -0.101485275
000170 8a 7a 35 3e 5d 46 49 be 95 7e 08 bc 38 ef e8 3d
       0.17722526 -0.19655748 -0.008330961 0.11373752
000180 14 86 13 be 53 83 0a be 61 af 04 be 6b a2 15 3e
       -0.14406615 -0.13526659 -0.12957527 0.14612739
000190 f8 9c 3f 39 47 02 0f 3e 65 c9 63 3e e2 0f 4e ba
       0.00018273655 0.13965712 0.22244795 -0.0007860643
0001a0 a0 8c aa 3d 6f 51 35 3e 44 51 a4 bd a2 72 0f 3e
       0.08327603 0.17706846 -0.08023313 0.14008573
0001b0 d7 fd f2 bd e0 38 ff bd 1a 1a cd bd f4 bb 89 3d
       -0.11864822 -0.1246202 -0.10014744 0.06725302
0001c0 11 ad 25 3e 34 4a 98 bd 36 57 63 bd 40 2d fa 3c
       0.16179301 -0.07436028 -0.055503093 0.030539155
0001d0 b0 81 08 be 9c bb c0 bd ee 5b 04 be 4e f0 2f 3e
       -0.13330722 -0.09410784 -0.12925693 0.17181513
0001e0 74 97 b4 3d ed 4f 88 ba 8c 83 b4 3d 8b 56 57 3d
       0.0881795 -0.0010399796 0.08814153 0.05257277
0001f0 b3 d8 d8 3b 66 af 2a bd 15 96 19 3e c1 86 c8 3d
       0.0066176294 -0.04167118 0.14998658 0.09791327
000200 d1 28 85 3e 96 f3 ab 3e 21 e6 fa bd 01 32 70 bd
       0.26007703 0.3358428 -0.12250925 -0.058641437
000210 4b fe 16 3e 4a 55 3b 3e 59 05 97 3d 08 04 2e 3e
       0.14745443 0.18294254 0.07374067 0.16993725
000220 de c7 84 bc f0 98 d3 bc 9a 38 df 3d 1d b6 02 3e
       -0.016208585 -0.025829762 0.10899468 0.12764783
000230 43 27 8e 3c 37 4d 61 bd 28 b4 a2 3d df 99 b5 3e
       0.017352706 -0.05500528 0.07944518 0.35468957
000240 d2 9b 87 3e 68 4e bf 3e eb 11 13 3e 7a e2 3c 3d
       0.2648607 0.37364507 0.14362304 0.046114422
000250 95 15 c4 bd 03 8c af 3d c5 bd d0 bc 1c 73 a9 3d
       -0.09574429 0.08571627 -0.025481114 0.082739085
000260 80 fd 29 3e 7c 92 a2 3d b3 63 cf 3d 1d 31 ef 3d
       0.16600609 0.07938096 0.10126438 0.116792895
000270 a4 a9 b3 b8 1a bd 84 3e e5 7d ad bc 41 ab 6f 3e
       -8.566983e-05 0.25925523 -0.021178195 0.23405172

model.rnn.weight_ih_l1 f4 [160, 40]
000000 ab e2 90 be 8c e1 a2 be 49 47 e4 3d 34 31 07 3c
       -0.28297934 -0.31812704 0.11146409 0.008251477
000010 eb c3 65 3e 5a ca 1b 3c b4 bc db bd 29 be a0 3e
       0.22438018 0.009508694 -0.10729352 0.3139508
000020 bb 31 e7 3d 80 d9 3e bf 6c a6 fb 3d 4e 98 a8 bb
       0.11288782 -0.7455063 0.12287602 -0.0051451093
000030 09 e6 93 bd 62 cb 98 3d 2e b1 d9 3d e6 f9 84 3d
       -0.0722161 0.07460667 0.106294975 0.06492977
000040 78 15 a0 3e 09 37 15 3b 2d e8 d6 bc 6e 75 bd 3e
       0.3126638 0.00227684 -0.026233757 0.37003654
000050 d1 37 d6 3d 61 83 ad bd b1 f4 6c 3e 4e d2 b3 3e
       0.10459865 -0.08472324 0.23140217 0.35121387
000060 d8 2a fd 3c 21 fb 0a 3e 5f 02 a1 3e d3 b3 01 bf
       0.030904219 0.1357236 0.31447122 -0.50665015
000070 dc 62 bf bd b8 7c 80 bf c4 a7 49 bf 91 dc c1 3e
       -0.09345028 -1.0038061 -0.78771615 0.3786359
000080 91 55 a0 3e 39 51 1e be fc 0b 35 be 5c 96 01 be
       0.31315282 -0.15460671 -0.17680353 -0.12655014
000090 bf 42 60 be c1 a5 1d bf 16 77 3b be f6 64 08 3e
       -0.21900462 -0.61581045 -0.18307146 0.13319764
0000a0 f0 5d 64 be 57 7e 5c 3e b9 a0 29 be e1 3a e2 3d
       -0.2230146 0.2153257 -0.16565217 0.110463865
0000b0 d1 af eb 3d 46 a7 32 3e de c1 20 3d 72 63 64 3e
       0.11508144 0.17446622 0.039247386 0.2230356
0000c0 29 70 06 be 33 fb 1c 3e 4c 58 9a be 32 e0 b4 3e
       -0.13128723 0.153302 -0.3014549 0.35327297
0000d0 92 f8 7d 3e 33 65 6e bd 2a 69 06 be 18 d4 80 be
       0.24801853 -0.05820198 -0.13126054 -0.25161815
0000e0 ae 04 74 be 10 6c 86 be 12 84 15 be 13 e1 36 3e
       -0.2382991 -0.2625432 -0.14601162 0.17859297
0000f0 b1 b8 33 3e 69 98 87 3e 0b 17 ab 3e b3 fa 8e 3e
       0.17550923 0.26483467 0.33416018 0.27925643
000100 ac df b9 3d 37 ad 77 3e f9 6a a2 be c3 3f 8b be
       0.09075865 0.2418717 -0.3172224 -0.27197084
000110 37 c8 b1 be e7 c1 d8 be 90 d7 d3 bd 98 e1 1c be
       -0.34723064 -0.42335436 -0.1034385 -0.15320432
000120 9f 97 32 3e aa 0e ad be 28 b1 a9 be 32 aa a0 3c
       0.17440651 -0.3380025 -0.33142972 0.019612405
000130 5c dc 3f be 68 c2 02 bf ab fd b5 be 18 47 5a 3f
       -0.18736404 -0.5107789 -0.35545096 0.8526473
000140 e3 0d 9c be b2 c7 9c 3e e0 40 2e be 71 2c 88 3e
       -0.30479345 0.30621105 -0.17016935 0.26596406
000150 38 b0 40 3e 43 1d ee bd 6d 18 5b 3e 8a 1c 66 3e
       0.18817222 -0.11626675 0.21396036 0.22471824
000160 54 02 56 be 02 52 b3 3d 23 00 ef bd 84 c1 c6 bc
       -0.20899326 0.08755876 -0.11669948 -0.024262197
000170 d7 29 7f 3e 6c e0 88 be 86 ac 88 be ba e5 80 3c
       0.24918304 -0.2673372 -0.26694125 0.015734542
000180 aa 60 41 be ef 33 47 be eb f0 3b bb 05 7c e6 3d
       -0.1888453 -0.19453405 -0.0028677534 0.112541236
000190 de ba fe 3d 2b 19 fc 3d 84 e6 85 3e 67 a3 77 be
       0.12437986 0.12309488 0.26152432 -0.24183427
0001a0 7d ec 4f 3e 7d c2 20 3e e8 9d 6d bd 58 f2 d7 3e
       0.20305057 0.15699191 -0.05801192 0.4217708
0001b0 c3 74 0c be 5a 13 1c bd 87 20 4f bd 67 d0 82 3d
       -0.13716416 -0.038104393 -0.05056813 0.06387406
0001c0 c6 8e 3d 3e 61 e6 54 be c4 08 ce bc f0 70 b8 3d
       0.18511495 -0.20791008 -0.025150664 0.09005916
0001d0 b5 09 9f bd eb 3c d4 bd 06 77 65 3e ff f3 4d 3e
       -0.07765523 -0.10363182 0.22408685 0.20112608
0001e0 bb b0 b9 bd 32 fd 23 3f ed 21 2d be d4 d4 83 3c
       -0.09066912 0.6405822 -0.16907473 0.016092695
0001f0 35 2d c9 bd 35 07 05 bd 58 8b 01 bd 5d 1b c5 bd
       -0.09823076 -0.032477576 -0.03162703 -0.0962436
000200 aa 31 d5 bd 4d 35 f0 3e dd 2d a3 bd 37 91 1a 3e
       -0.10409863 0.46915665 -0.07967732 0.15094458
000210 5c a0 09 be f4 fe 45 3d ca 37 84 3c 09 92 be bd
       -0.13440078 0.048338845 0.016139884 -0.09305198
000220 8a c8 46 be 74 bc 3f be 67 18 22 be f4 a7 23 3e
       -0.19412437 -0.18724233 -0.15829621 0.15982038
000230 1c 48 45 3e 97 ea 7a 3e 3b aa b9 3c c0 ef c8 3e
       0.19265789 0.24503551 0.02266418 0.39245415
000240 a0 04 96 3e a1 1d e7 3c 2e a3 a2 bd fa 5a 17 be
       0.29300404 0.02821237 -0.0794128 -0.14780799
000250 72 fe 0f bd 4c f6 6c be 0e d3 aa be a9 0e 19 3e
       -0.035154767 -0.2314083 -0.33364147 0.14946999
000260 c8 73 6d bd 23 2e 01 bd 72 4f 61 be 8d e7 a7 3c
       -0.057971746 -0.03153814 -0.22002962 0.020496154
000270 c4 4f 10 bc 6f d3 18 3e 09 ef 66 3e 2d 3d 39 3f
       -0.00880808 0.14924406 0.22552122 0.7235897
000280 0c 87 67 bd ee 9c a2 3b 20 c9 e8 bd a3 f6 19 3e
       -0.056525275 0.004962555 -0.113664865 0.1503549
000290 48 0f a4 3c c0 72 84 3b 52 65 1d 3d 84 0b 88 bd
       0.020026818 0.0040419996 0.038426705 -0.066428214
0002a0 c2 91 e3 bd 35 71 6f bd ba be 03 be 7d 40 72 bd
       -0.111117855 -0.058457572 -0.12865725 -0.059143532
0002b0 57 7c 30 3e 24 ac c4 bd c3 04 34 be 4c e1 2b be
       0.17234932 -0.09603146 -0.17579941 -0.16785163
0002c0 3a a9 5b be 85 c5 72 be 84 b1 8c 3d c3 93 07 3e
       -0.21451274 -0.2370816 0.06869796 0.1323996
0002d0 d3 da 3c bd c4 23 c5 3d 89 2c e8 bc ed d8 90 be
       -0.046107125 0.096259624 -0.028341549 -0.282905
0002e0 aa 6a 17 3e ee 23 9e bc 23 cc 2b be 05 32 99 3e
       0.14786783 -0.019304242 -0.1677709 0.29920974
0002f0 cb ab a7 bd 2e 7d 25 3e 78 0e 4f 3d e5 88 84 bd
       -0.08187064 0.16161034 0.050550908 -0.06471423
000300 71 42 e8 3d ef e8 4a be 0e 6a 92 3c 6e 4c 8b 3d
       0.11340798 -0.1981542 0.017872836 0.06801687
000310 f1 ce 46 be 1e ad 83 be e6 60 36 3e 14 ee ee 3c
       -0.1941488 -0.25718015 0.17810401 0.029166259
000320 18 2c a2 bc 89 b7 30 3e 28 01 9e bd 1c a9 03 3e
       -0.019796416 0.17257513 -0.07715064 0.12857479
000330 39 23 28 3e 19 07 e0 3c 94 3a 81 39 a8 73 7d bd
       0.16419686 0.027347134 0.00024648441 -0.061877877
000340 52 a9 62 bd 48 9c 8a bd 13 5e c9 bc 6f 58 00 3e
       -0.055337258 -0.067680895 -0.02458099 0.12533735
000350 6d d1 8f bd 2a 66 09 be 5f 54 dd 3d c3 65 ec bc
       -0.07022367 -0.13417879 0.10807108 -0.028857118
000360 43 a4 46 bd 93 2e eb bd aa 43 ab 3d 72 be 5b bd
       -0.048496496 -0.11483493 0.08362515 -0.05364842
000370 a4 6e 42 3e 77 fe ac 3c 1c 46 b5 bc da 34 77 3d
       0.18987519 0.021117432 -0.022128157 0.060353138
000380 01 dc 25 3e b1 06 b3 bd 8b 58 ed bc 97 17 ca bd
       0.16197206 -0.08741511 -0.028972885 -0.09867781
000390 f3 5e 43 3d 6c e1 e6 bc ae 5e 25 be 1f 2e f8 3d
       0.047697973 -0.028183661 -0.16149399 0.12118172
0003a0 ee b1 04 ba c3 5e b5 3c 7e ee 8f 3d 42 ab 8c bc
       -0.0005061914 0.022139912 0.07027911 -0.017171506
0003b0 b4 c4 18 3d d9 97 5c be c2 4b 0b 3e 70 a1 a8 bd
       0.037296966 -0.215423 0.13603118 -0.08233917
0003c0 50 b4 46 be 10 f9 a5 3e 5a 10 ef bd fb 09 91 bd
       -0.19404721 0.32416582 -0.11673041 -0.07081982
0003d0 ac 80 fb 3d fd 64 25 3e 3c 3c 11 3d 97 7b 96 3c
       0.122804016 0.16151805 0.035457835 0.01836948
0003e0 a3 c3 6a bc 20 38 a5 be 2a 7d 02 bd 14 1c 6b 3c
       -0.01432887 -0.32269382 -0.031857647 0.014349956
0003f0 5d 39 ea 3d 42 03 a1 bd 50 49 73 3d 69 8f f9 be
       0.114367224 -0.078619495 0.059396088 -0.48742226

model.rnn.weight_hh_l1 f4 [160, 40]
000000 4d 10 3d 3c a5 6a 47 be fb 34 58 3d 97 cf a7 be
       0.011539531 -0.19474275 0.0527849 -0.32775566
000010 0f fd 2b 3e 6d 73 2f be 66 81 b8 3e 81 1b a5 bd
       0.16795753 -0.17133875 0.36036223 -0.080618866
000020 f3 ab 12 3e 38 83 d5 bb 03 8c db 3d 7e 03 c0 3d
       0.14323406 -0.0065158866 0.107200645 0.09375666
000030 e4 79 5e 3e 40 49 96 bb 83 57 20 3d e1 a2 c4 bb
       0.21726185 -0.004586369 0.039145958 -0.006000862
000040 db 02 9e be 44 2f 21 3e b3 34 32 bf b7 f4 a5 bc
       -0.30861554 0.15740687 -0.6961166 -0.02025829
000050 13 e1 c7 bd db e4 16 be 08 14 84 3e 63 eb 92 bd
       -0.097597264 -0.14735739 0.25796533 -0.07173803
000060 53 5b d7 3d c0 6e e8 bd 72 ba 03 be 15 86 00 bd
       0.105154656 -0.11349249 -0.12864092 -0.03137787
000070 e5 e6 6f 3b d1 15 b8 be ca 45 a2 be 11 68 b9 be
       0.003660613 -0.35954145 -0.3169387 -0.3621221
000080 5f c2 b6 3d 58 47 b9 3c ca ba a3 bd dd e0 b9 3e
       0.08923792 0.022617027 -0.079946116 0.3630437
000090 d9 9d a1 3c db df 4a 3e 7e 4f f6 3e af f4 c0 bb
       0.019728588 0.19811957 0.48107523 -0.0058885436
0000a0 86 b3 19 bd f1 fb fb 3e 9c 6a 00 3d ab 9b cb 3e
       -0.037524723 0.49215654 0.03135167 0.39767203
0000b0 58 52 1a 3e 20 6d 82 be ce 88 a7 bd bd 5b fe bd
       0.15070474 -0.2547388 -0.0818039 -0.124198414
0000c0 62 41 56 3e 10 f9 22 3e f6 05 af 3d dd 45 f5 3c
       0.20923379 0.15915322 0.08546059 0.02994054
0000d0 6d 65 52 be e5 f3 16 3e c3 b5 81 3e 13 19 3b bd
       -0.20546503 0.14741476 0.25333986 -0.04567821
0000e0 f5 70 27 3d 02 e1 e9 bc 32 ea cc bd 10 d1 1c be
       0.04087921 -0.028549675 -0.10005607 -0.15314126
0000f0 f0 8c 85 bd f4 96 92 bc 93 53 11 be d5 cb dc 3d
       -0.06521022 -0.017894246 -0.14192037 0.107810654
000100 d0 83 57 3d f2 9e a9 bc 93 b9 e5 3c 12 0e fd 3d
       0.05261594 -0.020705674 0.02804259 0.12356199
000110 8e a9 fa 3d 1d cb 0b 3f ac da 1b 3d 1e e1 53 3b
       0.12239371 0.546068 0.03805034 0.0032330225
000120 e7 5c 0b 3e d2 4d 25 bc f8 ce 17 3e a9 14 4a bc
       0.13609658 -0.010089355 0.14825046 -0.012334027
000130 0f 3d 84 3d f0 cd a2 be 29 f0 1c bf 4b 08 41 3d
       0.064569585 -0.31797743 -0.61303955 0.04712705
000140 f2 cc a6 bd d0 72 10 3e ce e5 ad 3d 1e 30 41 be
       -0.08144559 0.14106297 0.084910974 -0.18866012
000150 51 70 39 bd 68 30 2e be 0d 8c 88 bc 2b be 8c 3d
       -0.04527313 -0.17010653 -0.016668344 0.06872209
000160 40 2e fc bc 68 eb d9 bd ff ea fd 3d e2 0f 94 bc
       -0.030783772 -0.10640603 0.123983376 -0.01807398
000170 63 ac b5 bb a2 ae da bc 48 63 0f bd 7a 6b 04 bc
       -0.0055442317 -0.0266946 -0.03500679 -0.008082265
000180 90 3a c1 3d 17 1c e1 3c a5 31 1d be c6 2c 53 bd
       0.09434998 0.027479215 -0.15350969 -0.05155637
000190 26 89 20 be bd bb cf 3d 72 46 43 bc 70 27 53 3c
       -0.15677318 0.1014323 -0.011918651 0.012887821
0001a0 5b 5d be bd b2 38 2b 3e 6b fc d4 bc 32 0b 82 3d
       -0.0929515 0.16720846 -0.025999269 0.063497916
0001b0 f0 2c bd bd 28 e7 f8 3d 94 80 9b bd 61 33 06 be
       -0.09237087 0.121534646 -0.07592884 -0.13105537
0001c0 cf 42 c8 3d d1 1f 13 3e c5 85 a3 bd 7b f6 57 be
       0.09778368 0.14367606 -0.07984499 -0.21090119
0001d0 21 81 0e be 53 cf e8 3d d8 d8 f4 be d2 ff 86 bd
       -0.13916446 0.11367669 -0.4782169 -0.065917626
0001e0 0e 7c e0 3d 3c d7 23 3e 9b 72 b2 3d aa 27 18 be
       0.109611616 0.16000074 0.087132655 -0.1485888
0001f0 ce d3 68 3e f8 47 ef bc e4 8a 67 be 6b ac 01 3e
       0.22737047 -0.029209122 -0.22611576 0.12663428
000200 42 d4 f4 3c db 0a e6 3b 9b 42 74 3c a0 6d 13 3e
       0.029886369 0.007020337 0.014908458 0.14397287
000210 b1 54 13 be 14 27 35 be e4 d3 2b 3e 42 91 83 bd
       -0.14387776 -0.17690688 0.16780049 -0.0642419
000220 6e b1 53 3d fd 4b ff 3d bf 3b dd bd 86 32 b0 3d
       0.051682882 0.124656655 -0.10802411 0.086033866
000230 94 68 d8 3d d0 5e 8d bc 83 4c 5d 3e 8e 87 77 be
       0.10566822 -0.017257124 0.21611218 -0.24172804
000240 b9 29 0b be 4b 14 f6 bd 5a 28 f8 bd 0a df 0d be
       -0.13590135 -0.12015589 -0.121170714 -0.13854614
000250 2a 21 9a 3d bd 54 ae bb c4 fc a7 be 9f a2 23 be
       0.07525857 -0.00532016 -0.32810032 -0.15980004
000260 57 fd 05 be 11 1f 2f 3c 90 6b 12 be 1f 6a aa 3d
       -0.13084923 0.010688559 -0.14298844 0.08321022
000270 d5 5a bc 3d a3 9f 01 bf 2b f6 19 3f cb 15 3f be
       0.09197012 -0.5063421 0.6014125 -0.18660657
000280 31 8d 96 bd a8 24 e4 bd ec b2 20 be 0d 86 1a be
       -0.07351149 -0.11139804 -0.15693253 -0.15090199
000290 2e ec 6c 3d 4b a7 56 bd cd 0b 5e 3e 29 65 57 bd
       0.057842426 -0.052405637 0.21684189 -0.05258671
0002a0 85 ff 80 bd 2d 7e d7 3d fb d9 97 bd 50 08 b0 bc
       -0.062987365 0.10522113 -0.07414623 -0.021488339
0002b0 70 7b 21 bc c2 35 a3 bc 77 70 96 3b bc 02 04 3e
       -0.00985609 -0.019923095 0.0045910436 0.12891668
0002c0 7a a5 0a be e9 17 30 3e a8 bb c7 bd c5 62 a6 3d
       -0.13539687 0.17196621 -0.097525895 0.081243075
0002d0 c8 7a 7c bd 5c 3a 02 3e 78 53 f7 3c ef a8 02 3e
       -0.06164053 0.12717575 0.030191168 0.12759756
0002e0 9c 04 8d bd 14 6e 68 bc 94 b4 8b 3d 2c 99 d8 3d
       -0.06885645 -0.014186401 0.06821552 0.1057609
0002f0 e9 5c 3d 3e ff 9b df 3d 4f 74 2a bd 7f 8d 6c bd
       0.18492474 0.10918426 -0.041614827 -0.05775213
000300 62 6d 2d 3d 64 22 d1 3d cb 9b 16 3e 40 80 3a be
       0.042340644 0.102116376 0.14707868 -0.18212986
000310 bc 10 39 3d 7b 27 77 be 11 97 86 be c1 a8 0c 3e
       0.045181975 -0.24136154 -0.2628713 0.1373625
000320 49 f3 f6 bd 26 e6 41 bd 93 e0 c0 bd dd 20 92 bd
       -0.12058122 -0.047338627 -0.09417834 -0.071351744
000330 64 62 3b 3e ab fc 7d bd ea 5a 65 bd 50 5f 24 3d
       0.18299252 -0.06200854 -0.055994906 0.04012996
000340 96 66 db bc 7c db 81 3d 41 95 01 3e 6f ad 13 3e
       -0.026782315 0.063406914 0.12654592 0.14421628
000350 99 31 a4 bc 37 b7 13 3e 12 4c cf bd b1 4d de bd
       -0.020043181 0.1442536 -0.10121931 -0.10854662
000360 75 8e 4a 3d 41 d5 43 b9 8e c9 b5 3b d3 4e c4 3c
       0.049452264 -0.00018676092 0.005547709 0.023963368
000370 47 a5 f6 bd 22 b7 9a 3c a2 3d 70 bc eb b0 e0 3d
       -0.12043243 0.018886153 -0.014663132 0.109712444
000380 b8 59 e0 3c f9 cf 3d 3d 72 1b 3d bd d9 11 44 3d
       0.027386531 0.046340916 -0.046168752 0.047868583
000390 d8 a5 bb 3d 0e 09 32 3b 26 5c 9c bd f5 0b 93 bd
       0.091624916 0.0027166042 -0.076347634 -0.07180015
0003a0 e2 aa e0 3c 99 7c d1 3d da a5 42 3d 29 bc 87 bd
       0.027425233 0.10228843 0.04752145 -0.066276856
0003b0 b0 bc 1e 3e 01 e5 3b bd b4 3a 12 bd c4 c2 29 3e
       0.15501666 -0.045872692 -0.035700515 0.16578203
0003c0 55 79 22 3d b3 71 7d 3e af 64 b4 3c 8e be 2f 3d
       0.039666492 0.24750404 0.022020666 0.042906336
0003d0 ef 4b a2 3b 55 78 34 be ce 0b 13 be 44 43 c3 3d
       0.0049528996 -0.17624028 -0.14359972 0.09534314
0003e0 da 53 40 3e 93 ae 3c 3e 23 3a e3 bd f4 7c df 3d
       0.18781987 0.1842597 -0.11095073 0.10912505
0003f0 7a 48 e3 3d 6a b5 01 be 50 ff 46 be 11 7f 80 3d
       0.11097808 -0.1266686 -0.19433331 0.06274236

model.rnn.bias_ih_l1 f4 [160]
000000 7e 4a 04 3d 79 2f ab 3e c7 06 a0 3e d9 2c fe 3d
       0.032297604 0.33434656 0.3125517 0.12410898
000010 e7 4e 18 3e bc e9 76 3e c8 2e 0c 3e 45 25 ab bd
       0.14873849 0.241126 0.1368972 -0.08356718
000020 eb b8 5d 3e 08 a9 46 3c 4f 95 78 3e a2 d6 79 3e
       0.21652572 0.012125261 0.24275707 0.24398282
000030 91 05 b4 3d d9 82 0b 3e f6 41 3a 3d 23 4f a4 3d
       0.08790124 0.13624133 0.04547306 0.08022907
000040 01 91 13 be 95 95 1a 3e 75 e7 2e 3e b6 4b 0a 3e
       -0.14410783 0.15096124 0.17080481 0.13505444
000050 d4 95 cb 3d 4e 3e 68 3e 7a 47 04 be b9 f7 02 bd
       0.09940687 0.22680017 -0.12917891 -0.031974528
000060 5a f7 b8 3e f4 75 3b 3e 66 29 1b bc ce 14 75 3e
       0.36126214 0.18306714 -0.009470319 0.23933718
000070 38 f5 d2 3e 13 b0 c1 bd d9 7f 24 3d 55 a2 67 3e
       0.41202712 -0.094574116 0.040160988 0.22620519
000080 e7 91 ce 3e 34 6c bf 3d 67 a5 0b 3e 39 e0 d4 3b
       0.4034569 0.0934681 0.13637315 0.006496456
000090 65 3c d3 3e 83 6e 4e bc 54 e4 2e 3e 0e c3 31 3d
       0.41257015 -0.01259959 0.17079288 0.04339891
0000a0 ae a0 ad bd be 43 0e 3e 07 78 3a 3d 11 f9 39 3e
       -0.08477913 0.13893029 0.045524623 0.18161418
0000b0 3c 92 54 3d ea 10 82 3d 59 23 ff 3d d9 ed 73 3d
       0.051897272 0.06350882 0.12457914 0.059553
0000c0 ee 87 49 bd 49 69 7b bd c2 fa 16 3e 60 1e 0e bb
       -0.0492019 -0.061379705 0.14744094 -0.0021685585
0000d0 d3 f1 79 3d 7b d8 16 3e 7c 4c d7 3b 9c 21 c5 3c
       0.061021637 0.14731018 0.006570397 0.024063878
0000e0 81 0a 07 3e 94 47 e0 3c dd 67 93 3d 59 93 47 3d
       0.131876 0.027377881 0.07197545 0.048724506
0000f0 d2 17 e2 3d f5 c3 44 3e be a7 f6 3d 42 f1 d4 bd
       0.110396996 0.19215377 0.12043713 -0.10397579
000100 e7 d1 1d bd 7c 2d 54 bd 10 46 e0 3d f1 fb 1d bd
       -0.038530257 -0.05180119 0.10950863 -0.03857035
000110 c6 53 1c 3d 08 6d 9a bd e1 c6 ff 3d 7f b3 0a bc
       0.03816583 -0.07540327 0.12489105 -0.008465647
000120 76 9c 48 bd f6 18 98 bd 28 bc 48 3c b2 97 d4 3d
       -0.048977338 -0.07426636 0.012251891 0.10380496
000130 62 7c d8 3d 02 ee 65 3b bb fd 6f bc 78 15 57 3e
       0.10570599 0.003508449 -0.014647896 0.21004283
000140 cd 90 f0 bd 87 44 1f be b3 29 0d 3d c0 42 a2 bb
       -0.117463686 -0.15553485 0.034463596 -0.004951805
000150 f3 c5 b7 bd 93 28 22 be e7 66 03 3e 71 7b f4 3c
       -0.08973303 -0.1583579 0.12832223 0.029844018
000160 5b d0 85 3e a0 b5 fe 3b 11 da 92 3e 54 9b 1b 3e
       0.26135525 0.007773116 0.28681996 0.15195972
000170 db f9 67 3e a6 ac 4e bd 93 4f d1 3d 2a 26 44 3c
       0.22653906 -0.05045762 0.10220256 0.01197199
000180 7a cd 41 3d 1e cb 78 bd e0 51 ea bd 21 d4 00 be
       0.0473151 -0.060740583 -0.11441398 -0.12580921
000190 29 5e 0b be 33 30 bf bd 39 36 9a 3c 97 72 04 3e
       -0.13610138 -0.09335365 0.018824684 0.12934338
0001a0 89 40 0d 3e a9 6c 0e 3e e9 49 e0 bd 9e c0 4a 3d
       0.1379415 0.13908638 -0.10951597 0.0495001
0001b0 31 69 87 3e 93 cf c0 3d b1 05 16 be dc be d3 3d
       0.26447442 0.09414592 -0.14650609 0.10339138
0001c0 af 1f d1 ba 60 fa 1a 3d 72 0b 83 be f9 a6 8d bd
       -0.0015954877 0.037836432 -0.2559467 -0.06916613
0001d0 d9 79 18 3e 65 71 49 be 57 92 10 be fb 77 e7 3d
       0.14890231 -0.19672163 -0.14118324 0.11302181
0001e0 ca fd 16 3e f3 cb 97 bd 1d 48 af bd ac 41 00 3d
       0.1474525 -0.07411947 -0.085586764 0.03131263
0001f0 74 5e 03 3e 71 c5 9b 3d eb 8d 28 3e 20 ae b1 3d
       0.12829 0.07606018 0.16460387 0.0867579
000200 b7 2c 3f 3d 6f 8e c9 bd b9 73 d0 3a 5f d8 62 3e
       0.046673503 -0.0984162 0.0015903629 0.22152852
000210 64 e0 bf 3e 9e 99 b2 bd 74 09 09 be 52 f7 91 3e
       0.37475884 -0.087207064 -0.13382512 0.28509003
000220 af c9 a7 bd b7 a5 4c 3e 02 aa a7 3e 76 6d 2d 3e
       -0.08192765 0.1998509 0.32746893 0.16936287
000230 bd 19 a6 3d 35 62 a8 3e f1 00 25 3e d6 9b 76 3e
       0.08110378 0.32887426 0.1611364 0.24082884
000240 5c bd 5f bd 57 0c 23 bd 4a 4e 4a bd b3 3e 3c 3e
       -0.054623947 -0.03980669 -0.04939107 0.18383293
000250 d8 28 1b 3e e2 cd 0b bd 55 68 3d 3e f3 e0 af 3d
       0.151523 -0.034131892 0.18496831 0.085878275
000260 6a 20 84 bd e4 db 0c 3d f3 1a a4 3c b8 a0 5b 3e
       -0.06451495 0.03438939 0.020032382 0.21448028
000270 c5 c0 89 3e e1 e8 0d bc a2 64 f7 3d e7 e6 dd 3d
       0.26904884 -0.00866148 0.12079741 0.10835057

model.rnn.bias_hh_l1 f4 [160]
000000 35 1c 17 3e c5 4a c5 3e 80 fb a8 3d 75 16 2f 3d
       0.14756854 0.38533607 0.08251095 0.042746026
000010 8f 2e 63 bc 43 97 56 3c 68 7d 3c bd 89 e4 8d bd
       -0.013866081 0.013097587 -0.046018034 -0.06928355
000020 5f cb b7 3d 9c 1a 38 bd 65 7a 3d 3e 84 f1 ab 3d
       0.08974337 -0.04494725 0.18503721 0.08395675
000030 85 cd 3a 3e 0a 9f 07 3e f8 67 93 bd cc f4 17 3e
       0.18242462 0.13244262 -0.07197565 0.14839476
000040 ab 8f 64 bd eb 7d 9d 3e 26 a5 63 3d 63 fa 9b 3e
       -0.055801075 0.3076013 0.05557742 0.30464467
000050 ac 83 0e 3c c9 12 ef 3d 72 01 8e b7 4e 0f 84 3d
       0.008698385 0.11673505 -1.6928392e-05 0.06448232
000060 a6 28 93 3e 61 8f d5 3d c2 d7 8d 3d 4d 20 92 3d
       0.2874195 0.10427738 0.06925918 0.07135067
000070 10 b0 9b 3e 79 9a 9c bd b6 45 c2 3c 8c a6 91 3e
       0.30407763 -0.07646651 0.023714881 0.28447378
000080 87 0b c9 3e 4d 56 12 bd 8e 60 63 3e 90 dd 88 3d
       0.39266607 -0.035726834 0.22204801 0.06682885
000090 c0 8d 52 3e 00 8e 34 3d a4 7f 87 3d ce d2 8d 3e
       0.20561886 0.044080734 0.066161424 0.27699894
0000a0 df 82 a8 bc 9b 27 55 bd 86 8c 09 3e 20 ab 53 bd
       -0.020570217 -0.052039724 0.13432512 -0.05167687
0000b0 c2 cf b3 3d 7b d2 38 3e ad 41 4a 3d eb 84 11 3c
       0.08779861 0.18049042 0.04937904 0.008881788
0000c0 a7 36 7a 3a 80 19 57 3d 00 0f 60 3e 87 78 dc bd
       0.0009544887 0.052514553 0.21880722 -0.10765176
0000d0 7e 53 40 3e 79 1f a9 bb cb 03 52 3d 39 ca 50 3e
       0.1878185 -0.0051612225 0.05127315 0.20389642
0000e0 48 03 71 bd c7 fc 06 3d f3 0b 62 3e 94 a6 20 3d
       -0.05884102 0.03295591 0.22074871 0.03922136
0000f0 fb 0d 9c 3d b4 28 13 3e 91 69 a3 3d 62 94 25 bd
       0.07619854 0.14370996 0.079791196 -0.040424712
000100 e2 11 a5 bd b1 8d b6 bd 87 10 df 3d 4d ad 22 3c
       -0.080600515 -0.08913744 0.10891824 0.009929013
000110 ff 61 32 3e 2d 91 46 bc 69 9e c4 bd 4b 2a 84 3d
       0.17420195 -0.012119574 -0.09600527 0.06453379
000120 1a 84 0c 3d 6d b7 cd 3c 6f ac e3 3d a2 c7 d8 3d
       0.03430567 0.025111878 0.111168735 0.10584952
000130 6c 13 1d 3e 65 42 2f 3d 08 e6 40 3d 9d 61 84 3d
       0.1533944 0.042787928 0.047094375 0.06463931
000140 67 00 b3 bd c1 36 41 bd 68 6a 71 be 8f c1 23 be
       -0.08740311 -0.047171358 -0.23575747 -0.15991805
000150 fa a6 a3 bd 27 94 0d 3d 56 ed d3 3d 0d 0e 1d 3e
       -0.079908326 0.034565117 0.103480026 0.15337391
000160 23 9d ba 3c ce bc 64 3d fe ee 8d 3e c2 72 88 3e
       0.022780007 0.05584412 0.277214 0.26650053
000170 6d 1f 6b 3c fb 47 7b bd 94 09 22 3e 51 6f 7a 3e
       0.014350754 -0.061347943 0.15823966 0.24456526
000180 72 db 4c bd 60 6a 05 3e c7 9a a9 3c ff 50 1f be
       -0.050013967 0.1302886 0.020703686 -0.15558241
000190 70 dd 0e be 77 6a 41 be 3b 72 bb bd 63 0d 88 3d
       -0.13951659 -0.1888827 -0.09152647 0.06643178
0001a0 a7 1c f2 3d f6 b4 87 3e fa bf f6 3d 13 61 7d 3e
       0.11821871 0.2650525 0.120483354 0.24744062
0001b0 0b c5 5f bc 9b 5a c8 3d 9b 7c 8f 3c 67 ab d9 3d
       -0.013657819 0.097829066 0.017515471 0.106283955
0001c0 b0 30 e7 3c 6c 52 90 3e 6e 2c 7f be 7a 25 9c bd
       0.028221458 0.28187883 -0.24919292 -0.076243356
0001d0 4b b8 68 3e f1 8d 4a bd dd b5 55 3d 2a 8a 07 3e
       0.22726552 -0.049451772 0.05217539 0.13236299
0001e0 83 0a 24 3e 4a a1 c2 bd 3e c4 2b bd 12 da 43 3e
       0.16019635 -0.0950342 -0.041935198 0.19126156
0001f0 cd cf 7e bd 70 90 da 3c a3 9e 78 bd 32 fa 6a 3c
       -0.062209893 0.026680201 -0.060698163 0.014341878
000200 ef 1c ba bd 12 b9 87 3d d3 86 51 3e f1 a1 8a 3e
       -0.0908755 0.06627096 0.20461588 0.27076676
000210 f2 87 e8 3e 2c 63 f8 3d a5 10 80 3d 8d 3d 76 3e
       0.45416218 0.121282905 0.06253175 0.24046917
000220 02 35 0d 3d 4a 11 0d 3e 38 e4 81 3d 68 43 4b 3d
       0.03447438 0.13776127 0.063423574 0.04962483
000230 54 51 c6 bd ea 58 bf 3e db c1 91 3c 2f 1f 39 3e
       -0.09683481 0.37372524 0.017792633 0.18078302
000240 4d e0 97 bd 75 66 58 bd 64 7d 89 3d ea 48 2c 3d
       -0.07415829 -0.052832086 0.067133695 0.042061724
000250 38 67 d3 3d b4 80 bc bd c0 34 0f bd 18 37 d3 bd
       0.10322422 -0.09204236 -0.034962416 -0.10313243
000260 ce c7 c9 3d a8 2e 28 3e 26 75 69 3e ee fa 40 3e
       0.09852563 0.16424048 0.22798595 0.18845722
000270 55 1b b5 3d d4 be 1e 3e bf aa 94 3e 38 d1 a0 bd
       0.08843104 0.15502483 0.2903652 -0.07852405

exp_avg f4 [1, 40]
000000 36 48 e2 38 a1 a9 fe b7 87 fe 6a 38 6f 89 2f b8
       0.0001078997 -3.035815e-05 5.6026995e-05 -4.1851246e-05
000010 e3 49 72 b8 05 5a 4c 38 2e 1c a4 b7 8f 11 2c b7
       -5.776611e-05 4.8721227e-05 -1.9563446e-05 -1.0256087e-05
000020 6c da 00 b8 8c 8c d2 b8 2a 31 c0 b8 89 2d 9e b8
       -3.0721e-05 -0.00010039759 -9.164431e-05 -7.542509e-05
000030 79 1b 88 b7 57 cb 69 b8 57 35 ad b7 17 db 07 b9
       -1.6225256e-05 -5.5740904e-05 -2.0648045e-05 -0.0001295622
000040 53 76 5b b8 c8 a3 b6 b8 67 88 cc 38 c8 47 ee 38
       -5.2323867e-05 -8.708943e-05 9.752885e-05 0.00011362095
000050 c1 09 77 38 09 2a 0c 39 e4 62 86 37 2c c1 7d b8
       5.8898473e-05 0.000133671 1.6020094e-05 -6.0499806e-05
000060 77 52 75 b8 ff 76 2c b8 49 8e 26 38 43 24 bb b8
       -5.8489353e-05 -4.111882e-05 3.9709998e-05 -8.923609e-05
000070 9b 9f 06 b9 d6 cc 1a b8 bc 15 33 b7 bf 1d 01 38
       -0.00012838694 -3.690723e-05 -1.0674292e-05 3.07837e-05
000080 54 eb b6 b8 2d 29 a9 b8 5d a4 b6 b8 c5 65 8a b7
       -8.7222696e-05 -8.0662176e-05 -8.709051e-05 -1.6498272e-05
000090 e2 79 f5 b8 19 19 c7 37 e5 71 f9 36 2f 79 a0 b8
       -0.00011705213 2.3734336e-05 7.4340373e-06 -7.651967e-05
