lightning_logs/version_23/checkpoints/epoch=4-step=250.ckpt (torch, 689262 bytes, 33 tensors)

model.param_proj.proj.0.weight f4 [1, 64]
000000 37 b8 6e 3e ac d1 d2 bd a5 ac df bd 5a b7 2f 3e
       0.2331246 -0.10293898 -0.10921601 0.17159787
000010 12 6f 11 3e 5f 09 f8 bd e5 14 1f be 4a 21 3d 3e
       0.14202526 -0.121111624 -0.15535314 0.1846973
000020 a4 ae 79 3e f8 0b 00 be 80 82 a6 3d b3 ef 1f 3e
       0.24383026 -0.12504566 0.0813036 0.15618782
000030 4f 2e 77 3e 4c d8 c1 bd a7 89 bf 3d ee c3 cc 3d
       0.24138759 -0.094650835 0.09352427 0.09998308
000040 a7 98 8c bd 5e f3 18 be 84 e2 c4 3d be 1e eb 39
       -0.068650536 -0.14936587 0.09613517 0.00044845598
000050 43 f1 73 3d 66 14 ce bd 86 ef 98 3d fc b4 b7 3c
       0.059556257 -0.100624844 0.074675605 0.022425167
000060 3f f1 fb 3c 15 9f 24 bd df c3 25 3d 16 67 ad bd
       0.030754684 -0.040190775 0.04047 -0.08466928
000070 d4 26 0e 3e d3 79 10 bd d9 5c da 3d ac 7c 1b 3e
       0.13881999 -0.03527243 0.106622405 0.15184277
000080 a6 dd 1e be 38 07 d6 3d 3a 1e 55 3b a6 18 b7 bd
       -0.1551424 0.104505956 0.0032519237 -0.08940248
000090 80 97 60 be 41 4f 2f be 07 87 99 bd 4b ea ac bd
       -0.21932793 -0.17120077 -0.074964575 -0.08443125
0000a0 e4 f5 58 be 45 8f 9b bd f8 bd e1 3c 21 92 8a bc
       -0.2118755 -0.07595686 0.027556404 -0.016915383
0000b0 6d fc bb 3d f6 32 2c be a5 a5 2c 3d 55 9a 10 be
       0.09179006 -0.16816315 0.04215016 -0.14121373
0000c0 d1 69 fd bd 91 56 f7 3d 7a 52 b2 3d 71 0e 1b 3e
       -0.123736985 0.12077058 0.087071374 0.15142228
0000d0 ca 14 de bd 53 3e 8c 3d 07 6e 69 be 05 29 30 bb
       -0.10843809 0.06847825 -0.22795878 -0.0026879918
0000e0 25 72 35 be a8 67 9f 3c 24 85 b8 3d 67 97 6a be
       -0.17719324 0.019458607 0.090097696 -0.22909318
0000f0 d6 4e 93 bc 9e 39 da bd 36 10 b2 bd e6 76 b0 3d
       -0.017981928 -0.10655521 -0.08694498 0.08616428

model.param_proj.proj.1.weight f4 [1, 64]
000000 8b 79 31 3d 33 71 ea 3d 46 0b c9 bd c5 52 05 bd
       0.043328803 0.11447372 -0.09816603 -0.03254964
000010 5e 04 d9 bd 5d f0 27 bc fc d8 52 bd a6 c7 d4 ba
       -0.10596536 -0.010250178 -0.051476464 -0.0016233816
000020 10 40 b8 3c f9 ba 31 3d 6f 0e 90 bd 21 1b cf 3c
       0.022491485 0.0433912 -0.07034003 0.02528149
000030 d3 70 d7 3d 99 1a 44 bd 4e cb 91 bd 7b d5 6e 3d
       0.105195664 -0.047876928 -0.071188554 0.05830906
000040 a3 aa 99 3c ba af 97 3d 49 93 0d be 49 e7 d3 3c
       0.018758124 0.07406564 -0.13825716 0.025867121
000050 ee 80 1c be 0d da 81 bc 86 1c d4 3c 63 30 6e 3d
       -0.15283558 -0.015851045 0.025892507 0.058151614
000060 11 8e 0e be 5c 9f 36 bc 4a c0 e8 3d ac f5 7a 3d
       -0.13921382 -0.011146393 0.11364801 0.061269447
000070 9d 5b 8f bd 15 40 01 be b6 52 0d 3d 3b bd 18 be
       -0.06999896 -0.12622102 0.034502707 -0.14915936
000080 bb 70 96 bd d0 46 d6 bd 8e ff 96 3d 50 bd f8 3d
       -0.073457204 -0.10462725 0.07372962 0.121454835
000090 32 56 95 3c ef fb 03 be 66 59 7b 3d 22 82 f3 3c
       0.018229578 -0.12889074 0.061364554 0.029725138
0000a0 c6 1f 7e bd 4b 47 a9 3d e6 11 62 bd 7f d8 c6 bb
       -0.06204202 0.08265551 -0.05519285 -0.006068289
0000b0 b9 5b 71 3d 84 f6 60 3c e5 d9 c3 bc ce 33 36 3b
       0.058925364 0.013730649 -0.023907611 0.0027801874
0000c0 ea 5b a3 bd 2d 5d 8d bd 00 58 3f 3d 73 0e 20 3d
       -0.079765156 -0.069025375 0.046714783 0.03907628
0000d0 f9 46 8e 3d 95 a1 d7 3d 43 d9 a5 bc 9a 7e 47 3d
       0.06947131 0.10528866 -0.0202452 0.04870472
0000e0 22 1d 58 3a 90 eb 13 3d 82 00 f2 bd 55 a9 d8 bd
       0.0008244087 0.03611332 -0.11816503 -0.105791725
0000f0 42 a4 d2 bd cf 89 b2 bd ce 39 07 bd 97 28 ab bb
       -0.10285236 -0.08717691 -0.03301411 -0.0052233445

model.param_proj.proj.2.weight f4 [1, 64]
000000 b1 10 ca bd 41 5c 10 3e bb c2 b9 3d 7f 9d 55 bd
       -0.09866465 0.14097692 0.09070345 -0.052152153
000010 6a c4 bb bd ea 73 13 bd 07 2d 78 bd 09 5c e8 bd
       -0.091683224 -0.035999216 -0.060589816 -0.11345679
000020 9f 3e c4 bd aa 66 57 bd f2 dc 0b 3d dc 3b d8 3c
       -0.095822565 -0.052588142 0.034146257 0.02639573
000030 b8 f9 a9 3d e8 48 19 bd f1 d4 0f be b1 6d ff bc
       0.08299583 -0.037423044 -0.14046074 -0.031180235
000040 e6 4a 17 be 40 8a 77 3d b5 b0 83 3d 65 8a 1a be
       -0.14774665 0.06043458 0.064301886 -0.15091856
000050 12 4e e7 bd 1d 58 e2 bd 09 17 05 be 80 ec 90 bd
       -0.112941876 -0.110519625 -0.12997068 -0.07076359
000060 60 42 dd bd ad bb 03 be d7 71 c6 bd 35 ee 09 be
       -0.10803676 -0.12864561 -0.09689682 -0.13469775
000070 79 ef 2f bc 52 6b c8 3d 89 29 04 3e c8 5e 80 3c
       -0.010738247 0.09786095 0.1290647 0.015670195
000080 16 f4 9b 3d 7c bb 80 bd f1 c1 21 be 56 97 2d 3d
       0.07614915 -0.0628576 -0.15796639 0.042380653
000090 bb 04 c9 3d 51 68 17 3e b8 b8 95 bd 69 56 a2 bd
       0.098153554 0.14785887 -0.07310623 -0.07926638
0000a0 56 99 17 3d c8 cf f1 bc d0 da 23 bb bc 9e f0 3d
       0.037011467 -0.029518023 -0.0025002249 0.11749026
0000b0 a0 fb 09 be 1c 41 af 3c 5c 33 d4 3c 23 44 23 3e
       -0.13474894 0.021393351 0.025903396 0.15943961
0000c0 b8 a0 1f 3e 9e d3 0f 3e 94 3b 86 3d ad ea 42 be
       0.15588653 0.1404557 0.065543324 -0.19034834
0000d0 0a 91 22 be a1 45 2a 3d c9 15 70 3c c2 c8 4e 3d
       -0.1587564 0.04157031 0.0146536315 0.050484426
0000e0 43 40 f0 3d ea d7 84 bc fe fc eb 3d 92 a4 1b bd
       0.11731007 -0.016216237 0.11522864 -0.037998743
0000f0 19 3b 25 bd 2f 9f db 3c bc b9 ab bd 02 91 f4 3c
       -0.040339563 0.026809303 -0.083850354 0.029854301

model.rnn.weight_ih_l0 f4 [256, 21]
000000 29 00 6e 3d 7a 74 37 3e ae 0b b2 3d 8f ba 04 3e
       0.05810562 0.17915526 0.08693634 0.12961791
000010 ba 83 1e 3e 8f ed 73 bd 6e a5 41 bd 0c ce 38 bd
       0.15479937 -0.059552725 -0.047276907 -0.045118377
000020 8b 88 55 3d 97 3f cd 3d 10 51 55 3d 0a cd 2d 3e
       0.05213217 0.100218944 0.05207926 0.16972747
000030 db c3 91 3c ac 7c ed 3d 02 29 57 3d 45 ff 0e 3e
       0.017793586 0.11596045 0.052529342 0.13964565
000040 d4 91 22 3e 71 b3 cf 3a f0 d6 d0 3d e9 bd fa bd
       0.15875942 0.0015846324 0.10197246 -0.12243254
000050 ae 57 02 bd a4 60 ac bb cf 26 8e 3d c3 94 62 bd
       -0.0318219 -0.005260544 0.06940996 -0.05531765
000060 8e ce 87 3d e6 4b 2e 3c 34 0c 08 3e 08 19 0c 3e
       0.06631194 0.010638213 0.13285905 0.13681424
000070 5a 71 34 bd 52 2d b8 bd 2a 92 9f 3d 3e 0a 34 3d
       -0.044053413 -0.08993019 0.077915505 0.04395508
000080 7f 8f f8 3d 91 9c b1 bd 98 32 e1 3c 65 34 1c 3d
       0.12136745 -0.08672441 0.027489945 0.038135905
000090 bd 0a b5 bd 31 f7 9d bd 34 77 8d bd f3 4a 4f bc
       -0.08839939 -0.07713164 -0.06907502 -0.012652147
0000a0 c9 98 8a 3e 11 d3 a1 3d 4a 6d d0 3d 56 95 1f 3e
       0.2706969 0.07901586 0.10177095 0.15584311
0000b0 69 ba 33 3d 40 ca 0a bd 9a b5 82 3d 67 43 33 bd
       0.043878946 -0.033884287 0.06382294 -0.04376545
0000c0 d7 e8 7d 3d 89 5b 8e bd fa e8 f8 3c 59 87 0d bd
       0.06198963 -0.06951053 0.03038453 -0.034552906
0000d0 78 3a af bd ab 4e 0d 3e ba 70 a8 3d 50 c1 b7 3d
       -0.08556074 0.1379954 0.08224626 0.08972418
0000e0 d3 30 08 3e ef ff 0b bd 3e 8e 2d 3e 3e fe 2f 3d
       0.13299875 -0.034179624 0.16948792 0.042967074
0000f0 a2 72 34 3e 62 50 38 3e b7 31 e3 3d d1 00 31 3d
       0.17621854 0.17999414 0.11093467 0.04321367
000100 a5 ef 74 bd c7 21 7e 3c ad cf 7a bc 90 57 ca 3d
       -0.059798855 0.015510983 -0.015308303 0.098799825
000110 d5 ad f7 bd 97 72 c8 bd 28 92 e3 3d fb d6 88 bc
       -0.12093703 -0.09787481 0.111118615 -0.016704073
000120 2f bf 80 bc 24 d9 4e bd 8d bf 28 bd 18 81 03 be
       -0.015716163 -0.05050005 -0.041198302 -0.12842214
000130 d9 76 83 3b ac a8 3d bd fe 8d 2d bd 5e 58 9d 3d
       0.0040119705 -0.046303436 -0.042371742 0.0768287
000140 09 32 f1 3b 33 9c 5c bd de f4 70 3e f0 6b a3 3d
       0.007360701 -0.0538599 0.2353091 0.07979572
000150 23 db 81 3d c7 9a 2e 3e 62 df 89 3c 2d 3a 8b bc
       0.06340625 0.1705123 0.01683015 -0.016995514
000160 d6 45 84 3d 72 6d 47 bd 82 73 37 3e 6e fe e7 3d
       0.06458633 -0.04868836 0.17915156 0.113278255
000170 13 4b 95 3d 17 a4 27 bd 4a 9a 1e 3b 93 51 f4 3d
       0.0728971 -0.040927973 0.002420085 0.119296215
000180 8a 0b 18 3e c0 22 30 3e e6 6b 9f 3d 0b ce ad bc
       0.14848152 0.17200756 0.07784252 -0.021216413
000190 20 22 29 bc 7a 71 08 3c b1 20 af bb 50 ba 81 bd
       -0.010323077 0.008327836 -0.0053444733 -0.063343644
0001a0 7a 54 3e 3d fd fd 13 3e fb da 91 3c 82 ac 26 3e
       0.046467282 0.14452358 0.017804613 0.16276744
0001b0 04 1f 50 3b 08 ee f0 bc 3c a6 67 bd e4 c5 98 3d
       0.0031756768 -0.029410377 -0.056555018 0.0745962
0001c0 b8 cd 13 3e 70 f4 f3 3d 9c 93 09 bd bd 63 89 3c
       0.14433944 0.11911857 -0.033588037 0.016771192
0001d0 c1 10 0a bd 30 94 a4 bd 7d c6 87 3d 87 bc 2d bd
       -0.033707384 -0.08036077 0.066296555 -0.04241612
0001e0 57 4a 15 3c 05 e2 89 3d ce 07 9c 3d 54 a7 9d 3c
       0.009111962 0.06732563 0.07618676 0.019244827
0001f0 f8 f4 52 bd 7f 82 f4 3b fc ca c0 3d 05 e9 05 3e
       -0.05150315 0.0074618454 0.09413716 0.13077171
000200 7f 79 a1 3d d9 f6 51 bd b3 f1 1c 3d 09 65 34 bd
       0.07884502 -0.051260803 0.03831644 -0.044041667
000210 be 82 ba bb 59 c6 31 bd c4 6a 23 3e 42 7a 04 3d
       -0.005691855 -0.04340205 0.15958697 0.032343157
000220 a8 86 8b 3d 64 30 47 3d 7e a7 7f bd 91 d0 13 ba
       0.06812793 0.048630133 -0.062415592 -0.0005638684
000230 33 a0 ca 3c 3b 96 f2 3c 5b 1e 2d 3e 02 93 47 bd
       0.024734592 0.029612651 0.16906111 -0.048724182
000240 3e b1 cb 3c f7 d8 85 3d 05 7e ec 3d 7d 32 95 3d
       0.02486479 0.065355234 0.11547474 0.072850205
000250 95 7f 9c 3d 1c 7a 1c 3e b0 7f a3 3d 82 23 6b bd
       0.07641522 0.15280956 0.07983339 -0.05740691
000260 a5 24 37 3e 76 74 bc 3c 38 fc e2 3d 2d 84 25 3e
       0.17885073 0.023004752 0.11083263 0.16163702
000270 15 0b c2 3d 33 97 1d 3e 15 06 dd 3d 16 d9 a5 3d
       0.0947477 0.15389709 0.10792176 0.080980465
000280 8e e9 ab 3c 91 33 01 bd fd 6d 88 3d da 11 3d 3e
       0.020985391 -0.03154332 0.066616036 0.18463841
000290 9c 69 f3 bc 94 ea 09 bd 17 7d 05 be 9d c5 22 3e
       -0.029713444 -0.033670977 -0.13035999 0.15895696
0002a0 aa 01 59 bd 14 67 36 bd 0d a4 ad bc a5 72 1f bd
       -0.052980103 -0.044531897 -0.02119639 -0.038927693
0002b0 90 b4 b3 bd 3c bf 1a 3d a0 f5 cb 3d 6f d0 df 3d
       -0.08774674 0.03778003 0.099589586 0.109284274
0002c0 e2 27 60 bd 28 2f 8c 3c 49 01 25 bd d4 5e 54 3d
       -0.054725535 0.01711233 -0.04028443 0.051848248
0002d0 5f 0f cc 3d 6a 84 01 3e 71 ec a1 3c e2 66 9b 3d
       0.09963869 0.12648168 0.019766064 0.07587983
0002e0 53 8f 57 bc 2a 01 ab bd b3 b0 f7 3c 83 6f 07 be
       -0.01315673 -0.083498314 0.030235624 -0.13226132
0002f0 e2 58 6d 3d 63 7f 1e 3d 74 77 4f bd f1 6c 38 3d
       0.057946093 0.038695704 -0.05065103 0.04502577
000300 57 7b 40 3b f0 86 ef 3c 8e 94 d8 3d eb d2 6c bd
       0.0029370391 0.029239148 0.105752096 -0.057818335
000310 3e 2d 38 3e 34 63 1c 3d b2 86 b6 3d bd c2 2e 3c
       0.17986009 0.038180545 0.0891241 0.010666546
000320 0e 5d 9e 3d 0b 68 e4 3d 8b 91 9f 3b d8 5a ca 3d
       0.077325925 0.11152657 0.004869645 0.09880608
000330 e8 8e 0f 3d 31 fd e2 3d 9a fe b7 3d f4 2b 84 ba
       0.035048395 0.11083449 0.08984108 -0.00100839
000340 61 b0 ce 3d 46 cb 33 bd 71 b0 91 bc d4 b7 1e 3d
       0.10092235 -0.04389503 -0.01778433 0.03874953
000350 d2 d2 75 bd 33 5b 6c bd 03 6d 17 3d 03 31 20 bd
       -0.060015507 -0.05770416 0.036969196 -0.03910924
000360 d3 24 25 3c 30 90 8c 3d 50 ac 23 bc f3 b8 b4 3c
       0.01007958 0.06863439 -0.009989813 0.022060847
000370 bf 3d 32 bd c2 4e 07 bb c8 b6 b4 bd 91 df 43 3d
       -0.043515917 -0.0020646309 -0.08823925 0.04782063
000380 bc 82 09 3b 0b 3a a2 3d 99 af 11 3e 67 af 14 bd
       0.0020982465 0.07921227 0.14227141 -0.03630009
000390 63 53 87 3d aa 6b 0d 3e 9d 46 b7 bc fe 95 fc bc
       0.06607702 0.13810602 -0.022372538 -0.03083324
0003a0 0d 8a 8f bc 73 d9 cc bc 6d 36 08 3e b1 05 98 bd
       -0.017521882 -0.025006032 0.13302012 -0.074229605
0003b0 93 68 a5 3d 42 bf 9b 3c 91 77 0d 3e 4e 32 8f 3b
       0.080765866 0.019012097 0.13815142 0.0043700105
0003c0 ef fc 79 bd 04 aa af 3d d3 be 93 bd 8f 04 d4 bd
       -0.061032232 0.0857735 -0.07214131 -0.10352432
0003d0 0f b9 fd 3d 67 e4 ec 3d da 10 96 bc 20 50 34 bd
       0.12388813 0.11567002 -0.018318582 -0.044021726
0003e0 79 60 87 3d 50 47 96 bc 07 c5 17 3d 53 34 4f 3d
       0.066101976 -0.018344551 0.037053134 0.05058701
0003f0 6d 66 d4 3c 9f 8c 81 3d ed 39 25 3e 03 c8 02 3e
       0.025927747 0.063256495 0.16135378 0.12771611

model.rnn.weight_hh_l0 f4 [256, 64]
000000 68 6a 12 3d 24 36 2f 3d 85 36 91 bc c2 b3 bc 3c
       0.03574601 0.042776242 -0.017726192 0.023034934
000010 c7 a6 d1 bd 81 26 2a 3d 9c d5 09 3e 59 09 10 bd
       -0.102368884 0.041540626 0.13460392 -0.035165165
000020 f4 ec d9 bb 13 d0 9d 3a ed f5 93 3d 21 aa a1 bd
       -0.0066505615 0.001204016 0.07224641 -0.07893778
000030 a8 20 02 be 63 72 ad bc d5 f7 89 bd e8 dc 9f 3d
       -0.1270777 -0.021172708 -0.06736723 0.078058064
000040 2c 4f e3 bd 95 5e c6 bc da 9c 8b bd eb 97 04 3c
       -0.11099085 -0.024215022 -0.068170264 0.008092861
000050 a2 fd 02 be 04 4a 06 be 39 eb 02 3e 81 b3 ec 3d
       -0.12792066 -0.13114172 0.12785043 0.11557675
000060 76 c4 a2 bc 63 ab a9 bd 03 0b 24 3d 4a 58 c1 3d
       -0.01986907 -0.082846425 0.040049564 0.09440668
000070 f0 19 b2 bc cb 23 d8 3d 88 8c d6 3d 1a 31 a2 3d
       -0.021740884 0.10553702 0.10476023 0.07919522
000080 77 74 57 3d 86 25 64 3d 2d 1f d8 bd 62 86 d9 bc
       0.052601304 0.055699848 -0.10552821 -0.026553337
000090 ac c6 f9 3d 91 61 24 bc bc 20 fa 3d f0 0d ed 3b
       0.12196097 -0.010033027 0.12213275 0.0072343275
0000a0 e1 4e ee 3d c1 ab cb 3d f8 00 0a 3e d3 ae aa bc
       0.11636139 0.09944869 0.13476932 -0.020835316
0000b0 8d 95 4f 3d 8f 8a 25 be 27 5d 93 3c 3b a1 40 3c
       0.050679732 -0.16166137 0.017988754 0.01175719
0000c0 7b 46 be 3d f2 6f 7f 3d b6 1b ac bb 0f 62 c3 bd
       0.09290787 0.06236262 -0.005252327 -0.095401876
0000d0 88 17 04 be 4e 85 12 3d f6 5a ef 3d b5 c1 9a bd
       -0.12899601 0.03577166 0.11687271 -0.07556478
0000e0 48 df d9 3d 8c 78 87 bc f3 80 09 3e 72 2f 9a bd
       0.10638291 -0.016536973 0.13428096 -0.07528581
0000f0 34 34 dd 3d 05 8b e9 bd 03 99 b8 3d 58 80 b0 bd
       0.108009726 -0.11403469 0.0901356 -0.0861823
000100 ea 71 51 3d d4 47 a8 3d 7b b0 50 bd bb 3c 04 3e
       0.051134028 0.08216825 -0.050949555 0.12913792
000110 e0 18 de 3b af 3b 23 ba bc 2b 99 3c 93 0d c2 3d
       0.0067778677 -0.000622685 0.018697612 0.09475245
000120 5a 33 9e 3d dd f3 e0 3d c9 b8 8d 3d 23 15 fa 3d
       0.07724638 0.10984013 0.069200106 0.12211063
000130 52 1f 3d 3d 56 28 f4 bd c0 d2 87 bc 8f 1e d9 3c
       0.046172448 -0.11921756 -0.016579986 0.02650383
000140 2d e6 72 3d f4 9e 7b 3d 7c 38 bd bd 01 05 b8 3d
       0.059301544 0.061430886 -0.09239289 0.089853294
000150 5b 58 40 3d 05 04 4f 3d 15 6e 9a 3d eb 38 07 3d
       0.046959262 0.050540943 0.07540528 0.033013266
000160 4d a5 b3 3d bb 6f 47 bd 0a cd d6 bd a1 cd 1e bc
       0.08771763 -0.04869054 -0.10488327 -0.00969258
000170 05 3e ed bd 0d 24 24 bd 49 4f 89 3d 61 b2 15 be
       -0.11584095 -0.040073443 0.067045756 -0.14618827
000180 17 cd 29 bd 00 74 0c be de de 5f 3c 2d ae ac 3d
       -0.041455355 -0.13716125 0.0136639755 0.08431659
000190 03 02 fe 3c a7 0e e8 bd 4d 98 7d bd 6d 70 cc bd
       0.031006819 -0.1133092 -0.061912823 -0.09982381
0001a0 be 58 a8 bc 3d ee 9e bd a4 6d 8a bd ad 82 45 bd
       -0.020550128 -0.07760284 -0.067591935 -0.048220325
0001b0 7a 46 d5 3d e9 cf 95 bd d1 3d 88 3d 0d f5 68 3b
       0.10413833 -0.07315046 0.066524155 0.0035546452
0001c0 9e 41 68 bd 8b bc 80 3d 75 b4 56 bc 21 be 1a 3d
       -0.056703202 0.06285962 -0.013104548 0.037778977
0001d0 52 08 8a bd f5 18 e1 bd 0c 47 38 3e b3 71 a5 3a
       -0.06739868 -0.10991088 0.17995852 0.0012622386
0001e0 63 59 b0 3d e7 fd cf 3d c1 6b 1a bd 7a dd 46 3c
       0.08610799 0.1015585 -0.03770042 0.012137765
0001f0 50 e2 9d bd 0e c2 76 3d 0e fa b8 bc a7 3c b0 bd
       -0.07709181 0.06024366 -0.022580173 -0.086053185
000200 f9 be fa 3c 4a af c3 bd 22 c0 6f 3d 50 4b 06 bc
       0.030608641 -0.09554918 0.05853284 -0.008196667
000210 20 b3 1d bd 41 96 74 3d 9b ff de 3d 54 ac e7 38
       -0.038500905 0.059713606 0.108885966 0.00011047037
000220 58 e0 89 bc 0a 8b 88 3d 28 6e 0f bd 1f 37 03 be
       -0.016830608 0.066671446 -0.035017163 -0.12813996
000230 39 98 19 be ee 8b de bd 92 b6 13 3e 19 bf ee 3d
       -0.14999475 -0.10866533 0.14425114 0.11657543
000240 8e 08 3a bd f4 47 c0 3c 7d 53 25 bd cc 1f 27 3d
       -0.045418315 0.02347181 -0.040362824 0.04080181
000250 b4 f3 da bc 90 ae 5e bd 90 b8 88 bd b0 d4 1a 3d
       -0.026727535 -0.054365695 -0.066758275 0.03780049
000260 cd ee 19 bd 87 fb c5 3d 88 de 8f 3d ac d1 aa 3d
       -0.037581254 0.09667116 0.07024866 0.08340773
000270 58 7a 15 be 4c 53 8e bd 80 1e 0a 3b 74 fb d7 bd
       -0.14597452 -0.06949481 0.0021075308 -0.10546008
000280 67 37 26 bd 50 9c 06 be ef c6 90 bc 6d 0f 93 bd
       -0.04058018 -0.13145566 -0.017672984 -0.071806766
000290 37 a6 b9 3c c1 f8 7a 3d 9f 6e e1 3d ab 81 0e 3e
       0.022662265 0.061272386 0.110074274 0.13916652
0002a0 b0 48 10 bc 39 bc d1 3d 34 6d ee bd 0d 0c cf bd
       -0.008806393 0.10240979 -0.116419226 -0.101097204
0002b0 c6 96 ef bb b0 2a f4 bd e2 89 84 3d 16 e2 76 3d
       -0.0073116748 -0.119222045 0.064716116 0.060274206
0002c0 2b e1 8f bd a1 4b 24 bd 8f 7a 0d 3b b2 46 d4 3d
       -0.07025369 -0.040111188 0.0021587943 0.103650466
0002d0 66 73 5c 3d be 99 e0 bb ff 79 07 3e 99 a8 79 ba
       0.05382099 -0.006854265 0.13230132 -0.0009523719
0002e0 8a 77 a8 3c 4a 83 17 bd b9 15 85 3d 0d 0d 45 bc
       0.020564813 -0.03699044 0.06498284 -0.012027037
0002f0 6d 77 04 be d4 13 e5 bd 17 8a 50 bc 09 b4 b0 3d
       -0.12936182 -0.111854225 -0.012728236 0.08628089
000300 3d 0f 39 3b 04 3d f4 3d d2 c5 19 bd f9 dd a2 3c
       0.0028237842 0.119257 -0.03754217 0.019881235
000310 77 b4 82 3d 47 86 cd bd 35 37 8e 3d 1c dd a7 3d
       0.06382077 -0.10035377 0.06944124 0.0819647
000320 d4 fe 8c 3b 9e b2 22 3d a8 4d 31 3c fc fe d7 bc
       0.004302839 0.039721124 0.010821737 -0.026366703
000330 ba f5 b5 bd 11 8b a1 bd 81 3e 7c 3d 94 7b a0 bd
       -0.08884759 -0.07887853 0.061583046 -0.07836071
000340 c0 6e 8c 3d 21 a4 7d 3d f1 13 af bd a6 35 a7 bd
       0.068570614 0.061924104 -0.085487254 -0.081645295
000350 b3 7e 36 bd 9a 2e 17 bc 1f e7 8f 3d c5 cf 19 3c
       -0.044554424 -0.009227419 0.07026505 0.009387915
000360 db 9d f8 bd c8 92 c5 3d dd e2 4b bd 10 43 e6 bd
       -0.121394835 0.09647137 -0.0497769 -0.1124326
000370 ee ad 94 bd eb b1 89 bc 42 2d f3 3d 9a 51 ab 3d
       -0.07259737 -0.01680847 0.118738666 0.08365174
000380 e0 1d fd 3c 38 37 6f 3c 75 6a a9 bd 7e 74 0f 3d
       0.030898035 0.0146005675 -0.08272258 0.035023205
000390 4e 4a f5 3c ad f4 f2 bd ef 1a bf bd 5c c1 86 3d
       0.029942658 -0.118630745 -0.09331309 0.06579849
0003a0 72 a1 92 bb 6f 7b cf bd 8b 5b 07 3d 23 fd 8d 3d
       -0.004474812 -0.10130965 0.033046287 0.069330476
0003b0 d9 a2 e8 bd 02 44 99 bb 08 45 da bc 05 c2 cf 3d
       -0.11359186 -0.0046772966 -0.026644245 0.10144428
0003c0 dd 09 14 be 50 b4 2d bd fd 46 70 3c ea 09 c3 bd
       -0.14456888 -0.042408288 0.014665362 -0.09523375
0003d0 32 54 cb 3d a2 50 6b bd 10 f1 73 3d f3 ae 28 bd
       0.09928168 -0.057449944 0.059556067 -0.04118247
0003e0 1c e7 85 bd 27 3b ce bc 80 6b 23 bd 73 08 52 bd
       -0.06538221 -0.02517469 -0.039897442 -0.05127759
0003f0 dd 57 79 3d fb d5 07 be 8f 2c 97 3c b5 e9 8d 3d
       0.06087481 -0.13265221 0.018453864 0.06929342

model.rnn.bias_ih_l0 f4 [256]
000000 de e3 26 3e d7 9b 6e ba ea 63 8c 3d 1a 0e e0 bd
       0.16297862 -0.00091022014 0.068549946 -0.1094019
000010 97 de 41 3e be a1 eb 3d 03 3d 09 3e 00 57 11 3c
       0.18932568 0.11505459 0.1340218 0.00887084
000020 e0 5f 80 bc 44 44 32 3e a6 f2 21 3d 0a 54 98 3c
       -0.015670717 0.17408854 0.03953805 0.01859476
000030 fa 71 ac 3c 9e b5 db 3d 6e 44 70 3d 71 ea 1e 3e
       0.021050442 0.10728 0.05865901 0.1551912
000040 a7 62 02 3e 0b 25 4d 3d e1 95 08 3e d8 43 49 bd
       0.12732945 0.050084155 0.13338424 -0.049136966
000050 9c ab e3 3c 83 d2 f5 bc ad 48 7d 3d c4 e1 01 3e
       0.02779179 -0.030007606 0.061836887 0.12683779
000060 8e 53 19 3e 41 f3 df 3c a8 2a 75 3d 77 24 4b bb
       0.1497328 0.027337672 0.059855133 -0.0030997077
000070 4f 8d 96 bb d2 9a 35 3e 50 aa 21 3d 25 ef 00 3e
       -0.004594482 0.1773484 0.039469063 0.12591226
000080 62 d4 d0 3c 7f fc 55 3e e2 51 1d 3e d0 b0 94 3d
       0.025491897 0.20897101 0.15363267 0.07260287
000090 f2 58 a4 3d a7 76 9b bd 6d cf 19 3e 0c 6c 15 bd
       0.080247775 -0.075909905 0.15020533 -0.036479995
0000a0 93 2d 16 3e 4f e8 a0 3d 46 17 5e bd b9 4f 69 bd
       0.14665823 0.07856809 -0.054221414 -0.056960795
0000b0 46 c0 54 bd 97 fd 76 3e 7c a0 0d 3d 0e 74 1b 3e
       -0.05194118 0.24120174 0.034576878 0.1518099
0000c0 b8 7a cd bb 30 2a fc 3c 2c 93 2f 3d 64 e9 ef 3d
       -0.0062707327 0.030781835 0.042864963 0.117144376
0000d0 6e 39 77 bb 86 84 ef 3d 8f 03 fe 3d 9f 83 9a bd
       -0.003772344 0.11695199 0.124030225 -0.07544636
0000e0 85 21 95 bd 17 18 f0 ba db f8 90 bd a4 94 27 bd
       -0.07281784 -0.0018317726 -0.070787154 -0.04091324
0000f0 f9 d5 df bc b8 11 bf 3c f6 37 24 3e 39 ec 8c 3d
       -0.02732371 0.023323879 0.16036972 0.068809934
000100 e0 ed 41 bd bb 6a 37 3d ff 39 bf bd cf 6a a0 bd
       -0.047345996 0.04477952 -0.09337234 -0.07832872
000110 01 c1 5e 3d f3 1e c0 bc 1f 31 e6 bd 83 75 9a bd
       0.05438328 -0.023452258 -0.11239838 -0.07541945
000120 e1 09 aa bd 99 7b fe 3d cc b7 4a 3d 35 f9 fb 3d
       -0.083026655 0.12425918 0.04949169 0.12303392
000130 a2 77 88 bd 26 80 b6 3d e7 88 98 bb b5 d6 e9 bc
       -0.06663443 0.08911161 -0.004654992 -0.028544763
000140 ba d4 a8 3d b9 36 de bd 7b 4e 04 bd 2c 24 0a 3e
       0.08243699 -0.10850281 -0.032301407 0.13490361
000150 57 28 63 bd a0 46 96 3d 43 7a 7d bd a4 cb d9 3d
       -0.055458393 0.073376894 -0.061884176 0.106345445
000160 16 f6 c8 3d 5b e1 d3 3d 54 95 fb bc 97 12 ea bc
       0.09812562 0.103457175 -0.030710854 -0.028573317
000170 6d 39 84 3d e3 1b 83 3d b9 ec 31 3c 9e d2 a8 bd
       0.064562656 0.06401803 0.010859662 -0.08243297
000180 29 38 96 bd fc 29 91 bd af a6 22 3e 9a 14 33 bd
       -0.073349304 -0.07088086 0.15883897 -0.04372082
000190 bd 10 83 bc 07 34 19 bd 9e 54 89 3c 85 e1 a5 bd
       -0.015999192 -0.037403133 0.016763981 -0.08099655
0001a0 6c a1 17 3e a9 ca 52 bc e2 65 f3 3c cd 8b 62 bd
       0.14807671 -0.012865701 0.029711667 -0.055309106
0001b0 87 37 bd 3d 77 5c 2e 3d e5 00 2d 3d e9 d8 11 3e
       0.092391066 0.04256865 0.04223718 0.14242901
0001c0 4e 5f e8 bd 23 35 09 bd aa d3 37 3b 1c 4e 5e 3c
       -0.11346303 -0.03349794 0.0028049746 0.013568427
0001d0 0f dd 50 3d 16 57 b7 3d 5b 48 d1 bd 7d c8 f6 3d
       0.050992068 0.08952157 -0.10218879 0.12049959
0001e0 e1 02 8c 3d d6 3e 57 3d 7f c0 7d 3c 89 45 02 bd
       0.068364866 0.05255016 0.015487789 -0.031804595
0001f0 4f 15 8e bc 42 4d da 3d 85 4e c7 bd 70 97 20 3d
       -0.017344145 0.10659267 -0.09731773 0.039206922
000200 19 f3 e1 bd 00 0e f0 3d d9 a1 ff 3d e6 ee 91 3c
       -0.11032695 0.1172142 0.12482042 0.017814111
000210 73 f2 97 bc 4f b4 7f 3d c2 99 bb 3c 7c 68 11 bd
       -0.018548226 0.062427815 0.022900466 -0.035500035
000220 8c 4f ca bd 6c 6a 0e bd 33 7d 11 3e b1 96 7f 3d
       -0.098784536 -0.03476946 0.14207916 0.06239957
000230 14 90 9e bd 40 1a 9a bd c6 04 be 3d 83 29 40 bc
       -0.077423245 -0.07524538 0.09278254 -0.011728647
000240 65 64 3e be 31 1c 8e bc 80 df ee bd 66 d6 55 3b
       -0.18592985 -0.017347427 -0.11663723 0.0032629012
000250 9d 41 e7 bd 55 99 b6 3d 5e f3 f8 bc ab 51 c5 3d
       -0.112918116 0.089159645 -0.030389484 0.096347176
000260 f3 5c 8f bd 1b 1d 08 bc 45 36 9b bd dd 91 42 3d
       -0.070001505 -0.008307721 -0.075787105 0.047502387
000270 79 ee d9 bd f9 52 c1 3c e1 fa c0 bd 6f bf b9 3d
       -0.10641188 0.023599135 -0.09422851 0.09069716
000280 a5 ac 95 bd d8 95 9a 3d 0a ac 2e 3d 95 29 d1 3d
       -0.0730832 0.07548112 0.042644538 0.10213009
000290 55 af 1a 3e 40 26 16 bc 75 40 20 3e 64 e2 a6 3c
       0.15105946 -0.009164393 0.15649588 0.020371623
0002a0 d6 8d 32 be 77 72 59 3d 87 7d ad 3d 61 cc 13 bd
       -0.17436919 0.053087678 0.08471208 -0.036083583
0002b0 4c a0 f9 bc cc a3 d1 bd 56 c0 bf 3c 71 c6 b1 3d
       -0.030471943 -0.1023632 0.023407143 0.08680428
0002c0 a4 5d 07 3e 64 8e bf 3d 85 4b 44 3d f5 9c a1 bd
       0.13219315 0.09353331 0.047923584 -0.07891265
0002d0 21 80 0e 3d 5a 24 da bd 58 9a 97 3c 94 60 e2 3d
       0.034790162 -0.10651465 0.018506214 0.11053577
0002e0 74 de 8f 3c a0 3b 2e be d1 94 a1 bd e4 de 72 3d
       0.017562129 -0.17014933 -0.078897126 0.059294596
0002f0 26 89 11 bd 4b aa 26 3e 24 ae 8a bd f6 3d e9 3c
       -0.035531186 0.16275899 -0.06771496 0.028471928
000300 31 fb 0d 3e 1a f9 03 bd 48 4d e7 3d f1 9c b9 3d
       0.13865353 -0.032219984 0.11294037 0.09063137
000310 8a 33 c4 3a 7b e4 e7 3b 13 7e a4 3c 1b 89 34 bc
       0.0014968973 0.0070767975 0.020079648 -0.011019017
000320 a5 7b cf 3d c8 c2 61 bd d0 fc 92 bc 56 b1 db 3d
       0.10131005 -0.0551174 -0.017942816 0.107271835
000330 d1 c2 39 3e f1 ce 3a 3e c7 5c e2 3c 97 58 af 3a
       0.18140723 0.18243004 0.02763213 0.0013377842
000340 31 4c 6d bd 40 52 88 3d a7 53 03 3e 31 71 90 bd
       -0.05793399 0.06656313 0.1282488 -0.070528395
000350 b6 20 33 3d 56 fc df 3d 98 44 0d 3e 28 cd 69 3d
       0.043732367 0.10936801 0.13795698 0.057080418
000360 68 ea 67 3c 2c 0d ef 3d c7 7d c7 3d cb 13 c2 bc
       0.014155008 0.11672434 0.09740787 -0.023691079
000370 c6 70 0f 3d 46 9e 32 3e 7e c1 e8 3c 2f de c3 3d
       0.03501966 0.17443189 0.028412577 0.095638625
000380 3a 57 65 3e ef 84 81 3d ad f7 21 3e 6d 49 14 3e
       0.22396556 0.06324183 0.15817137 0.14481135
000390 5e bb e0 3c b8 49 b0 3d f4 23 f3 3d 90 94 7b bc
       0.027433094 0.08607811 0.11872092 -0.015355244
0003a0 2f d5 db 3a ba 31 98 3d 5e 47 12 bd bf 76 12 3e
       0.0016771908 0.074313596 -0.035712592 0.1430311
0003b0 6d c7 b4 3c 6e d9 36 3e 43 7f f5 3d 6e 3b cf bc
       0.02206775 0.1785638 0.11987164 -0.025296893
0003c0 2c 00 f6 3c db 6e 4f 3d 65 04 5a 3c d0 3b bf 3d
       0.030029379 0.05064283 0.013306712 0.0933758
0003d0 df 78 e5 bc 65 93 d8 3d 6f 7a 04 3e 66 62 d0 bd
       -0.028011737 0.10574988 0.1293733 -0.10175018
0003e0 5e 9a 38 3d a0 ee 3e bb 92 ac 91 bc 85 25 19 3e
       0.04506909 -0.002913393 -0.017782483 0.14955719
0003f0 78 a8 02 3e d1 ec a9 bc a2 45 04 bc 06 d3 5b 3d
       0.12759578 -0.020742806 -0.008073242 0.053668045

model.rnn.bias_hh_l0 f4 [256]
000000 b6 0d cc 3c 96 93 26 bd 4b 5d 20 bd 82 16 99 3d
       0.024908882 -0.040668093 -0.03915147 0.07474996
000010 38 ce 84 3c 73 b9 d1 bb 6a d0 f1 3d 4b e4 69 3d
       0.016211614 -0.006400281 0.1180733 0.057102483
000020 8b 31 8e 3c 0e d8 24 3d fd 19 b4 3d b7 65 00 bd
       0.017357608 0.04024511 0.08794019 -0.031347003
000030 f4 3e 41 3d 23 d6 77 3e 87 d9 54 3e f1 32 b5 3c
       0.047179177 0.2420278 0.20786105 0.022119017
000040 53 bd 4d 3c f6 ed 92 3d e9 e7 21 bd 02 2a 71 3a
       0.012557345 0.07174294 -0.039527807 0.000919968
000050 cb 24 bb bd 2b e2 e5 3d 6e 16 3f 3e 91 85 1f bc
       -0.09137877 0.11224779 0.186609 -0.009736435
000060 02 c1 e3 3c ff e9 35 3e 19 74 49 bd 30 c6 8b bd
       0.027801994 0.17765044 -0.049182985 -0.06824911
000070 ab 9a 0c 3e 96 9d f0 3d f1 ce d5 bc 49 06 00 3e
       0.13730876 0.11748807 -0.026099654 0.12502398
000080 78 c4 5d bc 42 dd ae 3d 65 18 cd 3d 9a 00 b1 bc
       -0.013535611 0.08538295 0.100144185 -0.021606732
000090 50 f6 f3 3d ab 77 b2 3d da 36 9e 3c 08 2a 95 bd
       0.11912215 0.08714231 0.019313265 -0.072834074
0000a0 90 01 38 3e 22 62 30 3e 96 9e 0c 3d 95 8d 76 3d
       0.17969346 0.17224935 0.034330927 0.060193617
0000b0 ec 4a 8e 3d 34 eb d0 3d 77 79 18 3d 6a b6 d1 3d
       0.06947884 0.102011114 0.037225213 0.10239871
0000c0 87 83 08 bd b3 11 9d bc 0f 9a aa bd c8 2f 1b 3e
       -0.03332856 -0.019173479 -0.083301656 0.15154946
0000d0 75 6b 0e 3e 10 c7 9b 3d 2f 71 4b bc 9d 5a f5 bd
       0.13908179 0.076063275 -0.012417122 -0.11980174
0000e0 72 07 01 3e 61 e4 26 3e 3e 68 b0 3d 89 1d 5a 3d
       0.12600496 0.16298057 0.086136326 0.053250823
0000f0 1d 61 0f 3e ad a6 52 3e b1 2d 0c 3e 3c c1 5f bc
       0.1400189 0.20571394 0.13689305 -0.0136569105
000100 19 ac b5 3d d7 67 9b bd ec 3a 04 3e 8c f8 f4 bd
       0.08870716 -0.07588165 0.12913102 -0.11961469
000110 cf 5d df 3d 6e 4a 62 bc 38 16 29 3d dc 58 6a 3d
       0.109065644 -0.013811691 0.041280955 0.05721365
000120 93 a1 ca 3d 0b 63 5a bd 2e 48 dd bc cd 33 b0 bd
       0.09894099 -0.05331711 -0.027011957 -0.0860363
000130 83 64 7d 3d 70 4d 3d bd 51 3d 16 3d 6b 22 60 3d
       0.061863434 -0.04621643 0.03667957 0.054720324
000140 09 91 77 bc dc b2 88 3d 1d 8c 60 bd e2 ed d4 3d
       -0.015110263 0.0667474 -0.054821122 0.10396935
000150 e7 84 ef bd 42 20 24 3d 2c 33 19 3e b1 00 20 bd
       -0.11695271 0.040069826 0.14960927 -0.03906316
000160 34 c6 7a bc c9 a3 8d bd 82 df 3c bd 52 ad 81 bd
       -0.015306044 -0.06916005 -0.04611159 -0.06331886
000170 37 bf d9 bd 40 6b a9 3d 95 6d 23 3e 2a 46 97 3d
       -0.106321745 0.082724094 0.15959771 0.073864296
000180 5f 83 09 3e 5a 42 16 be c4 2f f1 3d 35 4c f3 3d
       0.1342902 -0.14673749 0.11776689 0.1187977
000190 76 82 0d 3e 0e 31 e3 3c 2d 87 cb 3d a5 86 0c bd
       0.13819298 0.027733352 0.09937892 -0.034308095
0001a0 0c 7f c0 3d 5b 6f a7 3d a7 2f 99 3d 75 38 31 3d
       0.09399232 0.08175536 0.07479792 0.043266732
0001b0 a4 d1 45 bd 49 6a 90 bc ee aa 19 bd 1d a6 04 bd
       -0.048295632 -0.017628806 -0.037516527 -0.03238498
0001c0 15 bc 34 bd e7 d4 6f 3d aa ba f1 bb a7 71 d6 3d
       -0.04412468 0.05855265 -0.0073769884 0.10470896
0001d0 42 27 b2 3d 1e 92 e0 3d 7c d8 a0 3c 62 13 a3 3c
       0.08698894 0.1096537 0.019634478 0.019906703
0001e0 d8 01 8d bd 35 53 6b bb 1d 0c 9d 3d 3a c2 03 3e
       -0.06885117 -0.003590775 0.07668326 0.1286706
0001f0 99 0d 33 bc 2e 3c 3c 3e 0d 78 f9 bc ab 36 03 3d
       -0.010928535 0.18382332 -0.030452752 0.032034557
000200 28 82 aa 3b 13 98 10 3e 2f 07 f9 3d af 6d f9 bc
       0.005203504 0.14120512 0.12159573 -0.030447809
000210 1a fe b5 3c 73 6e 04 bd f7 fb 93 bc 6d 45 08 3e
       0.022215892 -0.032331895 -0.018064482 0.13307734
000220 83 c8 00 bc 6a 9b 1b bd e7 d7 3f 3d d6 d0 92 bb
       -0.007860306 -0.03799001 0.04683676 -0.0044804616
000230 de 4a a8 bd b6 29 eb bd 89 3c b8 bd aa ca 3b 3e
       -0.08217405 -0.11482565 -0.08995921 0.18339029
000240 df 8f cb 3b 5e 6d a7 b9 bb a3 c5 3b fa cf 93 3c
       0.006212219 -0.00031934207 0.006031481 0.018043507
000250 5c b7 17 be 64 cd d6 bc 3a 54 e5 3c 66 56 c1 bd
       -0.1481604 -0.026220985 0.027994264 -0.09440307
000260 65 2a db bd 01 62 a5 bd 71 50 b1 bd 59 fc 30 bd
       -0.107014455 -0.080753334 -0.08657921 -0.043209407
000270 8e be e5 3c 70 17 a7 bd c4 07 1a be 03 dc 83 bd
       0.028044965 -0.08158767 -0.15042025 -0.06438448
000280 e0 f9 32 bc 1b e1 35 3d 42 26 5c 3d 98 1b 91 bc
       -0.010923833 0.04440413 0.053747423 -0.017713353
000290 a7 10 6d 3b dc 4e fa 3d 81 6b 86 bc c0 22 01 3c
       0.0036173256 0.122220725 -0.016408684 0.00788182
0002a0 30 8b 16 3d 14 d1 17 be a0 4a e2 bc c2 e2 c9 3d
       0.036753833 -0.1482585 -0.027623475 0.09857704
0002b0 5f 84 65 bc dc 85 d6 bd 9f f3 cd bd 20 bd be 3d
       -0.0140086105 -0.104747504 -0.10056233 0.093134165
0002c0 e8 cf a7 3d e2 0f f6 bc 83 3a 79 3d 92 27 bc bd
       0.08193952 -0.03003687 0.060846817 -0.09187235
0002d0 44 1e c1 3d 65 e4 ed bd eb b1 ec 3c 38 73 fd ba
       0.09429601 -0.116158284 0.028893432 -0.0019336706
0002e0 ce 25 ca 3d 62 6f 7a bc 4d 98 1b bd 1f af aa bd
       0.09870492 -0.015285345 -0.037987042 -0.08334183
0002f0 5b 48 32 be 46 f8 47 3c f0 72 59 3c f9 1c 11 be
       -0.17410414 0.012205189 0.013272032 -0.14171208
000300 44 68 d9 3c c3 d6 99 3d 0f f7 2d bc cc 62 76 3c
       0.026538976 0.07511666 -0.010617985 0.015038203
000310 f9 8c 74 3d 8e 9d 2e 3e 6a 74 91 3d ec 6d c4 3b
       0.059704755 0.1705229 0.07102282 0.005994549
000320 ec 68 d4 3d 69 78 0c 3e ce e4 fd 3d df eb da 3d
       0.10371575 0.13717808 0.12397157 0.1068952
000330 85 97 12 3e ab 14 5e 3e 94 f6 15 3e 81 8b b9 3d
       0.14315613 0.21687572 0.14644843 0.090598114
000340 dc 0d fc 3d 68 44 bb 3d 72 68 55 3d 9d 5f 2b 3d
       0.12307331 0.09143907 0.05210156 0.04183923
000350 0f d3 0d 3d b6 3f 93 bd 8c ec 90 3d 0f e2 06 3e
       0.03462511 -0.07189886 0.07076368 0.13172172
000360 60 3a 1d bd bd 78 59 ba 54 15 24 3e b9 37 d7 bc
       -0.03838575 -0.00082958845 0.16023761 -0.026271688
000370 bf a6 39 bd c3 11 85 bd 2e ac 97 bd 99 d8 d2 bd
       -0.045325037 -0.064975284 -0.074058875 -0.10295219
000380 0b a3 e9 3d 08 ae 27 3e 46 dd 3e bc e2 67 b6 bd
       0.11408051 0.16374981 -0.011649435 -0.08906533
000390 d8 4f e3 3d a9 40 8d 3d e0 e4 0d 3e 6f bf 90 bd
       0.11099213 0.068970986 0.1385684 -0.07067763
0003a0 b3 44 6b bd bc 4a 37 3e 64 9d bc 3d 14 35 d3 ba
       -0.057438564 0.17899603 0.092097074 -0.0016113841
0003b0 69 5e c7 3b f9 3b 25 3e ab e3 41 3d 81 78 33 bd
       0.0060842526 0.16136159 0.04733626 -0.043816093
0003c0 4d ab 4e 3e 5f b0 97 bd 4d b4 95 3d 3d 27 16 bd
       0.20182534 -0.07406687 0.0730978 -0.036658514
0003d0 06 cd 08 bd 2d e9 0b 3e 96 f5 9a bd f3 e2 5c bd
       -0.03339865 0.13663168 -0.07566373 -0.053927373
0003e0 bd 09 40 3d 38 1f bc bc 0c 5f d5 3d 29 bb a2 bd
       0.046884287 -0.022964105 0.104185194 -0.07945854
0003f0 93 35 9e 3d c3 27 e9 3d 00 0e b7 bd a5 12 02 3e
       0.07725062 0.11384537 -0.08938217 0.12702425

model.rnn.weight_ih_l1 f4 [256, 64]
000000 93 46 1f bc 2e c5 5d bd 8d 88 35 bd b4 46 c3 b9
       -0.009721416 -0.054143123 -0.044319678 -0.00037245976
000010 1c c9 c2 ba ce 89 d7 3d 0e 6c 12 3e fd a5 84 bc
       -0.0014860961 0.10524331 0.14299032 -0.01619243
000020 d6 97 ab 3d 0c 3b 60 bd 59 93 59 3c 24 51 fe 3d
       0.0837857 -0.05474381 0.013279759 0.1241782
000030 f0 66 73 be c3 98 10 3d 28 d4 7d bd a9 01 7e bc
       -0.23769736 0.035301935 -0.061969906 -0.0155033255
000040 1e c2 b1 3d 04 c9 1b bd 7d eb 2b be 98 1a cf 3d
       0.08679603 -0.0380335 -0.1678905 0.10112494
000050 06 0a d9 bd 78 a6 bd 3d b7 cf cb bd bc da d0 3d
       -0.10597615 0.09260267 -0.09951728 0.1019797
000060 db 0d 00 bd 92 d1 e7 bd 0f 4a f2 bd 56 2d 22 bd
       -0.031263214 -0.11319269 -0.11830532 -0.039594017
000070 36 f4 85 bd ca b8 95 3c 7a b4 d1 bd 3d 9e 06 bd
       -0.0654072 0.01827659 -0.10239501 -0.03286575
000080 04 58 a6 bd c1 fa 86 3e e4 55 9b 3d ef a4 2a bd
       -0.081222564 0.26363185 0.07584742 -0.0416612
000090 3f 83 15 3e fd d7 fb 3d 5d d2 3c bc 24 80 11 bd
       0.14600848 0.12297056 -0.011524764 -0.035522595
0000a0 36 80 9d bc c7 31 54 bc 0b 1e 2b bd 83 42 df 3d
       -0.019226175 -0.012951321 -0.041776698 0.10901358
0000b0 b2 b9 67 bc b6 d4 09 be 4e f8 06 be d6 54 ea 3c
       -0.014143394 -0.13460049 -0.13180658 0.028604906
0000c0 6f 51 2f 3e 31 1f 46 3d ae 1b 09 bd e1 6f 07 3d
       0.17120908 0.04836959 -0.033473663 0.03306568
0000d0 ff d6 40 3e 1f 7e e1 3c c0 84 9f 3d 5f 00 17 3e
       0.18832015 0.02752596 0.07788992 0.14746235
0000e0 81 79 90 bc 92 e9 22 be eb c2 18 3b e2 63 1b 3d
       -0.017636063 -0.15909413 0.002330954 0.037937053
0000f0 1d 91 b2 bc ac 43 c9 bd 3a 2a fa 3c b6 af 77 bd
       -0.021797711 -0.098273605 0.030537713 -0.060470305
000100 2a 3c b9 3d 19 cc cd 3d 94 9e ab bc 8a c2 a6 3d
       0.090446785 0.10048694 -0.02094964 0.08142574
000110 0f b1 62 bd 2f 58 93 3d c1 f3 18 3e 7a 4c b9 bc
       -0.055344637 0.07194554 0.14936735 -0.022619475
000120 28 94 da 3c 33 b4 b3 3d 0c bd fd 3d 15 84 53 3d
       0.026681975 0.08774605 0.123895735 0.051639635
000130 34 3c 26 bd b8 2c 05 be 0e 9c 0f be a9 6d 27 bd
       -0.040584758 -0.1300534 -0.14024374 -0.040876064
000140 61 d3 d8 3d 92 b2 c8 3d fe e7 82 3d 60 2d 17 3d
       0.10587192 0.097996846 0.06391905 0.036908507
000150 e5 b7 46 3d 3c f5 7c 3d 0c 61 08 bc de d0 c5 3c
       0.04851522 0.06175731 -0.008323919 0.024147447
000160 7a 48 67 bd 4e 82 cb 3d 8c b9 90 bd f0 d3 db 3c
       -0.056465603 0.09936963 -0.0706664 0.026834458
000170 90 3e 3e 3d 99 68 19 3d 0e 45 d0 bb 35 52 d2 3d
       0.046446383 0.037453268 -0.006355888 0.10269586
000180 bb 2f 94 bc ec 22 e2 bd 04 71 3e bc 48 a6 1b bd
       -0.018089166 -0.11041817 -0.011623625 -0.038000375
000190 53 35 8d 3d ae 17 47 bc 6c 54 09 bd 65 c2 c1 bc
       0.068949364 -0.012151642 -0.033527777 -0.023652265
0001a0 bc 04 ad 3d b5 b5 f1 bc 7c 47 94 bd 84 7c fc 3d
       0.08448169 -0.02950559 -0.07240197 0.12328437
0001b0 87 a3 8f bc cf 19 12 3e 72 28 e3 bc 6b 3d 1e bd
       -0.01753403 0.14267658 -0.027729247 -0.03863279
0001c0 40 3e b3 3d e9 3d b3 bd c4 80 51 bd 2c 75 81 3d
       0.087521076 -0.08752043 -0.05114819 0.06321177
0001d0 ec 74 82 3d 9c 24 bc 3d ad eb f6 3d f5 6b 8f bd
       0.06369957 0.0918667 0.1205667 -0.07003013
0001e0 9d a3 56 3c 3a 65 66 3d 32 5e c7 bd f5 56 c7 3d
       0.013100532 0.05624888 -0.09734763 0.097333826
0001f0 f1 9e e3 3d d5 35 f0 bd aa 8a 25 3d 98 3e a4 3d
       0.111143 -0.11729018 0.040415443 0.08019751
000200 6f 34 5c 3c bf bd 58 b9 fa 17 9a 3d 64 96 fa 3c
       0.0134402355 -0.00020670051 0.075241044 0.03058929
000210 13 29 3b 3e 81 1e b6 bd fe 57 31 3e 3f 8b 4c 3c
       0.18277387 -0.08892537 0.17318723 0.012484371
000220 d4 72 e7 bd aa 21 39 be 53 2e 46 3e aa 4c e7 bc
       -0.113011986 -0.18079248 0.19353609 -0.028234798
000230 7e f9 06 3d 41 74 51 bc 71 b5 fb 3d 47 de aa bc
       0.032952778 -0.012784065 0.122904666 -0.020857943
000240 5c 7a 1c be ed 3c d4 bd 9a 16 c7 bd 24 be 2b be
       -0.15281051 -0.10363183 -0.09721108 -0.16771752
000250 58 9f 66 bd 61 7e 07 3e c2 27 6a bd 49 82 32 3e
       -0.056304306 0.13231803 -0.057166822 0.17432512
000260 3c 9e 41 be 87 7a 07 be cf 95 21 be 91 fd 17 be
       -0.18908018 -0.13230334 -0.15779804 -0.14842822
000270 47 c1 ee 3c 23 ac 23 3c 5f 45 68 3d b2 28 7d 3d
       0.029144896 0.009989771 0.056706782 0.06180639
000280 af 41 32 be f9 19 55 3e f8 ac 41 3e 5d 45 25 3d
       -0.17407869 0.20810689 0.18913639 0.040349353
000290 ef a9 1b 3e 3a 91 55 bc 80 81 18 3d d5 f7 10 3e
       0.15201543 -0.013035113 0.037232876 0.1415704
0002a0 3e 6a 35 be e5 5b b9 bd a5 68 e9 3d f1 4f 68 3d
       -0.1771631 -0.090507306 0.113969125 0.056716863
0002b0 b5 92 85 3d 0c 48 33 be ba 24 8c bd c8 58 a5 bc
       0.06522123 -0.17507952 -0.068429425 -0.020183936
0002c0 cd 55 c5 3d 29 25 8f 3d d1 9d bb bc 0a d6 94 bd
       0.09635506 0.069895096 -0.022902401 -0.07267387
0002d0 7c e3 1f bc 50 a8 24 be 1a 35 a8 bd 58 6f 27 bd
       -0.009758826 -0.16079831 -0.08213253 -0.04087767
0002e0 f5 0f a6 3d 79 64 1c bc b0 99 07 3e 96 11 d6 bd
       0.08108512 -0.009545439 0.13242221 -0.10452573
0002f0 ae 72 58 3d 90 c2 03 3e dc 39 27 3e f1 79 87 bc
       0.052843742 0.12867188 0.16330665 -0.016537638
000300 4a c2 ac bc 41 72 bc bd 19 d5 f7 3d cb 19 f8 3d
       -0.021088738 -0.0920148 0.12101192 0.121142946
000310 9f b2 8f 3d c6 94 92 3c 38 d8 96 bd 51 36 39 bd
       0.07016491 0.017893206 -0.07365459 -0.045217816
000320 98 72 d5 3d 73 c3 cd 3d 3a 92 4f 3d b6 98 ac 3d
       0.10422248 0.100470446 0.050676562 0.08427565
000330 3b 30 24 bd 14 1a bb bd 05 e4 dd bc 53 fa 15 bd
       -0.04008506 -0.091358334 -0.027086267 -0.03661568
000340 dc 44 1b 3c f4 fa d2 3d 8b 6f c3 3d b4 39 c0 3d
       0.009476867 0.10301772 0.095427595 0.09386006
000350 9b fa e1 bd 08 d1 a4 3d 74 95 ba 3d 0b 69 3a bb
       -0.11034127 0.08047682 0.09110537 -0.0028443958
000360 cc 13 f1 bb 2a fd 93 bd 0e f1 0c bc bb 07 5b bd
       -0.0073570963 -0.072260216 -0.008602394 -0.05347417
000370 6e 5a e4 3c 95 c0 8d 3d 0b d7 91 3c 8a cd 0e 3c
       0.027875151 0.06921498 0.017802736 0.0087159965
000380 30 03 5b 3d 55 bf 12 3e 38 99 47 bd 25 f0 82 3d
       0.053469837 0.143308 -0.048730105 0.0639346
000390 97 34 ce bd 6b 68 7a bd c1 02 01 be 9f 7c 7a 3d
       -0.100686245 -0.061134737 -0.12598707 0.061154004
0003a0 c8 2b 33 bd 17 cb b6 3b 5d 32 b5 bd 3d 53 5c 3d
       -0.043742925 0.0055784094 -0.08847497 0.05379032
0003b0 aa 7c 93 3c 90 56 29 bc 6b 2b 42 3d 5b 48 87 bc
       0.01800378 -0.0103355795 0.047404688 -0.016513994
0003c0 ae 9f cf bc c9 c3 cd 3d 95 c9 d0 3d 2e a9 8a 3d
       -0.025344696 0.10047109 0.10194699 0.0677055
0003d0 bc ad c4 bb d4 d9 f7 3c e6 c1 05 39 d3 f3 e9 bd
       -0.006002156 0.030255236 0.00012756101 -0.11423459
0003e0 d9 54 9c 3b 6d 56 1c bd d2 8c 89 3d ad 8f 8d 3d
       0.004770857 -0.03816836 0.067163125 0.069121696
0003f0 5a cf d6 bd 2c 86 9d 3d 3a 70 89 bd 70 9e b9 bd
       -0.10488768 0.07691607 -0.06710859 -0.09063423

model.rnn.weight_hh_l1 f4 [256, 64]
000000 33 a9 b1 3c 7a 79 ae bd ab 9c a9 3d 40 33 77 bd
       0.021687126 -0.085192636 0.08281835 -0.06035161
000010 9b 75 4e 3d d5 07 db bb e0 95 b4 3d ad bd 8f 3d
       0.050405126 -0.0066842833 0.08817649 0.070186
000020 e6 d4 c4 3d e3 c4 01 3e 7c 48 ba bd 0d 53 e7 bc
       0.0961092 0.12672763 -0.090958565 -0.028237844
000030 3d 2e 83 3d f2 bc f2 3d d1 9c c0 3c 31 13 e2 bd
       0.064053036 0.11852445 0.023512276 -0.11038817
000040 ba a4 74 3d a4 7d de 3d 05 91 a1 3a 9d 65 f3 3d
       0.059727408 0.10863808 0.0012326544 0.118846156
000050 6a 30 02 be 10 fe 56 bd 44 7d fc bd 82 6b ac 3c
       -0.12713781 -0.052488387 -0.1232858 0.021047357
000060 ae 0e bb b9 ec 6a 9e 3d 0a 4f dd bd ec 86 c8 3d
       -0.00035678357 0.077352375 -0.10806091 0.09791359
000070 ad 78 7b 3d 3d c6 b5 bd a5 18 5c bd 16 ec 1a be
       0.061394382 -0.088757016 -0.05373444 -0.15129122
000080 51 ab 81 3d ea 19 f8 bd ee f6 90 bc 61 98 8a bc
       0.06331504 -0.12114318 -0.01769587 -0.016918363
000090 62 bd 79 bd 26 0b 03 3e 55 19 0a 3e 13 d9 c0 3d
       -0.060971625 0.12797222 0.13486226 0.094164036
0000a0 bd 32 ea bd 13 ef 02 3e 24 57 03 be 34 03 9d bd
       -0.11435459 0.12786512 -0.1282621 -0.076666266
0000b0 9d 7b d3 bd 8d 41 20 3d 96 29 c1 3d b5 3c 1e 3e
       -0.10326312 0.039125014 0.0943176 0.15452845
0000c0 d7 75 a2 bd 5b 10 d2 bc 8d dd 45 bd 31 10 c9 bd
       -0.079326324 -0.025642565 -0.04830699 -0.098175414
0000d0 be 73 8f bd e6 6c 86 3d e2 48 95 bd 29 f8 e7 bd
       -0.07004498 0.065637395 -0.07289292 -0.1132663
0000e0 c7 1f 68 bd f7 88 57 bd 9d cd df bd 65 59 4e bd
       -0.05667093 -0.052620854 -0.109278895 -0.050378222
0000f0 67 d6 c7 3d a5 09 e8 bd 68 41 18 3e 06 d2 99 3d
       0.09757691 -0.113299645 0.148687 0.07510762
000100 bb 12 18 3d ee fa cd bc dd 26 2e bc 29 42 f9 b9
       0.037127238 -0.025144067 -0.010629383 -0.00047542274
000110 b9 e6 da 3d af 68 00 3e 50 7d b8 bd 74 93 64 3d
       0.10688538 0.12539934 -0.090082765 0.055804685
000120 fd ea 66 bd 9f 32 48 bd 3e 54 9e bd 80 c9 2b be
       -0.056376446 -0.0488764 -0.07730912 -0.16776085
000130 38 37 e2 bd 08 2a 61 bd b9 0f 30 be 71 6b f0 3c
       -0.110456884 -0.054971725 -0.17193498 0.029348107
000140 05 e7 44 bd 30 d1 6a 3d de 93 74 bd d9 a5 78 3d
       -0.04807188 0.057328403 -0.05971133 0.06070504
000150 e4 02 59 3d ee 2c 06 be 83 5c c1 3c 33 77 76 3d
       0.052981272 -0.13103077 0.023603683 0.06017227
000160 71 f1 d1 bd b5 43 e7 3d ab f1 92 bd 8f 29 03 3d
       -0.102511294 0.11292211 -0.07175001 0.032022055
000170 9d b4 e1 bd bb 03 da 3d d8 02 5b 3d ca 8f 59 bd
       -0.110207774 0.10645243 0.05346951 -0.053115644
000180 71 60 41 bd 38 0b e7 bb b5 13 91 3d ea a7 df bd
       -0.047211114 -0.007050898 0.07083837 -0.10920699
000190 24 ef ea 3d 5e d8 c8 bc 2b 1f 10 3d 83 43 66 3d
       0.11471394 -0.024517234 0.035185974 0.056216728
0001a0 23 ba c4 bd b7 60 c8 3d f8 3a 42 3c 2b 3c 03 bd
       -0.09605815 0.09784072 0.01185488 -0.032039803
0001b0 90 d3 09 bd b7 6b d8 bd b6 87 a3 bd dd a7 0e bc
       -0.033649027 -0.1056742 -0.07984869 -0.008707014
0001c0 fd a5 d2 3d bb 58 35 3d dd b9 93 bd d9 3c 7f bd
       0.10285566 0.044274073 -0.07213185 -0.06231389
0001d0 8b 14 44 3c e0 ee e8 bc 31 8c 23 bd 92 86 e6 3c
       0.011967788 -0.028434217 -0.03992862 0.02814034
0001e0 3e a1 9f 3d 07 1c a5 bd 22 9d 24 bc ee 0c fb 3b
       0.077944264 -0.080619864 -0.010047229 0.0076614534
0001f0 95 90 fc 3c 04 b7 dd bc b1 e0 06 3e 54 7f b4 3d
       0.03083066 -0.027064808 0.1317165 0.088133484
000200 67 ed cb 3c 22 06 f4 3d 0c d8 d3 bd f4 f7 1c bd
       0.024893476 0.11915232 -0.10343942 -0.038322404
000210 8a 80 11 be a5 30 58 bd e0 ac 9e 3d 95 6f bc bc
       -0.1420919 -0.052780766 0.07747817 -0.023002425
000220 91 5d 0e be 3e 75 cb 3b e2 15 d3 bc 74 b6 06 be
       -0.1390288 0.0062090447 -0.02576727 -0.13155538
000230 9f 22 b8 3d bf a6 c1 3d 4e f4 69 bc af b9 ce 3b
       0.089909784 0.094556324 -0.014279438 0.0063087563
000240 2c e1 d0 3d c6 da d8 3d 54 25 ee bd d5 f5 9b bd
       0.10199198 0.10588603 -0.116282135 -0.07615248
000250 ff ee b8 bd c2 ec ea bc e4 b0 16 3e fb e4 b0 bc
       -0.0902996 -0.028677348 0.14715916 -0.021593561
000260 ce dc 08 be 1c e7 00 3b 52 00 b5 bd c9 cd a8 bd
       -0.1336548 0.0019669002 -0.08837952 -0.082423754
000270 e0 20 9b bd e1 57 a2 bd 7c c7 ef 3c 8d 18 1f be
       -0.0757463 -0.07926918 0.029269926 -0.15536709
000280 eb 07 2b bd d8 06 00 3d c4 5b f8 3d 2b 94 88 3d
       -0.041755598 0.031256527 0.12126878 0.06668886
000290 4d 3f cd bd 23 30 99 3d d0 d9 1f bb e9 d3 36 3d
       -0.10021839 0.074798845 -0.00243913 0.044635687
0002a0 2b d3 9b 3d d0 81 19 3e 53 a1 cf bd c1 cd 12 be
       0.076086365 0.14990926 -0.10138192 -0.14336301
0002b0 e2 54 c1 3d c0 53 38 3d 98 82 d8 bd f9 61 19 bd
       0.09440018 0.045001745 -0.10571784 -0.03744695
0002c0 50 a3 cd 3c 37 4e cb bc 51 37 ac 3d f6 13 38 3d
       0.025102288 -0.02481757 0.08408988 0.04494091
0002d0 f7 79 16 3e b7 80 2c bd 67 5a d4 3d f0 86 8e 3d
       0.14694963 -0.04211494 0.103688054 0.06959331
0002e0 d7 e7 b4 3d e9 08 56 3c 56 48 39 3d 12 fe a7 3c
       0.088332824 0.013063648 0.045235 0.020506892
0002f0 f5 97 12 bd 59 0a 26 3d 66 59 14 3d fc c7 52 3d
       -0.03578945 0.040537212 0.03621807 0.05146025
000300 91 9c 78 3d 4a 0e 17 bd ae de c8 bd f8 7b b0 bd
       0.06069619 -0.03687886 -0.09808098 -0.08617395
000310 7d 58 8c bd e7 a2 95 3d 7d 8a 69 3c 65 4a 00 bd
       -0.06852815 0.07306462 0.01425421 -0.03132095
000320 aa 78 40 bd 2b 1f 39 3d 0d a0 b4 bd 2f 4b 3f 3c
       -0.046990074 0.04519574 -0.0881959 0.01167564
000330 15 02 0a bd ba 8b 97 bd 35 6c 30 bc 46 e1 8d bd
       -0.03369339 -0.073996976 -0.010767986 -0.06927733
000340 d3 71 2c bd 50 6c 9e bd a0 ad d7 bc 9a c5 32 bc
       -0.04210074 -0.07735503 -0.026327908 -0.01091137
000350 04 87 1d bd d8 a2 d1 bd 90 39 01 be 0c 98 1c be
       -0.03845884 -0.10236138 -0.12619615 -0.15292376
000360 0f 93 b8 bd 57 5c ac 3d ec 3d ca bd 89 99 a5 bd
       -0.09012424 0.0841605 -0.09875092 -0.08085925
000370 a3 7b 0b 3e 58 dc 81 3d 7d a4 fc bd b8 ff 9c 3d
       0.13621382 0.06340855 -0.12336061 0.07665962
000380 e0 13 87 3d b4 96 af bb b3 92 4c bc 8e cf 63 bd
       0.06595588 -0.0053585414 -0.012486148 -0.05561786
000390 70 f6 58 3d 2a 19 86 3d 86 a5 4d 3d bd b1 47 3d
       0.052969396 0.065477684 0.050206684 0.04875349
0003a0 cd 91 fe 3d 15 aa 5e bd 16 c2 f8 3a aa 5c aa bd
       0.12430153 -0.05436142 0.001897874 -0.083184555
0003b0 a7 73 00 be 3c 9b 30 3d 28 3e a4 bd df a6 d4 bb
       -0.12544118 0.043116793 -0.08019668 -0.006489619
0003c0 ca 31 4e 3b a8 c5 a8 bd 77 4e 40 3d 7e 23 82 3d
       0.0031462782 -0.08240825 0.04694983 0.06354426
0003d0 df 67 ab 3c 7a 52 22 3d cb a4 e4 3d 4d 1b dd bd
       0.020923553 0.039629437 0.11164244 -0.10796223
0003e0 2b 40 21 3e 9a c7 5d bc 98 40 b5 3d a2 23 30 bd
       0.15747134 -0.013536358 0.08850211 -0.043002732
0003f0 c2 8d d3 bd 4a 63 f0 b7 52 7b e1 3d d9 35 07 3d
       -0.103297725 -2.8656465e-05 0.110098496 0.033010338
