lightning_logs/version_1/checkpoints/epoch=96-step=4850.ckpt (torch, 300078 bytes, 33 tensors)

model.param_proj.proj.0.weight f4 [1, 40]
00000000: d291 1ebe 0b96 36bd 1d9b 36bf 69f4 fdbd
00000010: 86d4 5b3f 4980 cfbe 113c 1a3d 0cda 6bbe
00000020: 7d6a 82bd 5600 9b3e dc3a 063d 668c e93e
00000030: 0b7a c83e e654 9e3d 7f0e 003d 8e2b 193f
00000040: 1633 323f f473 273e d2cc 0ebf 953e b4be
00000050: db6e 4bbe dd58 e1be 21db 073e 4bdb b63e
00000060: d524 743d 01a2 013f 1107 02bf e7cb a5bd
00000070: 8cc4 083e 132e 7cbe 6c23 c13e 22bf 60bb
00000080: b97b 783e f0f3 613f 0c5e 023f b808 e23e
00000090: 5f62 e43e 70ae 253d ceb2 9b3e ca8c 1e3f
-0.15485314 -0.044576686 -0.71330434 -0.12400133 0.8587116 -0.4052756 0.03765494 -0.23032397
-0.06367967 0.30273694 0.032770976 0.45614928 0.3915561 0.07731037 0.031263825 0.59832084
0.696092 0.16352826 -0.5578128 -0.35203996 -0.19866507 -0.4401311 0.13267185 0.35714182
0.05960544 0.50637823 -0.5079203 -0.08095532 0.13356227 -0.24626951 0.37722337 -0.0034293612
0.24265946 0.88262844 0.50924754 0.44147277 0.446063 0.04044956 0.30409855 0.6193358

model.param_proj.proj.1.weight f4 [1, 40]
00000000: a702 13be 04c6 0dbe 9cc0 173d 5fd8 e0bd
00000010: e48a 83bd aa6c 31be 5908 f83d 0d73 0d3e
00000020: b482 513e 8b88 c0bd f5a9 0f3d 7216 573d
00000030: 7fad 3bbd 1581 8f3d 7bb7 313e 2de0 3d3d
00000040: dc31 babd 6754 bc3d 2645 4f3d 5245 71bd
00000050: 51e3 23be bd96 6ebd d8dd 093e 658a d83b
00000060: 512c 063e 0cbb a93d f183 a43d 7919 063d
00000070: f43c 3c3e 2b9d 0a3e 9e3a 29bd e781 073d
00000080: 56ce b73d 98a5 243e 6533 1dbe 0095 153e
00000090: 6ba6 953d 2dbc 35be f0af 05be e7b4 073e
-0.1435648 -0.13845068 0.03704892 -0.109787695 -0.06422976 -0.17326608 0.12110967 0.1381342
0.20460016 -0.094010435 0.035074193 0.05251164 -0.045819756 0.07007042 0.17355148 0.04635637
-0.09091541 0.09195786 0.050603054 -0.058904 -0.16004683 -0.058249224 0.13463533 0.006608295
0.13102843 0.082876295 0.08032978 0.032739136 0.18382627 0.13536517 -0.041315667 0.03308287
0.08974902 0.16078794 -0.15351637 0.1460762 0.07307132 -0.17747565 -0.13055396 0.13252603

model.param_proj.proj.2.weight f4 [1, 40]
00000000: 4b0e 0f3d 4373 c93d 177b 1a3f 372f f63d
00000010: 7b45 1abe 6c43 0d3e fda5 6c3e dfdb 81be
00000020: ca43 b43d 9fe2 01be 43fc a03c 8ef3 c5be
00000030: 6c17 42bf 7a7e b8be b031 c23d 7951 8ebe
00000040: 7181 c0be 3be4 11be 7cb5 853e 8535 773e
00000050: 0b3b 9e3d e39a 8c3e a250 43be 90ce c3be
00000060: f6c0 53bd 9a16 1dbe 131d 373e c178 3dbd
00000070: 92a5 18be e79b 693d b274 5bbf 5675 91bd
00000080: 6e3b 0fbe bf79 36be 963d 03be 19be 2abe
00000090: ad79 4cbe d7d8 eebe 95e4 0dbf 8630 80be
0.03492574 0.098364376 0.6034407 0.12020724 -0.15065567 0.1379525 0.23110195 -0.2536306
0.08801992 -0.12684105 0.019651538 -0.3866238 -0.7581699 -0.36033994 0.094821334 -0.27796534
-0.37598756 -0.1424722 0.26115024 0.2414151 0.07726105 0.2746192 -0.19073728 -0.38243532
-0.051697694 -0.15340653 0.17882185 -0.046257738 -0.1490691 0.057033446 -0.8572494 -0.07102458
-0.13987514 -0.1781988 -0.12816462 -0.16674079 -0.1996829 -0.4664981 -0.55426913 -0.2503702

model.rnn.weight_ih_l0 f4 [160, 21]
00000000: 83a8 263e 847d f13b 5c1e 883e 3767 c73d
00000010: f142 bd3d 2e2d 003e 2e3c 04bd b5e9 f9bd
00000020: 0135 653d c260 223e eaf6 473d 24c4 5b3e
00000030: 2e0c 883e bf76 103e 8a4b 353e dab5 5c3e
00000040: 4a86 98be fe32 94b9 0218 0d3e 06f3 00bf
00000050: 0ac7 dd3d 26b5 103e c3b9 ef3c c8d8 a13e
00000060: b41a 4b3e b402 183e 07a9 d5bd 1339 b0bd
00000070: d39b d03d d26d e73d c1b6 a53e 16c5 483e
00000080: 1be2 e33d ae03 783e 537c 753e e6db f33c
00000090: 5d38 b4bd e5e6 49be 62bb ad39 0452 173e
000000a0: 4045 ddbb 2ed6 2f3e 0d45 163e 91c2 1dbd
000000b0: db4c 50be f833 27be 56af 0a3c b9ff 18be
000000c0: 9395 863c 4b95 15be 5ca9 3dbe a961 1bbe
000000d0: fb1c 393c d439 a73e abb0 863e 4f8f 0abe
000000e0: 2144 eabc 7c75 8f3e d30f d8bc 02f5 10b9
000000f0: 27ff 55bd f2cc f93e 052b e93c 99a9 b33e
00000100: 074e 893e ad82 1c3e e37a e43d 71ca 883e
00000110: 12aa 873e 801a b1ba 77a7 183d f8f2 d23c
00000120: 179d 0b3c 98d2 8d3e 8b45 a73e eeec da3e
00000130: 9886 6cba 624f 663e d9a2 073e 4c17 3fbe
00000140: 4161 4f38 9ac2 643e 1125 c7be e417 333d
00000150: 559d a13d 27ae a33e 0d7b 353e c895 693e
00000160: 26b4 3d3e 3f04 1e3e fbd6 de3d 2b43 78bd
00000170: 2e21 aa3b e579 dd3d fb89 103d ed29 9fbd
00000180: 556d a23d 0521 d63d 39af cbbd 98e5 41bb
00000190: 27d3 74be 9d4d a43a 6aa4 903e 4d17 f1be
000001a0: 7c7f 00bc 9466 4e3e 5e34 443e 1285 473d
000001b0: 5cd6 183d 4694 6e3e 818c 18be 7e0d 4b3e
000001c0: 8016 db3c 922b 8d3e 8b5d a03c 1b0f 383d
000001d0: 5c2d 353e 4676 2cbc 8443 a43e 9b18 f73e
000001e0: 4ee2 c43e 8544 aabd 8860 fab8 f115 803e
000001f0: 0042 3a3d efc8 7cbd 515f f13e 6962 a93e
00000200: 1d98 cf3e 8b57 5d3e ec66 003f 30a4 a33e
00000210: 2581 a73e 5891 983d dc7e a0bc 1ccd 493d
00000220: 1165 16bd 6194 fe3d 5aca 2e3e 97c4 e53d
00000230: f5fd f73d 78b7 4b3d 619c d1be 3b61 99ba
00000240: e093 873d 8e22 2dbf 8ecf d03e d271 3e3d
00000250: 72e5 a6bd 927a 07be 6730 fdbb 6ae7 3a3e
00000260: e915 983d 8d43 03be 470a 36be 42f3 7ebd
00000270: f328 2cbe 911d e03c cb24 bdbc 2231 fbbd
00000280: dc96 6fbe 9082 91bd 9dbb f5bd e607 c33d
00000290: e9b6 b5ba a2df e1bd 24db edbe c20c 183e
000002a0: 0266 f13e 00b6 4d3e 56c2 933e d284 583e
000002b0: 9563 a63c a5db f3bc fd29 913d 5267 35bc
000002c0: a42f 043d 4526 febd 591e d03b cc8e 78bd
000002d0: f70b 293e 7372 c73d 541c d63c 5c86 6a3e
000002e0: 78a8 5abe 84ab 8c3a d8f9 94bd c213 3d3e
000002f0: db2d e1bc 390c 8e3e 13ce 993e e54d c93d
00000300: 53ca 163e 0f6c 883e 5d4b 373e aec5 853e
00000310: 5370 793e 646f 333e 8b95 7e3e a178 3b3d
00000320: 9244 5c3d 8932 3e3d dc75 953e 31cd 623d
00000330: 65b6 223e 1f7d d4be 4a74 ceb9 d66b 8e3e
00000340: 2b5c 7b3d 89ae 7f3e 2a5f c13d 2e6d fe3d
00000350: 8324 0d3e 2c9e a5bd 5f41 f23b 9cdf 513a
00000360: 2bcb cfbd 8349 94bc 4704 9dbd 80da edbd
00000370: 1f5b abbe 73d8 73be df7c 8ebe e640 44bd
00000380: d570 373b 26dc 1dbd 3290 03be cfc7 8139
00000390: 5e8d 0cbe 9590 e5bd 72e2 d13d af11 e5bc
000003a0: ad59 513e b5bb 303e f4d6 c03d b0bd 2d3e
000003b0: 45ba 983d 8b2b 893c a054 13be 3377 ed3b
000003c0: 8aaf b43c efaf e0bd 1972 d7bb b931 dbbd
000003d0: a190 ae3c 7d5b 053e b710 99bd 75d1 04bd
000003e0: 883c 233a 4e4d 493e 8991 e8be 89a1 1d3d
000003f0: 4e38 773e 592f 493e 9118 4c3d ce88 c13e
0.1627522 0.007369699 0.26585662 0.097364835 0.09241284 0.12517235 -0.032283954 -0.12202779
0.05595875 0.15857223 0.04881946 0.2146154 0.26571792 0.14107798 0.17704597 0.21553746
-0.29789954 -0.00028266752 0.1377869 -0.50370824 0.10828979 0.14131603 0.029263383 0.31610703
0.19834405 0.14844781 -0.1043263 -0.08604636 0.10185971 0.113002434 0.32365993 0.19606432
0.111271106 0.24220154 0.23973207 0.029767942 -0.08799813 -0.19716986 0.00033136742 0.1477738
-0.00675264 0.17171547 0.14674778 -0.03851563 -0.20341818 -0.16328418 0.008464655 -0.149413
0.016428744 -0.14607732 -0.18521637 -0.15173973 0.011298413 0.32661307 0.26306662 -0.1353123
-0.02859694 0.2801932 -0.026374733 -0.00013824183 -0.052245285 0.48789173 0.028462896 0.3509033
0.26817343 0.15284224 0.11156251 0.2671695 0.2649694 -0.0013511926 0.037269082 0.025750622
0.00852134 0.27699733 0.32670245 0.42758888 -0.00090227416 0.2249122 0.13245715 -0.18661231
4.944322e-05 0.2233986 -0.38895467 0.043723956 0.07891337 0.31968805 0.17722721 0.22811043
0.18525752 0.15431307 0.10880848 -0.06061093 0.0051919436 0.10814265 0.03528784 -0.077716686
0.0793101 0.10455517 -0.099455304 -0.0029586311 -0.23908673 0.0012535338 0.28250438 -0.4708809
-0.007842895 0.20156318 0.19160601 0.04871089 0.037313804 0.2329875 -0.14897348 0.19829366
0.026744127 0.27572304 0.019575855 0.04493628 0.17693084 -0.010526245 0.3208276 0.4826096
0.38453907 -0.0831385 -0.00011938909 0.2501674 0.0454731 -0.061715063 0.47143033 0.33082893
0.4054574 0.21615426 0.50157046 0.31961203 0.32715717 0.07449597 -0.019591741 0.049267873
-0.03671748 0.12430645 0.17069378 0.11219137 0.12108985 0.049735516 -0.4093962 -0.001170195
0.06620002 -0.6763085 0.40783352 0.046495266 -0.08149232 -0.1323035 -0.0077267173 0.1825234
0.07426054 -0.12818737 -0.17777358 -0.062243707 -0.16812496 0.027357848 -0.023088833 -0.12265231
-0.23397392 -0.07104981 -0.11998675 0.09522991 -0.0013863716 -0.11028983 -0.46456254 0.14848617
0.47148138 0.20088959 0.28859204 0.21144417 0.020311156 -0.02976782 0.07088087 -0.011071997
0.032271996 -0.12409643 0.006351274 -0.060683057 0.1650847 0.09738626 0.026136555 0.22902817
-0.21353328 0.0010732268 -0.072742164 0.18464568 -0.027487686 0.277437 0.30040035 0.0982931
0.14725618 0.26644942 0.17899843 0.2612738 0.24359255 0.17522961 0.24861734 0.045769338
0.05377633 0.046434913 0.29191482 0.055371467 0.1588989 -0.4150171 -0.00039378024 0.27816647
0.061367195 0.24968924 0.09441979 0.12423168 0.1378346 -0.080868095 0.0073930467 0.00080060377
-0.10146173 -0.01810146 -0.076668315 -0.11613941 -0.33467957 -0.23813038 -0.27829644 -0.047913454
0.0027990837 -0.038540028 -0.12847975 0.00024753666 -0.13725802 -0.112092175 0.10248269 -0.027962534
0.20444365 0.17259105 0.09415999 0.16966891 0.07457403 0.016744396 -0.1438775 0.0072468757
0.02205636 -0.10971057 -0.006574881 -0.10702843 0.021309199 0.13023181 -0.07473891 -0.032426316
0.00062269764 0.19658396 -0.45423535 0.03848413 0.24142572 0.19646968 0.049828116 0.37799686

model.rnn.weight_hh_l0 f4 [160, 40]
00000000: 4091 823d 8b61 c8bd 8490 56bd 6427 713d
00000010: 66b2 c43d 3432 9fbd c2ff 52bb dd64 463d
00000020: bb46 fe3d fe97 d7bd 5660 203c c73b 3f3d
00000030: 51c9 13be f82a cebd 106f a73c 0c4b 653d
00000040: a8b8 293e d84e ee3d b22c 923d 2061 2c3d
00000050: 60ce 4abd 4f03 533e c96f 313e 4485 aa3c
00000060: 8728 80bd 0d2c 323e d657 13be bb19 babd
00000070: 2840 d23c 9898 a0bd a3ef 813d db0f ccbd
00000080: cf68 78be f093 923c 4358 693d 081c fcbd
00000090: 566a 0abd cbc7 babd a836 86be 32f2 823e
000000a0: ef6e a9be 0fc6 29be 3a72 dd3c b75c 893e
000000b0: a399 863d 99f0 c43c 9afd 993d 1263 d03e
000000c0: eb29 24be 6d99 913e e99c b5bd 620a c03a
000000d0: 99da a53e 2591 8abe a03a 7ebe 0db3 02be
000000e0: 53ae 37be a11f 5bbe ff52 4fbe 3f6c 283e
000000f0: aa33 6c3e 496c e33b 276b bf3e cfff 47bd
00000100: cd49 4f3e aefa 023e d3ef 48bb f211 1fbe
00000110: caaa 8ebe 0d7d 4e3e 492b 8abe 1422 9dbc
00000120: 6c19 493d 63e0 50bd 61ab 98be 1622 4b3e
00000130: 21f8 3bbe f7d2 22be 05f9 f5bd ccdf 493e
00000140: 8479 1d3d e02d 35be 8c1e 63bb bad9 7a3d
00000150: 3ac0 0dbd 0b12 8abe d2a5 353d 1656 b5bc
00000160: 1116 0fbe 49d9 86be a643 403e a47c bc3d
00000170: f461 2a3d 89c1 37be 50ee aabe 296f 8e3d
00000180: 12f0 07be 4ad4 d8bc 784d 5bbe f59a 2e3e
00000190: 1286 4a3e 3c5b 493e 1538 193e 38bc ad3e
000001a0: 1a72 103e 373b 593d 5d0c 66be 97b3 dd3e
000001b0: ef8d d5bd 51be 88be d81e 84be d378 623d
000001c0: 7a2d 523d 0772 77be 4aa5 d5bd 8c83 d73d
000001d0: 41ec 1fbe 5808 463c 87ab d1be aaf7 de3d
000001e0: 3f9d 66be 1b07 50be 7696 cd3d aa55 863d
000001f0: a876 19bd 1389 b8bd c03c 443e 909d 87bd
00000200: 9b57 62be bc81 923e af7f 553d ad60 bd3d
00000210: b386 7c3e a71f 5f3d 5cf2 37be d96e 0cbe
00000220: 3d13 153d e01e c73c 8b5d b7bd 2c69 423e
00000230: 8470 a33d e762 babb 3618 993c ff63 f23d
00000240: e4c3 393e 269f c3bd 460a adbd 56d4 0e3e
00000250: d6e4 57be 275a febe 90dd 29be 6f74 483e
00000260: 71a5 823d 684b 5fbd c5aa 8fbd 5f26 20be
00000270: 1af2 ad3d a28d 603d 29e2 843e 7676 09be
00000280: 383a f23d 4828 b63d 7c57 1cbd 81e0 183e
00000290: 0acc 0c3c 34e9 94bd 65ef fcbb 33b8 c93d
000002a0: b0c3 eabd 5659 723e 0a88 89bd 1bf8 1b3d
000002b0: 7ba3 083c bace 523d 83db e9bd aab0 473e
000002c0: 39c9 10bd e3c7 b6bd d9b2 68bc 5aa9 43bd
000002d0: 2d08 fbbc fa50 403d fe5b 373e 9c60 1f3e
000002e0: 79ad 9e3d be44 9dbd b93d 22be 3a48 01be
000002f0: 43fe 40be 3a2f 333d de0e d43d c78d 363d
00000300: 5ed5 293e 71c2 dd3d 6ea6 1fbd b15d 353e
00000310: f7c2 3bbe c5b5 0dbe d481 153c 1688 a0bd
00000320: 78a9 6f3d 2e14 83be 5b33 27bd e61e f73b
00000330: b4e0 a338 d083 5fbd 4d21 0b3d defe 41bd
00000340: 6436 b3bd 16eb d0be 38e6 d2bd 7982 a6bd
00000350: dfef 803e 5176 22bd 52d8 e1bd d3c8 053d
00000360: 0fc8 28bd ca90 e73d f41d 65bd 1163 a4bd
00000370: ff47 b53b 94d3 37bd 181f 383e 9120 f03e
00000380: f381 af3c 72b5 35bd 2002 b4be 3382 7b3e
00000390: db28 f63d e07b 70be ed3d 993d ccb7 5a3d
000003a0: 2a1c 92bd ff06 753d 1d37 0dbc c22f 373d
000003b0: 8c07 88bd 908c ddbe 18c6 b3be 9811 a5be
000003c0: cf50 2e3d a85b b53e e45f 3ebe ab83 e7bb
000003d0: c092 ddbb 400e b43d 7a15 d1bd 77d9 053d
000003e0: 8194 bd3c 7c06 c83e 4f57 6cbd 8b2f 92bd
000003f0: 6cc8 ae3c 35ec 42be 2671 493d 5a20 0e3e
0.063753605 -0.0978423 -0.052383915 0.058875456 0.09604339 -0.07773247 -0.00321959 0.048436034
0.124158345 -0.10527037 0.009788593 0.046687867 -0.14432265 -0.100667894 0.0204387 0.055979773
0.16574347 0.11636132 0.07137431 0.042084813 -0.04951322 0.20606731 0.17327799 0.0208155
-0.0625773 0.17399617 -0.14388976 -0.09086939 0.025665358 -0.07841605 0.06344535 -0.09963962
-0.24258731 0.017892808 0.05696894 -0.12310034 -0.033792816 -0.09120139 -0.26213574 0.25575405
-0.33092448 -0.1657946 0.027032007 0.26828548 0.06572273 0.024040507 0.07519074 0.40700585
-0.16031615 0.28437367 -0.08867819 0.0014651532 0.3239334 -0.2706386 -0.24827051 -0.12763615
-0.17937593 -0.21398784 -0.20246504 0.16447543 0.23066583 0.006940399 0.37386438 -0.048827942
0.20242997 0.12790939 -0.0030660524 -0.1553419 -0.27864677 0.2016489 -0.2698615 -0.019181289
0.04909651 -0.05099524 -0.29818252 0.19837222 -0.18356372 -0.15900789 -0.12010387 0.19714278
0.038445964 -0.17693281 -0.0034655659 0.061242796 -0.03460715 -0.2696689 0.04434759 -0.022135776
-0.13973261 -0.2633765 0.18775806 0.09203461 0.04159732 -0.17944922 -0.33384943 0.06954796
-0.13275173 -0.026468415 -0.2141627 0.17051299 0.19777706 0.1966371 0.149628 0.33932662
0.14106026 0.053034987 -0.22465654 0.4330108 -0.10427462 -0.267077 -0.25804782 0.05529101
0.0513129 -0.24164592 -0.10431917 0.105231375 -0.15617467 0.01208695 -0.40951177 0.10887082
-0.22520922 -0.2031521 0.10038464 0.06559308 -0.037466675 -0.0901052 0.191638 -0.066218495
-0.22103731 0.28614604 0.05212372 0.09246955 0.24660759 0.054473545 -0.17963547 -0.1371416
0.0363953 0.024306715 -0.08953389 0.18985432 0.07980445 -0.0056880596 0.018688302 0.11835479
0.18141133 -0.095518395 -0.08449225 0.13948187 -0.21083388 -0.49678156 -0.16588426 0.19575666
0.06379212 -0.054515272 -0.070149936 -0.15639637 0.08493443 0.05482257 0.25953797 -0.13424096
0.118275106 0.08894402 -0.03816937 0.14929391 0.008593569 -0.072710425 -0.0077189677 0.09849586
-0.11463106 0.23666891 -0.067154005 0.03807841 0.008339758 0.05146668 -0.11418822 0.19500986
-0.03534815 -0.08924844 -0.014202797 -0.047768928 -0.030643547 0.046952225 0.17906186 0.15564197
0.07747931 -0.07679127 -0.15843858 -0.12625208 -0.18846993 0.04374621 0.10354398 0.044568803
0.165853 0.108281024 -0.03897708 0.17711522 -0.18336092 -0.13838871 0.009125192 -0.07838456
0.058511227 -0.25601333 -0.04082046 0.007541525 7.8143e-05 -0.054569066 0.033967305 -0.0473622
-0.087506086 -0.40804356 -0.10297817 -0.081303544 0.25183007 -0.039663617 -0.11027588 0.032662224
-0.041206416 0.11306913 -0.05593677 -0.08026708 0.0055322642 -0.04487951 0.17980611 0.46899846
0.02142427 -0.044362493 -0.3515787 0.24561386 0.12019511 -0.23484755 0.074825145 0.05339794
-0.07134278 0.059821125 -0.008619097 0.04472328 -0.066420645 -0.43271303 -0.3511207 -0.32239985
0.042557534 0.3542149 -0.18591267 -0.0070652566 -0.0067618787 0.087917805 -0.102091745 0.032678094
0.023142101 0.39067447 -0.05770045 -0.07137974 0.021335803 -0.19035418 0.049180172 0.13879529

model.rnn.bias_ih_l0 f4 [160]
00000000: 4f40 133d 4631 e33e 2ed1 d3bd a9e0 af3e
00000010: 33dc ce3d 0363 1b3e 9088 493e ad0e f5bc
00000020: 0b89 dd3d 8fc2 f03e 8322 9d3d d6fd c6bd
00000030: b2d6 5e3e 8675 a53e 19fc 433e 62b1 3ebd
00000040: 7623 133e f7ef e63d 20fa 97bd 0e62 973e
00000050: 398e 8c3e 42f0 073f ae1b ce3e 91bb 763d
00000060: 48cc 843e 77c8 c33d 0575 823d eef9 633e
00000070: eacc bd3d 0bda 8b3e d34d 123e e13c 3f3e
00000080: 8cf7 433e 4ca1 eabc f2f8 7a3e a095 563e
00000090: 310c 803e b7ae fb3d ed03 c13d 28c1 a93d
000000a0: ea91 1abd 4689 0a3e 8ece 193e db79 cabd
000000b0: 3eff 523d 9005 37bd 0ce0 573e b656 afbc
000000c0: d776 30bd 15ef 23bd 8190 eb3d 761c 32bd
000000d0: a323 1c3e 1685 413e b987 ba3d 8082 373e
000000e0: 8afb f4bd 9a7c 023d 111c 293e 0c23 023e
000000f0: 2404 cb3c c509 a3bd dbbe d9bd c627 15bd
00000100: e1cf 7f3e 92fa 78bd 4e79 9cbd 3c1f 6c3d
00000110: 6a80 6dbb 267d de3c 7a9a 5e3d 8897 54bd
00000120: 7e60 dbbd ad3a 0fbe 229d dd3d c69b 453e
00000130: 2e12 62bd 4f6d 183e 57c9 ab3d c57f fabd
00000140: 31a8 00be 5f57 633e b03f 3dbe 6453 323e
00000150: 0a27 d5bb f402 e13d 0df2 213e fbf5 223b
00000160: 36af 22be 523d f83d a34c 653d 40dd a0bd
00000170: 1104 403e 06b3 58be c80a 0cbe 0dd9 a53d
00000180: 2d86 0bbe 3861 66be c08f 4bbd 0af5 1e3d
00000190: e60b ef3d 100d fd3d 6585 9f3e 3b5c 483e
000001a0: 049f 62bc 76d9 9cbd 739f 9e3d fdf5 52bd
000001b0: 80ae b23c 3e18 f43d da17 32bd db06 ff3d
000001c0: 6353 16bd c1d5 8bbe 3b42 acbd 95ec 943d
000001d0: b81e 6cbd ea0f 5fbd c254 8dbc e5db 2e3e
000001e0: b1fa 3c3e 9872 c43d 4ed1 85b9 a502 12bc
000001f0: f768 083e 8157 0abd c9d7 233d c14e b63d
00000200: d7d9 4b3e 1123 df3e 5520 b8bd 5d6b 1dbb
00000210: 3002 ba3d 8528 893d 0db8 efb9 228e 2a3e
00000220: a022 a63d 5bef 443e 25a7 d23d 5490 3d3e
00000230: 8906 1b3e 2946 1cbd 8a5b 943d e9f2 613e
00000240: fe7f 323d 47ae 663e 8726 61bc e880 103e
00000250: 696f 253c 5d03 d53d 064a 33bd 2528 b0bd
00000260: 60b0 dcbc 6729 253e ae3a 2c3e 0de3 463e
00000270: 4852 863c 6b43 283e 0939 91bc 2225 363e
0.03595 0.4437353 -0.10342632 0.3435109 0.101005934 0.15174489 0.19681 -0.029914225
0.108171545 0.47023436 0.07672598 -0.09716384 0.21761587 0.32316226 0.19139136 -0.046555884
0.14368996 0.112762384 -0.074207544 0.29566997 0.27452257 0.5310098 0.40255493 0.06023747
0.25937104 0.0955972 0.06369976 0.2226331 0.092676 0.2731479 0.142875 0.18675567
0.191374 -0.028641365 0.24509028 0.20955515 0.250093 0.122891836 0.09424577 0.08288795
-0.03773681 0.13528928 0.150202 -0.09886523 0.05151295 -0.04468304 0.21081561 -0.021403652
-0.043082085 -0.04002293 0.11502171 -0.043484174 0.1524797 0.18898425 0.09107918 0.17920876
-0.1196204 0.03185711 0.16514613 0.12708682 0.024782248 -0.07960848 -0.10632106 -0.036414884
0.24981643 -0.060785837 -0.076403245 0.057646975 -0.003623987 0.027159285 0.05434654 -0.051902324
-0.10711764 -0.13987227 0.10820986 0.19297704 -0.05519312 0.14885448 0.08388012 -0.12231401
-0.1256416 0.22201298 -0.18481326 0.17414623 -0.006504898 0.109868914 0.15814991 0.0024865854
-0.1588715 0.12121071 0.05598129 -0.078547 0.18751551 -0.21162042 -0.13675988 0.0809804
-0.13625403 -0.22498024 -0.049697638 0.038807906 0.11672191 0.12356007 0.3115646 0.19566433
-0.013831858 -0.07658665 0.07745256 -0.051504124 0.021811724 0.11918686 -0.043479778 0.124524795
-0.036700618 -0.2731152 -0.0841107 0.07271687 -0.057646483 -0.054458536 -0.01725233 0.1707607
0.18455006 0.095921695 -0.0002552368 -0.008911763 0.13321291 -0.033774856 0.04000071 0.0890174
0.19907318 0.4358144 -0.08990542 -0.0024020292 0.090824485 0.066971816 -0.0004572276 0.16655782
0.08112073 0.19231932 0.102857865 0.18512088 0.15139212 -0.038152847 0.07244022 0.22065319
0.043579094 0.22527419 -0.013742096 0.14111674 0.010097363 0.10401032 -0.043771766 -0.08601407
-0.02693957 0.16129075 0.1681926 0.1942255 0.016396657 0.16431968 -0.017727392 0.17787603

model.rnn.bias_hh_l0 f4 [160]
00000000: eda8 9c3d b28d 473e 483f 8ebd 27ec 873e
00000010: cdcb 6d3d f116 7a3e d250 583e 33d3 1fbe
00000020: 91da 863d 2e37 fc3e 68ee e2bd 9214 3e3b
00000030: eefb 7b3d ac69 eb3d 68a0 b53e ea62 63bc
00000040: 6f14 c33e 9584 0f3e a1c2 8abd 4636 c43e
00000050: 398b d03e 4bf2 c93e d742 8f3e 2109 783e
00000060: e3bf 4a3e 487b 953e 60a6 903d 339a 033d
00000070: c4e3 843d 089a 653d 8d73 673e 490b 9d3e
00000080: 70b6 1e3e 4235 643e ae88 873e b7e0 c13e
00000090: 5cf6 9a3e faf4 90bd 5445 793e 24d4 293d
000000a0: 3a2f 923d 1fb2 fa3d 8d02 a3bc dcaa 11be
000000b0: c91a 1f3d 0eac 6dbd 89fc 513e c4d4 90bd
000000c0: e67c 453e 79da 7dbd 4722 293e 50e8 6ebd
000000d0: 9bba 933d d8de acbc 10f2 d63d 7eed 103e
000000e0: f262 16bc 1591 09ba 9f3c 4b3d d632 0dbd
000000f0: bae3 39bd 3101 813c 477d d2bc 1f17 ca3d
00000100: b2b4 003e e987 b23d 7861 163e 2c80 30be
00000110: 3b64 c93d ace6 6abd 8625 5ebd 061a 14bd
00000120: 4ea4 04bd 55ee e33d 6ca5 1dbd 4f52 f83c
00000130: c64e bf3b 3984 133e a7de 3f3d eaaa 89bd
00000140: e377 33bd aad1 0a3e eae4 6cbd e161 f93d
00000150: b0db c2bc 6d0f 0dbd 0fab 6c3e f641 213e
00000160: a3a7 b23d 33b6 f9bd 325b 75bd 7b06 cebd
00000170: b76c 353e 7e4f 49be cd9e 10bc 5435 e93d
00000180: b2d5 17be 1370 08be 61c4 05be 0fb0 1a3e
00000190: 586a af3a 0f48 0f3e 104d 623e 252c e1ba
000001a0: c39f ab3d d52b 353e dd0b a4bd f022 0f3e
000001b0: a47b f4bd 47c0 febd 3dfb cfbd 95aa 8a3d
000001c0: 29a8 253e 57e4 92bd ed48 5bbd 9a65 fd3c
000001d0: 6cae 0abe b53f c1bd d3d5 03be 6822 2f3e
000001e0: df0e b43d bb2a 1cbb 3aee b43d 7754 593d
000001f0: fa16 e43b f84b 32bd a4b2 1a3e 55f7 c73d
00000200: 02fe 833e 5c96 ac3e d11a fdbd 2668 6dbd
00000210: b07f 173e 7948 3b3e 50c8 983d 16f0 2c3e
00000220: dd46 83bc 5f8e d1bc 6da2 e03d c59b 013e
00000230: 354c 953c 3b54 68bd 9c4d a43d e249 b53e
00000240: 9c80 873e e044 bf3e e0fe 123e ccda 333d
00000250: 7679 c3bd d73b ab3d 7800 d8bc cf2a ab3d
00000260: bb78 2f3e 3bac a43d cd97 ce3d d184 f03d
00000270: 1b6c 2f3a 3ae3 833e 65ed 9cbc 7096 6e3e
0.076494075 0.19487646 -0.06945664 0.26547357 0.058055688 0.24422814 0.2112458 -0.1560791
0.06584657 0.4926085 -0.11080629 0.002900396 0.061519556 0.11494765 0.35473943 -0.013878563
0.38101527 0.1401542 -0.06775404 0.38322657 0.40731218 0.39442667 0.27980682 0.24222232
0.19799761 0.2919562 0.070629835 0.032129478 0.06488755 0.0560551 0.22602673 0.30672672
0.15499282 0.22285941 0.26471466 0.37866756 0.30266082 -0.070779756 0.24342853 0.04146208
0.07137914 0.12241005 -0.019898677 -0.14225334 0.038843904 -0.058025412 0.20506491 -0.07071832
0.19285926 -0.06197593 0.16516982 -0.05832702 0.072133265 -0.021102354 0.104953885 0.14153096
-0.009178864 -0.0005247754 0.04961836 -0.03447231 -0.045383193 0.015747638 -0.025694503 0.09867691
0.1256893 0.08717329 0.14685619 -0.17236394 0.098335706 -0.057348892 -0.054235004 -0.03615763
-0.032383256 0.111294426 -0.038487837 0.030312685 0.005838248 0.14405908 0.046843197 -0.067220524
-0.043815505 0.13556543 -0.057835497 0.12176872 -0.023786396 -0.03443854 0.23112129 0.15747818
0.087233804 -0.12192955 -0.059901424 -0.1005983 0.17717253 -0.1965923 -0.008826924 0.11387125
-0.14827612 -0.13324003 -0.13063194 0.15106224 0.0013383133 0.13992332 0.2209971 -0.0017179294
0.083800815 0.17692502 -0.08010075 0.13978171 -0.11937645 -0.12439018 -0.10155342 0.06770817
0.1617743 -0.071724586 -0.053536344 0.030932236 -0.13543099 -0.09435979 -0.12874536 0.17102969
0.08791899 -0.002382918 0.088345006 0.053059068 0.006960747 -0.04352948 0.15107208 0.09763972
0.2577973 0.33708465 -0.123586304 -0.05796065 0.14794803 0.18289365 0.074600816 0.1688846
-0.016025001 -0.025580583 0.1096848 0.12657078 0.018224815 -0.056720953 0.08022615 0.3540793
0.2646531 0.37357235 0.1435504 0.043909833 -0.09544651 0.08361023 -0.026367411 0.083577745
0.17135899 0.08040663 0.100875475 0.11744083 0.0006691829 0.25759298 -0.019156167 0.23299575

model.rnn.weight_ih_l1 f4 [160, 40]
00000000: c0cc 8ebe d380 a2be 9431 e43d 4f44 953b
00000010: fcf4 5c3e 44ee 9d3c c1e8 e3bd 480e 9b3e
00000020: 535e ed3d eda9 3dbf a7ef 033e 9ae0 e6bb
00000030: 03c7 9ebd 29b2 973d 38f4 ee3d fb64 8d3d
00000040: 4b22 a13e d268 b33b 13c0 e7bc 36b3 b83e
00000050: 3d2f ce3d 4cfd 93bd 2485 693e 3f16 b43e
00000060: 2363 003d 5caf 063e 3167 9b3e 52d4 02bf
00000070: 44a4 cabd 99a3 7fbf 5951 43bf ddb2 c23e
00000080: 7c10 9e3e 560e 1cbe 5c26 2fbe e555 05be
00000090: 6c48 5cbe b9aa 1fbf 8171 39be ee14 063e
000000a0: fbf4 81be cb78 813e 9318 40be e4a8 fe3d
000000b0: c9c0 f63d 8e8c 193e a43f 673d 4836 6e3e
000000c0: 3c0f e7bd b51f c33d 02af 93be b0d2 b73e
000000d0: a931 8c3e 98f7 a4bd a69b 19be f260 95be
000000e0: e61a 81be ab8f 8dbe 5f1e 3bbe 64cb 483e
000000f0: 26ea 4c3e 02ea 803e 8021 ad3e c92f 903e
00000100: f47d b93d 4a1e 8c3e f23b 93be 2ba7 7abe
00000110: c9e9 b8be c5b3 cebe c42d f7bd c693 00be
00000120: 0bb7 3e3e e4cc b5be 2763 adbe b722 373d
00000130: 3e4e 6ebe c9f3 f3be 2962 99be 7e97 423f
00000140: f962 9abe 5e61 983e 4fdd 2bbe 8cca 863e
00000150: 5799 3f3e 1b52 eabd e3a7 563e 46da 633e
00000160: acc3 52be c8b7 a63d 5454 efbd 5e07 d3bc
00000170: 92b5 7c3e 1ae9 87be 6817 88be ab5d 7d3c
00000180: cb26 3fbe 6228 44be c42e 383a e019 dc3d
00000190: f0fc f93d fba8 f43d baa7 833e ebdd 78be
000001a0: e94b 4e3e 4e9a 1e3e d8a4 67bd d199 d43e
000001b0: cc6c 08be 0669 19bd 2213 43bd 62a3 783d
000001c0: 8599 3b3e 3c43 52be 6591 b6bc 79b3 b63d
000001d0: 7118 98bd a450 dbbd 5d10 623e 6b35 4c3e
000001e0: 10f0 b0bd 180f 243f e0ce 2abe 8be8 493c
000001f0: 4ef8 c8bd 914a 07bd 6219 08bd 6d3f c1bd
00000200: f2cf e3bd b05b ea3e c42b a8bd 1738 193e
00000210: 5b94 07be 86fc 453d 6b66 823c c031 a7bd
00000220: b09d 42be 6fcb 3dbe 945b 23be 12c6 203e
00000230: d396 453e 9416 763e e11e a13c 287c c93e
00000240: 6c6a 973e 0146 d03c f1d3 a1bd 3e2b 11be
00000250: 2757 08bd feeb 73be 3983 a9be 605b 273e
00000260: 0abf 79bd 0944 efbc 7cec 5dbe abe9 943c
00000270: 641a 41bc 40f2 1a3e 068b 6b3e 2392 373f
00000280: 60b2 60bd 6fc5 353c 9e3e e7bd 6b35 1a3e
00000290: da2f ba3c 673b 273b 3c18 183d 42ed 83bd
000002a0: 8f14 e0bd bedc 7cbd a9ba 02be b6e9 73bd
000002b0: fc73 303e 5664 c7bd 79ef 34be b18b 2fbe
000002c0: 4d0e 5dbe c1fc 73be d190 913d 8a46 063e
000002d0: 65b7 3fbd 8eca c53d 69f8 e3bc a9f8 90be
000002e0: edd6 153e d5be 9cbc 1ea5 29be cad0 993e
000002f0: 04bf a6bd 0b89 243e 095f 4f3d 8825 76bd
00000300: 25af e53d ac74 49be 6764 953c 95d0 8a3d
00000310: d440 46be 7b63 83be 451f 373e 199a dd3c
00000320: 5fae a9bc 9072 293e 7a07 9fbd 237e 023e
00000330: 1ea9 253e 4295 d63c e8c8 51ba 9d51 82bd
00000340: 4686 60bd 833f 8ebd e0d8 c1bc fae7 fe3d
00000350: 146d 93bd 3f43 09be a0b9 e03d 8ebe d0bc
00000360: 9650 43bd 1838 ebbd 336e ab3d c587 63bd
00000370: 6a7c 423e 151e 9c3c 6b8c babc 5cc0 6c3d
00000380: 5b8d 253e ca3a b4bd a280 e8bc b608 d1bd
00000390: 18d4 433d afb9 f5bc 7d8b 24be 4ebb f43d
000003a0: 2e56 dfb8 f2d1 b93c 2fe4 913d 8fff 86bc
000003b0: 5665 1c3d ce62 5cbe 880d 0a3e a452 aabd
000003c0: fc2e 4fbe 762e 9f3e 6ca0 eebd 840e 92bd
000003d0: 55c0 f63d 3b48 223e 4ed5 0f3d 893e 953c
000003e0: e285 82bc a93c a5be c31c f4bc 5b35 643c
000003f0: f6c9 eb3d ae5e 9dbd 8a05 693d 3b6f f8be
-0.27890587 -0.3173891 0.11142269 0.004555262 0.21577829 0.019278653 -0.11128379 0.30284333
0.115902565 -0.7408741 0.12884389 -0.0070458176 -0.07752802 0.07407028 0.11667675 0.06904026
0.31471476 0.005475142 -0.02828983 0.36074227 0.10067604 -0.07226047 0.22804695 0.35173222
0.031344544 0.13152832 0.30352166 -0.51105225 -0.098946124 -0.99859005 -0.76296 0.38027087
0.30871952 -0.15239844 -0.17104477 -0.13021047 -0.21512002 -0.6236988 -0.18109705 0.13093922
-0.25382218 0.2528747 -0.18759374 0.12434557 0.120484896 0.14995024 0.056457177 0.23262894
-0.112822026 0.09527532 -0.28844458 0.3590293 0.27381638 -0.08055037 -0.15000781 -0.29175526
-0.25215834 -0.27648672 -0.18273304 0.19608837 0.20011196 0.25178534 0.3381462 0.28161457
0.09057227 0.2736686 -0.28756672 -0.24477832 -0.36115864 -0.40371528 -0.12069276 -0.12556371
0.18624513 -0.35507882 -0.3386471 0.04471084 -0.23272035 -0.4764693 -0.29957703 0.7601241
-0.30153635 0.29761785 -0.16783641 0.26326406 0.18710838 -0.114414416 0.20962481 0.22251233
-0.20582455 0.08140522 -0.11686006 -0.025760349 0.24678639 -0.2654503 -0.26580358 0.015464227
-0.18667142 -0.1915603 0.00070260116 0.10747123 0.12206447 0.11946293 0.25713903 -0.24303405
0.20146145 0.1548855 -0.05655369 0.41523603 -0.13322753 -0.037453674 -0.04762567 0.06070269
0.18320282 -0.2053346 -0.022286126 0.089209504 -0.07426537 -0.1070874 0.22076555 0.19942252
-0.08639538 0.6408553 -0.16680479 0.012323509 -0.09812985 -0.033030096 -0.033227332 -0.09435926
-0.11123647 0.45773077 -0.08211473 0.14962803 -0.13240187 0.04833653 0.015917977 -0.08163786
-0.19005466 -0.18534635 -0.15952903 0.15700558 0.19295816 0.2403205 0.019668045 0.39352536
0.2957338 0.025424005 -0.07901753 -0.14176652 -0.03328624 -0.23820493 -0.33107927 0.1634345
-0.060973205 -0.029207246 -0.21672243 0.018177828 -0.011786077 0.15131474 0.23002252 0.7170736
-0.05485761 0.011094435 -0.1129124 0.1505944 0.022727896 0.0025517584 0.037132487 -0.06441738
-0.10941421 -0.061733954 -0.12766518 -0.059549056 0.17231745 -0.097359344 -0.17669477 -0.17143132
-0.21587487 -0.23826887 0.071077 0.13112846 -0.046805758 0.09657775 -0.027828412 -0.28314713
0.14632769 -0.019133965 -0.16566893 0.30042106 -0.08141902 0.16067903 0.050627742 -0.060094386
0.11215047 -0.19673413 0.018236352 0.06778065 -0.19360667 -0.25661835 0.17883022 0.027051019
-0.02071303 0.16547608 -0.07765098 0.1274343 0.16177794 0.026194219 -0.00080026546 -0.06363223
-0.054815553 -0.06945708 -0.023662984 0.1244659 -0.071985394 -0.13404559 0.10972905 -0.025481489
-0.047684275 -0.114853084 0.08370628 -0.0555494 0.18992773 0.019057313 -0.022772035 0.057800636
0.16167204 -0.088002756 -0.02838165 -0.102067396 0.04780969 -0.029995767 -0.16068836 0.11949788
-0.00010649521 0.022683118 0.07123601 -0.016479282 0.03818258 -0.21522066 0.13481724 -0.08316544
-0.20232767 0.31090134 -0.11651692 -0.07131675 0.12048403 0.15847866 0.035115533 0.018218296
-0.01593298 -0.32272843 -0.02979887 0.013928737 0.1151313 -0.07684074 0.056890048 -0.48522362

model.rnn.weight_hh_l1 f4 [160, 40]
00000000: b089 6e3c 2539 4dbe c186 483d a21d a1be
00000010: 9856 293e c711 29be b120 b73e 0007 b7bd
00000020: e240 0d3e d7b5 1fbc ce8d d23d b6d7 ad3d
00000030: 4c80 583e 8c26 11bc 4b85 0c3d 995f 36bc
00000040: 1fef 9ebe b670 1c3e fcf9 2bbf e3e9 81bc
00000050: a1fa bcbd 91eb 12be 8f01 863e a272 9dbd
00000060: 42ba cc3d 0d00 eebd b7e5 fbbd b905 f4bc
00000070: f0ec 8eb9 7f8d b5be dde8 9ebe 900d b7be
00000080: a4f5 af3d bfe3 963c d5e6 aabd f6f0 ac3e
00000090: a9cc 833c 5fcc 413e 1f86 f43e cc78 1ebc
000000a0: 34b6 8abd 3e6a c83e 7bc4 a13c d386 a33e
000000b0: df68 373e 9736 87be 4e9b 08bd efe9 22be
000000c0: dae6 603e 1653 333e 64b1 dc3d 3198 893d
000000d0: 6c73 f3bd 5d79 373e 2b8d 823e a16c a9bc
000000e0: 2bf4 cd3d cc20 16bc 7b29 04be 2215 36be
000000f0: 27e5 aabd 8174 27bd a90d e7bd 5ba4 ea3d
00000100: a464 a03d 39c8 a93a 87c8 94ba 687b 0b3e
00000110: 1992 163e 0266 033f 4393 023d 70dc b7bb
00000120: 35ce 233e 5506 763c b49f 333e 68d5 0b3c
00000130: 6f24 b73d 1042 8bbe bfe8 19bf 72c4 9a3d
00000140: 5b53 a5bd 6008 103e 19e4 ae3d ef77 41be
00000150: a621 38bd 5747 2dbe 973d 8cbc 7411 8b3d
00000160: f9a6 04bd 6bac dabd a129 fc3d 91c1 9bbc
00000170: 1669 cabb 54e0 debc cef9 15bd 25da 10bc
00000180: 7c07 c13d 109b d73c 6dbb 1cbe da19 51bd
00000190: 2820 20be 113f d13d beda 34bc af46 4d3c
000001a0: 7fe5 bfbd a338 2a3e d7cb d4bc 1a9e 7f3d
000001b0: 60df bebd 0d31 f03d ae0b 9bbd aec0 05be
000001c0: 9cbb c63d 677f 123e 0a5b a3bd f180 58be
000001d0: 9530 0fbe cec4 eb3d 4119 f5be af47 88bd
000001e0: cf9c e33d 855c 2c3e 0a4f b43d 77da 11be
000001f0: 72a0 653e 1eb9 e3bc 9965 6bbe 9476 063e
00000200: afd8 e33c b42a b03b 5bfc 493c 4f30 123e
00000210: aae4 16be 0c87 35be 112a 2b3e c839 88bd
00000220: 36df 4e3d fb84 f93d 3190 d8bd 8643 b23d
00000230: 8b9b db3d 0507 7bbc 669c 533e 38f5 76be
00000240: 3247 0dbe b0a5 fabd 3592 f3bd 9c57 0fbe
00000250: 6186 963d e4f9 fbba 8141 a7be c5e8 1ebe
00000260: 6f96 07be 4f85 143c 0f25 14be 745f ab3d
00000270: a221 b83d a77e 03bf db86 1a3f 829f 40be
00000280: 210a 96bd 765d e6bd 4aed 1fbe 0f73 1dbe
00000290: ebb2 6e3d 5f54 55bd 0895 5a3e ac71 51bd
000002a0: 4f97 84bd d5b7 d83d d229 99bd 92f3 afbc
000002b0: 33c8 21bc 35c2 a6bc d0c8 093b e4ae 033e
000002c0: 2881 09be 7e9d 2f3e dfae c8bd 7933 a63d
000002d0: 9af5 79bd 927b 023e 74ef e43c f153 043e
000002e0: 1865 8ebd c36a 7dbc 57ee 883d a978 d63d
000002f0: 3a30 3d3e 5187 dd3d 43cb 2cbd 5706 6abd
00000300: 3f74 2a3d 7b20 cf3d e53a 173e ccca 38be
00000310: bff1 373d 122c 76be 495f 86be 62f5 0b3e
00000320: 2cd6 f6bd 5f75 41bd 0dbd c1bd 526a 93bd
00000330: a0b4 3a3e b9ef 7cbd 99fc 60bd 76e7 283d
00000340: 51cf d5bc b670 7b3d b26d 013e d344 133e
00000350: b01c 99bc 04e2 123e 7405 ccbd 77a8 ddbd
00000360: cbc5 443d 4603 2f3a 04f3 b83b 0784 c53c
00000370: 2f24 f6bd 5234 9a3c c51f 44bc 9e82 e03d
00000380: 71fd e13c a000 413d 9595 35bd da3b 463d
00000390: af8e bb3d fd28 2d3a ab7e 9bbd a622 94bd
000003a0: 8d27 e33c f6d6 d13d dd8c 3e3d efe8 86bd
000003b0: aac0 1e3e c660 3abd e977 11bd ed05 2a3e
000003c0: 6144 223d bade 773e 0961 c53c 8a85 213d
000003d0: 579f a53b 698b 32be 467c 0fbe 3648 c63d
000003e0: 0fd8 403e 5bc1 393e 5cc2 e2bd 57f8 de3d
000003f0: d328 e63d 38e0 03be 9190 46be cbf0 803d
0.014559194 -0.2004133 0.048956636 -0.3146792 0.16536939 -0.16510688 0.3576713 -0.08936882
0.13794282 -0.009747944 0.10280953 0.08488409 0.21142691 -0.008859288 0.034306806 -0.011131191
-0.3104181 0.15277371 -0.6717832 -0.015858596 -0.09227491 -0.14347674 0.26173064 -0.0768788
0.09996463 -0.116211034 -0.12299674 -0.029787885 -0.00027260883 -0.35459515 -0.31037036 -0.35752535
0.08591774 0.018419145 -0.08344809 0.3377759 0.0160888 0.18925618 0.47758576 -0.009672355
-0.06773034 0.39143556 0.01974701 0.319388 0.17911099 -0.26408836 -0.033351235 -0.15909551
0.21963063 0.17512164 0.10776022 0.06718481 -0.11887249 0.1791739 0.25498328 -0.020681681
0.10056337 -0.009163093 -0.12906449 -0.17781499 -0.083444886 -0.04088259 -0.11281902 0.114571296
0.07831696 0.0012953348 -0.0011351266 0.13621294 0.1470417 0.51327527 0.03187872 -0.005610995
0.1599663 0.015016158 0.1754139 0.008534767 0.08942496 -0.2719884 -0.6012077 0.07557
-0.080725394 0.14065695 0.085396 -0.18893407 -0.044953965 -0.16921745 -0.017119212 0.06790438
-0.0323858 -0.10677417 0.123126276 -0.019013198 -0.006177078 -0.027206577 -0.036615185 -0.008841072
0.09425256 0.026319057 -0.15305872 -0.051050045 -0.15637267 0.10217107 -0.01103848 0.012529059
-0.09369945 0.16623168 -0.025976105 0.062406637 -0.09319949 0.11728106 -0.07570587 -0.13061783
0.097037524 0.14306413 -0.07976349 -0.21142937 -0.13983376 0.11512147 -0.4787083 -0.066542976
0.11113893 0.16832168 0.08804138 -0.14243494 0.22424486 -0.027798232 -0.22987975 0.13131171
0.027813284 0.0053761844 0.012328233 0.14276241 -0.14735666 -0.17727298 0.16715266 -0.06651646
0.05050584 0.12183567 -0.10574377 0.08704285 0.10723027 -0.015321498 0.2066513 -0.24116981
-0.1379669 -0.12238634 -0.11893121 -0.13998264 0.073498495 -0.0019224253 -0.32667163 -0.15518482
-0.1324098 0.009064986 -0.14467262 0.083678156 0.0899079 -0.5136513 0.60362023 -0.18810847
-0.07326151 -0.11248295 -0.15617862 -0.15375923 0.0582761 -0.052082416 0.21345913 -0.051133797
-0.06474172 0.10581938 -0.0747868 -0.021478448 -0.009874391 -0.020356277 0.0021024235 0.12859684
-0.13428175 0.17149922 -0.09798979 0.081152864 -0.06102524 0.12742451 0.027946211 0.12922646
-0.06952876 -0.0154673485 0.06686085 0.10472233 0.18475428 0.10816825 -0.042186033 -0.057134952
0.041614767 0.10113617 0.1476856 -0.18046111 0.04490828 -0.24040249 -0.26244572 0.13667825
-0.12052569 -0.047231074 -0.09459887 -0.07198013 0.18232965 -0.061752055 -0.054928396 0.041236363
-0.026099833 0.061386786 0.12639502 0.14381723 -0.018690437 0.1434403 -0.099619776 -0.10823148
0.048040193 0.0006676208 0.005644204 0.024110807 -0.1201862 0.018823776 -0.011970465 0.10962413
0.02758667 0.047119737 -0.044332106 0.048396923 0.09158074 0.0006605534 -0.075925194 -0.07233171
0.02772882 0.10246079 0.046521056 -0.06587397 0.15503183 -0.045502447 -0.035514746 0.16603823
0.039615992 0.24206057 0.024094122 0.039433993 0.005054395 -0.17435993 -0.1401225 0.09681742
0.1883242 0.18140166 -0.11072227 0.10887211 0.11238255 -0.12878501 -0.19391085 0.062959276

model.rnn.bias_ih_l1 f4 [160]
00000000: 266c e73c b565 b53e e130 9d3e ecb2 f83d
00000010: ca03 183e 7fb5 753e 763c 0c3e b4ac b1bd
00000020: 743e 5d3e 62bb 333c 1d16 7c3e d340 783e
00000030: 2cf5 af3d cb53 0a3e ca38 3a3d 0df6 a33d
00000040: 6df9 12be 62b1 163e 8306 2e3e fe88 083e
00000050: 7ea4 c83d 9de4 643e c18e 03be 67ad 03bd
00000060: b65c b83e 3e4d 3b3e 6a1f 30bc 253a 753e
00000070: 5d8a d03e 95a0 bfbd a38f 253d 9c44 633e
00000080: 1aaf cc3e 5846 be3d 475f 0b3e 610c ec3b
00000090: 0458 d43e d8e5 33bc f926 2d3e 89cb 2a3d
000000a0: 60c4 b1bd 8824 0d3e 69f9 353d 0d9c 383e
000000b0: a9d5 593d 85c1 803d d13d ff3d 89cf 713d
000000c0: 7f69 48bd 47cd 7fbd 3d11 183e 9287 8ebb
000000d0: b01d 703d 0d14 173e 38e6 f83b 6bca c63c
000000e0: caca 053e 8dff db3c 6202 923d 6d95 443d
000000f0: a1c8 dd3d b03a 443e ad36 fc3d 7d15 d8bd
00000100: 24d0 21bd 0472 4fbd 1097 df3d 2320 1dbd
00000110: 89b7 113d f814 99bd 0f21 fc3d 517e 2dbc
00000120: 8568 31bd 6179 97bd 74e8 423c 8dab d63d
00000130: cad5 db3d ded2 5b3b 505a 92bc 2b67 563e
00000140: 4dbf eebd b2cc 1ebe 1f0c 1f3d 668b 90bb
00000150: 4be7 b5bd 4980 21be 60f6 033e 1947 f63c
00000160: 5845 853e 49f3 1f3c 0cd0 923e cf11 1b3e
00000170: 6564 6b3e 1348 45bd 2759 cf3d 26b2 173c
00000180: 331e 473d 6132 73bd edb8 ebbd f479 03be
00000190: 64a0 0bbe 7f10 bdbd 40e9 9c3c a911 033e
000001a0: 7f65 0c3e dce8 0b3e 4a77 e1bd 4efe 4f3d
000001b0: 61c5 843e 814c c13d df06 16be 562d d33d
000001c0: a362 40bb 1502 163d ebb5 80be 4780 8abd
000001d0: 2338 1d3e c364 49be 78d1 0fbe 4928 e43d
000001e0: 3a88 163e e66b 99bd 5318 b0bd 4fd4 fe3c
000001f0: 6f8b 033e 8cd1 9c3d dc90 283e ade5 b13d
00000200: 6783 413d 5207 cbbd 770f 3b3b 10af 5e3e
00000210: 1ebe be3e fca2 b2bd cd03 08be d95d 903e
00000220: eb35 a9bd 5976 4c3e 6490 a73e 5477 2c3e
00000230: e9eb a53d 3e5c a83e 823b 263e cc76 753e
00000240: edbb 5ebd 6b1b 20bd 6c9e 47bd 9f54 3d3e
00000250: c208 1a3e 8aba 04bd 5e0f 3d3e 99d7 af3d
00000260: 5733 84bd b6dc 0c3d d5d9 a03c e8ad 5b3e
00000270: 0384 893e 452f 0fbc 8e19 fb3d 1cb6 dd3d
0.028249811 0.3542916 0.30701354 0.12143502 0.14845195 0.23995017 0.13694939 -0.08675519
0.21605855 0.0109699685 0.2461781 0.24243478 0.08591685 0.13508527 0.045464315 0.08005915
-0.14352961 0.14716104 0.16994672 0.13333508 0.097969994 0.22352834 -0.12847425 -0.03214779
0.36008233 0.18291184 -0.010749677 0.23947962 0.40730563 -0.093568005 0.040420186 0.22194141
0.39977342 0.09290761 0.13610564 0.007203624 0.414734 -0.010980092 0.16909398 0.041698013
-0.08680034 0.13783467 0.04442731 0.18028279 0.053182278 0.06286911 0.124629624 0.05903581
-0.048928734 -0.062451627 0.14850326 -0.0043496573 0.058622062 0.14753743 0.0075958036 0.024266442
0.13065639 0.026855255 0.07129361 0.047994066 0.108292826 0.19163013 0.12315116 -0.105509736
-0.03950514 -0.050645843 0.10917485 -0.038360726 0.035575423 -0.074747026 0.12310993 -0.010589198
-0.04331257 -0.07396198 0.011896241 0.104819395 0.107341364 0.0033542435 -0.01786533 0.20937793
-0.116575815 -0.15507773 0.03882992 -0.004411149 -0.08882006 -0.15771593 0.12886953 0.030063199
0.26029468 0.009762594 0.28674352 0.15143512 0.22987516 -0.04816444 0.10124426 0.0092587825
0.048612785 -0.059374217 -0.11509881 -0.1283949 -0.13635403 -0.09231662 0.019154191 0.12799706
0.13710593 0.13663048 -0.11009081 0.050779633 0.25931838 0.0943842 -0.14651059 0.103113815
-0.0029355667 0.03662308 -0.25138792 -0.06762748 0.15353446 -0.19667344 -0.1404475 0.11140496
0.14700404 -0.07491283 -0.085983895 0.031107096 0.12846158 0.076571554 0.1646151 0.08686385
0.047244456 -0.099135056 0.0028543153 0.21746469 0.37254423 -0.08722493 -0.132827 0.281966
-0.08262237 0.19967021 0.3272735 0.16842395 0.08101637 0.32882875 0.16233638 0.23971099
-0.05437844 -0.039088648 -0.048735067 0.18489312 0.15042403 -0.03240446 0.18462893 0.08586044
-0.06455105 0.034390174 0.01963512 0.21453059 0.2685853 -0.008739297 0.122607335 0.1082575

model.rnn.bias_hh_l1 f4 [160]
00000000: 1df7 123e 0881 cf3e 1aa3 9d3d 9a22 243d
00000010: 34e1 67bc 4052 433c e846 3cbd f86b 94bd
00000020: 6ed6 b63d 2dd6 3cbd f5fa 403e cac5 a83d
00000030: 5dc5 383e fc6f 063e 936c 93bd 43c8 173e
00000040: 5e31 62bd 0e8c 9b3e e620 603d 0e19 9b3e
00000050: 3bf2 ed3b 3c5f e83d 8c4b 343a 7eb4 833d
00000060: 038e 923e e23d d53d 0039 8b3d 056b 923d
00000070: 1345 993e f78a 9abd 4565 c43c b777 8f3e
00000080: b428 c73e 12a2 14bd 711a 633e 4c50 8a3d
00000090: 3ec4 543e 4430 3b3d f004 843d e0f3 8c3e
000000a0: a811 b9bc 6ea4 59bd e86c 083e 5c1f 59bd
000000b0: 6d71 b63d ca2a 383e 9e76 4a3d 980b 093c
000000c0: e7e9 a03a 82b5 523d f225 613e 1ff0 e0bd
000000d0: 81de 3d3e 19ad a1bb 1537 563d 60ff 503e
000000e0: 2702 76bd bad8 043d 2959 613e a8a8 1d3d
000000f0: c9be 973d 6b9f 123e 81f8 a83d cedc 2bbd
00000100: ef10 a7bd f62f b4bd 8861 de3d 631c 263c
00000110: e8ba 2f3e a7d0 3bbc 3444 c8bd e5a1 7f3d
00000120: 2eb9 233d 9035 d03c ebf1 e23d 7cdb da3d
00000130: 23c0 1e3e b8a0 2e3d 5cb8 333d f404 833d
00000140: e62e b1bd 8457 3fbd 0df2 6cbe cc33 23be
00000150: 4ec8 a1bd c135 103d 6c0c d53d 8447 1d3e
00000160: 14ec b13c f2e2 6c3d f9e4 8d3e 082e 883e
00000170: 80e2 903c 66e3 71bd 680e 213e 34a8 773e
00000180: b78a 47bd a0d0 063e b2fe a33c d6f6 21be
00000190: ab1f 0fbe b05a 40be 74c5 babd 6d4b 853d
000001a0: 8166 f03d 2573 863e 9992 f53d 9fb0 7e3e
000001b0: f81f 9abc 8ad7 c83d f172 8f3c e219 d93d
000001c0: 8236 dc3c 66b3 8f3e 5c81 7abe c5fe 98bd
000001d0: 9c76 6d3e 9c5b 4abd 73b9 583d 53e2 053e
000001e0: f394 233e 3d41 c4bd ba64 2dbd 23a4 433e
000001f0: f31b 7ebd c6c0 de3c d392 78bd 24b6 6c3c
00000200: 96f1 b8bd 2f40 863d 2ad2 523e 488d 883e
00000210: b865 e73e cd59 f83d ee1b 823d 990a 733e
00000220: 885c 0a3d ece1 0c3e bf7d 813d d56a 473d
00000230: 267f c6bd f352 bf3e 1296 9b3c 23fa 373e
00000240: 8b5f 97bd 8975 55bd 4bd5 8a3d 9ea0 303d
00000250: 1627 d13d 0cf7 b8bd c998 10bd 6f40 d3bd
00000260: e1b4 c93d da2e 283e 080d 693e 1f08 413e
00000270: 4828 b43d 66aa 1e3e fd97 953e 0402 a1bd
0.14352079 0.4052813 0.07697125 0.04007206 -0.014152814 0.011921465 -0.04596606 -0.07247156
0.08927618 -0.04610269 0.18845733 0.0824085 0.18044038 0.13128656 -0.07198443 0.14822488
-0.05522286 0.3038029 0.054718874 0.30292553 0.007261542 0.113462895 0.00068777124 0.064309105
0.2862397 0.10412194 0.06797981 0.071493186 0.29935512 -0.07546037 0.02397407 0.28021023
0.38898242 -0.036287375 0.22178055 0.06753597 0.20777985 0.045700327 0.06446254 0.27529812
-0.022591427 -0.053135328 0.13322794 -0.053008422 0.08908353 0.17985073 0.04942953 0.008364581
0.001227674 0.05144263 0.21987131 -0.109832995 0.1854191 -0.004933965 0.052298624 0.20409918
-0.060060646 0.03243325 0.22006668 0.03849092 0.07409436 0.14318626 0.08250523 -0.041958623
-0.08157527 -0.0879821 0.10858446 0.010138604 0.17161143 -0.011463321 -0.09778634 0.062410254
0.039971523 0.025416166 0.110812984 0.106863946 0.15502982 0.042633742 0.04387699 0.06397429
-0.08651523 -0.04671432 -0.2313921 -0.15937728 -0.07899533 0.035207514 0.1040276 0.15359312
0.021719016 0.05783362 0.27713755 0.2659762 0.017686129 -0.059054755 0.15728152 0.24185258
-0.048716273 0.13165522 0.02001891 -0.15816817 -0.13976924 -0.18784595 -0.091196924 0.06508527
0.11738301 0.26259723 0.11990852 0.24872063 -0.018814072 0.09806736 0.017510863 0.1060064
0.02688146 0.28066558 -0.24463409 -0.074704684 0.23189777 -0.04940377 0.052911233 0.13074617
0.15974788 -0.09582756 -0.04233239 0.19105582 -0.062038373 0.02719153 -0.060686897 0.014447723
-0.09030454 0.06555211 0.20587984 0.2667029 0.45194793 0.12126503 0.063529834 0.23734511
0.03377965 0.13758057 0.06322812 0.048685867 -0.096922204 0.37367973 0.018992458 0.17966513
-0.0739127 -0.052114043 0.06778964 0.043121926 0.10212533 -0.090314955 -0.035301957 -0.10315024
0.09848953 0.16424122 0.22758877 0.18850754 0.087967455 0.1549469 0.2921752 -0.078617126

exp_avg f4 [1, 40]
00000000: 1154 c438 459a 81b7 fd79 6838 e42d 5ab8
00000010: 9be5 63b8 ba5c 4d38 ce80 ad35 56ed 0fb7
00000020: ae68 dcb7 1e06 d7b8 74f2 adb8 c63f 91b8
00000030: 9088 59b7 e57c 87b8 fc0f 97b7 4001 d7b8
00000040: e886 5db8 540b 88b8 52f6 b838 abbc c938
00000050: 2935 6a38 1c23 fa38 da11 8837 a4e9 70b8
00000060: b4a0 5fb8 8b83 23b8 d52b 1938 e537 91b8
00000070: a4c2 fab8 d3a4 1cb8 ff0f 4ab7 7e4c 7837
00000080: d0ac aab8 fcf1 90b8 7f07 b7b8 f96d 90b7
00000090: 2216 e2b8 f2ff 9a37 2aa0 97b6 ee55 8eb8
9.361667e-05 -1.5449836e-05 5.542672e-05 -5.201799e-05 -5.4334854e-05 4.8962167e-05 1.2926992e-06 -8.578723e-06
-2.6274789e-05 -0.00010253138 -8.294443e-05 -6.9260175e-05 -1.2966004e-05 -6.460565e-05 -1.8008046e-05 -0.00010252232
-5.2816147e-05 -6.4870954e-05 8.8196844e-05 9.619569e-05 5.5839457e-05 0.000119274686 1.6220776e-05 -5.7438054e-05
-5.331701e-05 -3.8984737e-05 3.6518864e-05 -6.92455e-05 -0.000119571836 -3.7346803e-05 -1.2043863e-05 1.4799762e-05
-8.1384205e-05 -6.911528e-05 -8.727516e-05 -1.7217348e-05 -0.00010780642 1.8477414e-05 -4.5187962e-06 -6.787093e-05

exp_avg_sq f4 [1, 40]
00000000: 5aab 1036 99a8 c034 d82e eb33 2e18 da33
00000010: 5c51 8634 ce91 2534 519a 2e35 dc69 8833
00000020: 73b3 bd35 fb23 4935 490a 9336 8c07 1b35
00000030: 58b4 ef35 e91b 9435 b06b 1d35 1c31 3c36
00000040: a2a4 8d33 abec b735 dcfd 6f36 e716 2036
00000050: 8301 1a35 3afc 4936 11dc 6d34 139f 0936
00000060: 4f5e ce35 710c 9a34 155c 4734 f108 6336
00000070: ecdc 5736 1d4d 1a35 773b a834 fbb1 5135
00000080: d622 e135 ee3f df34 30e5 4936 073b 0d35
00000090: c36b d735 f54b 5633 4d36 a835 d757 4635
2.1557412e-06 3.5885458e-07 1.0951561e-07 1.0155814e-07 2.5018642e-07 1.5419866e-07 6.504461e-07 6.352249e-08
1.4133824e-06 7.4930693e-07 4.3821387e-06 5.775298e-07 1.7859375e-06 1.1034982e-06 5.8643764e-07 2.8042768e-06
6.595771e-08 1.3703442e-06 3.576154e-06 2.3855189e-06 5.737167e-07 3.009815e-06 2.2152405e-07 2.0507184e-06
1.5375643e-06 2.8693788e-07 1.8566818e-07 3.383084e-06 3.216609e-06 5.7481685e-07 3.1335705e-07 7.8117563e-07
1.6773945e-06 4.1583502e-07 3.0084739e-06 5.261249e-07 1.6050111e-06 4.989484e-08 1.2532779e-06 7.388857e-07

exp_avg f4 [1, 40]
00000000: 715e af3d 2748 87bd af64 823d ce17 54bd
00000010: 5c0b 29bd 47ba 363d a0c1 0d3c 6c96 b73c
00000020: e518 a6bc c60e a1bd de80 5ebd 7efc 88bd
00000030: 70d8 d43c 1abe 2abd 2c34 1dbc e4a6 b3bd
00000040: e4d6 76bd 2ede 5cbd a81d a13d 7fb9 b73d
00000050: 9bcc 573d 249c bc3d d08d ad3c 64ea aebd
00000060: d88d f0bc 0a69 d2bc a401 093d f057 8cbd
00000070: b808 c6bd 28e5 acbc 83b0 87bd b879 3c3d
00000080: 5400 67bd 568b 5fbd cc52 aabd 56d8 29bd
00000090: b57b a7bd f40c b43c 8a28 753c 6aa2 68bd
0.08562935 -0.06605559 0.0636686 -0.051780514 -0.0412706 0.04461124 0.008652121 0.022410594
-0.020275543 -0.07864146 -0.054322116 -0.06688784 0.025982112 -0.0416852 -0.009594958 -0.08772066
-0.06026353 -0.053922825 0.078669846 0.089709274 0.05268536 0.09209469 0.021185786 -0.085408
-0.029364511 -0.025684852 0.03344883 -0.0685271 -0.09669632 -0.021105364 -0.06625464 0.046014518
-0.056396797 -0.05457624 -0.083165735 -0.04146608 -0.08177892 0.021978833 0.014963279 -0.056795515

exp_avg_sq f4 [1, 40]
00000000: 70fc cc3f fe32 363e 2102 5e3e 66a3 043e
00000010: 98d8 043f f83a 753e 4416 523e f3e5 1c3d
00000020: 7bcd 9b3d 2deb bb3f 6f34 7f3f 941d e23f
00000030: ebfe 093e ce94 3b3f 4f60 b43c 00a2 e43f
00000040: c6bd 383f e2ce 353f 552d e63f 84a4 cc3f
00000050: f762 f53e 502c fc3f 4d9c 703c 09c2 d33e
00000060: 7b5f 1d3f 6adc 853e 868b e33e 78fc 803f
00000070: 82e2 0540 1e27 333c 7b38 9b3e 84d2 a63e
00000080: f97c 8e3f 8da7 743f be7a bb3f 4935 4c3e
00000090: 64b5 e83f cef6 e43e 269b dd3c e4f0 523f
1.6014538 0.1779289 0.216805 0.12952957 0.51892996 0.23948276 0.20516306 0.038305234
0.07607552 1.4681145 0.9968938 1.7665277 0.1347615 0.7327393 0.02201858 1.7861938
0.7216457 0.71018803 1.7982584 1.5987706 0.47927067 1.9701023 0.0146857025 0.41358975
0.61473817 0.26144725 0.44442385 1.0077047 2.09195 0.010934619 0.3031653 0.32582486
1.1131889 0.9556816 1.4646833 0.19942202 1.8180356 0.44719547 0.02705152 0.8239882

exp_avg f4 [1, 40]
00000000: 96e3 b6ba 6c5a 4fb9 be73 8cba cd0a 963a
00000010: 387c 1e3a 40e5 7bba 780f 0aba a895 1d39
00000020: ee54 8139 8270 1c3b 7813 b53a f4ed cc3a
00000030: 5c23 e739 6765 013b a36a b339 181a e43a
00000040: e679 913a 8263 b53a dcc6 bbba 74cc cfba
00000050: 7ea4 51ba 6505 0abb 5a36 feb8 bfe8 943a
00000060: d85b 6d3a a42d 313a 565a 67ba aadd 903a
00000070: 1cee 0c3b 732f 6b3a 5d0f ac3a 009f 68b7
00000080: bc11 b53a 8e00 953a 92bb b83a 1475 6a3a
00000090: a0a2 e63a ee5e 8c39 624a ed37 fa45 9b3a
-0.0013953324 -0.00019774743 -0.0010715646 0.0011447311 0.0006045732 -0.0009609051 -0.0005266587 0.00015028438
0.00024668075 0.002387077 0.0013815006 0.001563488 0.00044086098 0.0019744278 0.0003422099 0.0017402796
0.0011098951 0.001383886 -0.0014326232 -0.0015853778 -0.00079972285 -0.0021060344 -0.000121217876 0.0011360868
0.00090545183 0.0006758815 -0.0008825412 0.0011052389 0.002150423 0.0008971609 0.0013127137 -1.3865298e-05
0.0013814489 0.0011367963 0.0014093986 0.00089438376 0.0017596073 0.0002677361 2.8287239e-05 0.0011846416

exp_avg_sq f4 [1, 40]
00000000: 3fcb 033a 9ced 6038 1c60 9038 67b0 1a38
00000010: 5901 2539 9242 9b38 b8c5 7738 70f8 5737
00000020: 478f 2338 999d e439 3d3c b239 ec0c eb39
00000030: 103a 1738 f2ae 4f39 b88f 7c37 af79 143a
00000040: 364d 3839 3523 5f39 dc08 0c3a e158 023a
00000050: 74d6 1e39 c828 2c3a f1e3 6337 dd8c 2939
00000060: 975c 4839 5596 b038 fd1c fe38 0b9b ab39
00000070: 51c5 2c3a 7b4d 4337 f453 0339 ae71 c238
00000080: 1430 b139 b7d3 9639 7da3 e239 c422 9138
00000090: 1909 123a de0c a538 3fd9 4b37 9a7a 7439
0.00050275394 5.3627053e-05 6.884357e-05 3.688075e-05 0.00015736128 7.403376e-05 5.907353e-05 1.28728425e-05
3.8995666e-05 0.00043604968 0.00033995687 0.0004483232 3.605528e-05 0.0001980623 1.5053833e-05 0.0005663884
0.00017576371 0.00021280053 0.00053418963 0.00049723504 0.00015147944 0.0006567356 1.3583326e-05 0.00016169572
0.00019107979 8.4203355e-05 0.00012117063 0.00032731178 0.0006590682 1.1640946e-05 0.00012524409 9.271815e-05
0.00033795892 0.0002876797 0.00043227887 6.9206144e-05 0.00055708137 7.87021e-05 1.2150324e-05 0.00023315326
