lightning_logs/version_5/checkpoints/epoch=95-step=4800.ckpt (torch, 300078 bytes, 33 tensors)

model.param_proj.proj.0.weight f4 [1, 40]
0	0xbe1bd60b	-0.1521837
1	0xbd3ab5b9	-0.04558346
2	0xbf34e05c	-0.70654845
3	0xbe024d65	-0.12724836
4	0x3f5abae2	0.8544141
5	0xbecca271	-0.39967683
6	0x3d20f385	0.03929474
7	0xbe6afb51	-0.22947432
8	0xbd83a15b	-0.064272605
9	0x3e97fb93	0.29684123
10	0x3cffd59b	0.031229785
11	0x3ee7271b	0.45147023
12	0x3ec8635d	0.39138308
13	0x3d97ad6e	0.07406126
14	0x3cf86ee4	0.030326314
15	0x3f188210	0.5957346
16	0x3f2e86a4	0.68174195
17	0x3e24df55	0.1610082
18	0xbf0e4379	-0.55571705
19	0xbeb2e61d	-0.34941188
20	0xbe48a227	-0.19593106
21	0xbedfdcb9	-0.43723086
22	0x3e092d62	0.13396218
23	0x3eb6151f	0.3556299
24	0x3d6d6a05	0.057962436
25	0x3f00e417	0.5034804
26	0xbf00a69d	-0.5025423
27	0xbda904c4	-0.08252862
28	0x3e05d121	0.13068058
29	0xbe7dcffe	-0.24786374
30	0x3ebf06f4	0.37309992
31	0xbafdcf0c	-0.0019364073
32	0x3e75ca80	0.24003029
33	0x3f60cdea	0.878142
34	0x3f01b685	0.5066913
35	0x3ee14399	0.43996885
36	0x3ee28af1	0.4424663
37	0x3d1a8fd1	0.03773481
38	0x3e9bd3e3	0.30435094
39	0x3f1dbbd6	0.6161474

model.param_proj.proj.1.weight f4 [1, 40]
0	0xbe12c490	-0.14332795
1	0xbe0d0cc0	-0.13774395
2	0x3d179295	0.037005026
3	0xbde19c34	-0.110161215
4	0xbd835a8b	-0.06413754
5	0xbe319181	-0.17340662
6	0x3df9e66e	0.12202154
7	0x3e0f6aed	0.14005633
8	0x3e51c200	0.20484161
9	0xbdc05d70	-0.09392822
10	0x3d101dc2	0.03518463
11	0x3d56b352	0.052417107
12	0xbd3c1855	-0.045921642
13	0x3d903d8d	0.0704299
14	0x3e31bab2	0.17356375
15	0x3d3e2439	0.046421263
16	0xbdba517c	-0.09097573
17	0x3dbcebe6	0.092246816
18	0x3d4e3aa2	0.050348885
19	0xbd71d2e0	-0.059038997
20	0xbe23e3b7	-0.16004835
21	0xbd6eae2d	-0.058271576
22	0x3e09133b	0.13386242
23	0x3bdb29f6	0.0066883517
24	0x3e066717	0.13125263
25	0x3da9b9ab	0.082873665
26	0x3da4c01b	0.08044454
27	0x3d0701a0	0.032960534
28	0x3e3c2a21	0.18375446
29	0x3e0a89a4	0.13529068
30	0xbd2b5726	-0.041831158
31	0x3d0778cf	0.033074196
32	0x3db7dee3	0.08978059
33	0x3e24d33d	0.16096206
34	0xbe1d4474	-0.15358144
35	0x3e160687	0.14650927
36	0x3d95c878	0.07313627
37	0xbe362441	-0.17787267
38	0xbe06d2b5	-0.13166316
39	0x3e07ba1e	0.13254592

model.param_proj.proj.2.weight f4 [1, 40]
0	0x3d112d85	0.0354438
1	0x3dbf6e8f	0.09347259
2	0x3f1ac52d	0.60457116
3	0x3df7ee11	0.121059544
4	0xbe191938	-0.14951026
5	0x3e0d3349	0.13789095
6	0x3e6db41d	0.23213239
7	0xbe75fed8	-0.24022996
8	0x3db01d08	0.08599287
9	0xbdfd7f37	-0.1237778
10	0x3ca7b756	0.020473164
11	0xbec67d81	-0.38767627
12	0xbf414dc1	-0.7550927
13	0xbeb748dc	-0.35797775
14	0x3dc07e75	0.0939912
15	0xbe8e5c0a	-0.27804595
16	0xbebf212c	-0.37329996
17	0xbe11ad35	-0.1422623
18	0x3e860fb0	0.26183844
19	0x3e76f43c	0.24116606
20	0x3d9e0283	0.07715323
21	0x3e8c64ea	0.2742074
22	0xbe4517dd	-0.19247384
23	0xbec53106	-0.38513964
24	0xbd544af8	-0.05182931
25	0xbe1d8b70	-0.15385222
26	0x3e341b81	0.17588617
27	0xbd47048b	-0.048588317
28	0xbe18a06a	-0.14904943
29	0x3d7fc18e	0.062440448
30	0xbf5b76d5	-0.857282
31	0xbd86b5d9	-0.065776534
32	0xbe0ed42d	-0.13948126
33	0xbe36010d	-0.17773838
34	0xbe019474	-0.12654287
35	0xbe2e3cec	-0.17015427
36	0xbe4c0739	-0.1992463
37	0xbeec52f9	-0.46157053
38	0xbf0f2d8e	-0.55928886
39	0xbe804714	-0.25054228

model.rnn.weight_ih_l0 f4 [160, 21]
0	0x3e261ddc	0.16222328
1	0x3bdd7c0e	0.0067591732
2	0x3e87e8f8	0.2654493
3	0x3dc7ec1b	0.097618304
4	0x3dbbc16b	0.09167751
5	0x3dfec2ef	0.124395244
6	0xbd070991	-0.032968108
7	0xbdfc6ee5	-0.12325839
8	0x3d63ff88	0.055663615
9	0x3e2101f7	0.15723406
10	0x3d4077a6	0.046989106
11	0x3e5a907c	0.21344179
12	0x3e873127	0.26404688
13	0x3e0dd81d	0.13851972
14	0x3e320acc	0.17386931
15	0x3e5c1957	0.21494041
16	0xbe98c852	-0.29840332
17	0xb99bd8f6	-0.00029725552
18	0x3e0dcced	0.13847704
19	0xbf010898	-0.5040374
20	0x3ddca21f	0.1077311
21	0x3e11bae1	0.14231445
22	0x3cfd34b9	0.03090893
23	0x3ea2777d	0.31731787
24	0x3e4b011e	0.19824645
25	0x3e1a141b	0.15046732
26	0xbdd1a454	-0.10236421
27	0xbdaec143	-0.085329555
28	0x3dd0c058	0.10192937
29	0x3de6fc5f	0.11278605
30	0x3ea5d709	0.3239062
31	0x3e48b5f1	0.19600655
32	0x3de23b3a	0.11046453
33	0x3e776b8c	0.2416212
34	0x3e7421f0	0.23841071
35	0x3cf44c33	0.02982149
36	0xbdb43bde	-0.08800481
37	0xbe4a5568	-0.19759142
38	0x39b6b16c	0.00034845935
39	0x3e19008d	0.14941616
40	0xbc746b48	-0.014918156
41	0x3e303655	0.17208226
42	0x3e17da3c	0.14829344
43	0xbd196fcf	-0.037460145
44	0xbe4f4504	-0.20241171
45	0xbe25872d	-0.16164847
46	0x3c2061f6	0.009788981
47	0xbe182755	-0.14858754
48	0x3c93c5b7	0.018038614
49	0xbe13de9f	-0.14440392
50	0xbe3b2f0b	-0.18279664
51	0xbe198ee8	-0.1499592
52	0x3c34c3ac	0.01103298
53	0x3ea794c7	0.32730696
54	0x3e868bc6	0.26278514
55	0xbe0d32fb	-0.13788979
56	0xbcf7f1d4	-0.03026668
57	0x3e8ea7e6	0.2786247
58	0xbce65bb3	-0.028119897
59	0xb9187351	-0.00014538808
60	0xbd4bf146	-0.049790643
61	0x3efb0acb	0.49031672
62	0x3ce84130	0.028351396
63	0x3eb4b6c3	0.35295686
64	0x3e8a5e7a	0.27025205
65	0x3e1ed8c0	0.15512371
66	0x3de996bf	0.11405706
67	0x3e89be94	0.26903212
68	0x3e8852bb	0.26625618
69	0x3a37907a	0.00070024247
70	0x3d1667ab	0.03671996
71	0x3ccecf9a	0.025245477
72	0x3beee69b	0.007290674
73	0x3e8b2f41	0.2718449
74	0x3ea5346c	0.32266557
75	0x3ed89af7	0.4230573
76	0xbbc48fc6	-0.0059985844
77	0x3e61f96b	0.22067802
78	0x3e037cb7	0.12840544
79	0xbe416447	-0.18885909
80	0x385a1c98	5.200188e-05
81	0x3e67d8f3	0.22641353
82	0xbec7c031	-0.39013818
83	0x3d371f61	0.04470766
84	0x3da06f48	0.07833725
85	0x3ea34053	0.31885013
86	0x3e34c338	0.17652595
87	0x3e68cb45	0.22733791
88	0x3e3ce95b	0.18448393
89	0x3e1da5d1	0.15395285
90	0x3ddd87f8	0.108169496
91	0xbd7a1974	-0.06105943
92	0x3b9135bd	0.004431455
93	0x3ddb674e	0.10713063
94	0x3d0de69e	0.03464376
95	0xbda08cbb	-0.07839342
96	0x3da13021	0.07870508
97	0x3dd57e8f	0.1042453
98	0xbdcd6d83	-0.10030653
99	0xbb6a23c5	-0.0035726887
100	0xbe753a21	-0.23947956
101	0x3aacb32e	0.0013175958
102	0x3e90eb1a	0.28304368
103	0xbeecc3d7	-0.46243164
104	0xbc07ca69	-0.008288004
105	0x3e4eb971	0.20187928
106	0x3e44eb4b	0.19230382
107	0x3d48a732	0.048987575
108	0x3d1978d8	0.03746876
109	0x3e6e6e82	0.23284343
110	0xbe18acdb	-0.14909689
111	0x3e49e9ec	0.1971814
112	0x3cdaae0f	0.026694326
113	0x3e8cecd6	0.2752444
114	0x3c97cc74	0.018530108
115	0x3d3f4ffd	0.046707142
116	0x3e36a624	0.17836815
117	0xbc16c3f8	-0.009201996
118	0x3ea3cdfa	0.31993085
119	0x3ef64545	0.48099723
120	0x3ec46b4f	0.3836312
121	0xbdaad6b5	-0.08341733
122	0xb903a959	-0.0001255622
123	0x3e803735	0.2504212
124	0x3d3f48c7	0.046700265
125	0xbd7e0e0f	-0.062025126
126	0x3eefed06	0.46860522
127	0x3ea8c65b	0.32963833
128	0x3ecf6f4b	0.40514597
129	0x3e5c2733	0.21499328
130	0x3f006060	0.50147057
131	0x3ea3c7aa	0.3198827
132	0x3ea75142	0.32679182
133	0x3d956f0b	0.072965704
134	0xbcaf7430	-0.021417707
135	0x3d4672a1	0.048449162
136	0xbd183fdc	-0.037170276
137	0x3dfd0f32	0.12356414
138	0x3e2de8ce	0.16983339
139	0x3de4f80b	0.11180123
140	0x3df842eb	0.121221386
141	0x3d4abcf6	0.049496613
142	0xbed05f35	-0.40697637
143	0xbaa13969	-0.0012300435
144	0x3d81c810	0.06336987
145	0xbf2d24c9	-0.67634255
146	0x3ecf6e56	0.40513867
147	0x3d3b1b63	0.045680415
148	0xbda90ae0	-0.08254027
149	0xbe08a0c1	-0.13342573
150	0xbc105b4b	-0.008810828
151	0x3e39e6b5	0.18154414
152	0x3d965c03	0.073417686
153	0xbe0404d7	-0.12892471
154	0xbe367559	-0.17818202
155	0xbd8030e4	-0.06259325
156	0xbe2c8e6b	-0.16851203
157	0x3cdc7e0d	0.026915574
158	0xbcc09638	-0.02350913
159	0xbdfbdbd7	-0.122977905
160	0xbe6ed4c1	-0.23323347
161	0xbd907f62	-0.07055546
162	0xbdf4a09c	-0.11944696
163	0x3dc3a399	0.09552688
164	0xbabefd65	-0.0014571367
165	0xbde2aad1	-0.11067737
166	0xbeec3c6a	-0.46139842
167	0x3e17aaa3	0.14811186
168	0x3ef00b50	0.4688363
169	0x3e4b1c64	0.19835049
170	0x3e928697	0.2861831
171	0x3e56b408	0.20967114
172	0x3c962aac	0.018330894
173	0xbd01fad1	-0.031733338
174	0x3d8dc560	0.06922412
175	0xbc561013	-0.013065356
176	0x3cf6af00	0.030112743
177	0xbe015913	-0.12631635
178	0x3b63c295	0.003475343
179	0xbd81a6dc	-0.06330654
180	0x3e264a10	0.1623919
181	0x3dc1edf8	0.09469217
182	0x3cbdf22f	0.023186771
183	0x3e681454	0.22664005
184	0xbe58ea08	-0.21183026
185	0x3a93def5	0.0011281656
186	0xbd9909d2	-0.07472576
187	0x3e3e5861	0.18588401
188	0xbcf52b67	-0.029927922
189	0x3e8dfa17	0.27729866
190	0x3e9a163e	0.30095094
191	0x3dcabd52	0.09899391
192	0x3e1723b2	0.1475971
193	0x3e881917	0.26581642
194	0x3e35fa21	0.17771198
195	0x3e8520ce	0.2600159
196	0x3e783018	0.24237096
197	0x3e3247df	0.17410229
198	0x3e7dd090	0.24786592
199	0x3d3c9541	0.046040777
200	0x3d5da365	0.054110903
201	0x3d4051c7	0.04695299
202	0x3e958648	0.2920401
203	0x3d62fd01	0.055417065
204	0x3e22b68a	0.15889946
205	0xbed45df1	-0.41477922
206	0xb9d9188b	-0.0004140775
207	0x3e8e2749	0.27764347
208	0x3d7311e7	0.059343245
209	0x3e7f8027	0.2495123
210	0x3dc19a59	0.094532676
211	0x3dfed8a2	0.12443663
212	0x3e0d2c2f	0.13786386
213	0xbda635d2	-0.08115734
214	0x3bf2232f	0.007389448
215	0x3a6568b3	0.0008751258
216	0xbdd03c2c	-0.10167727
217	0xbc95f537	-0.018305404
218	0xbd9d78d2	-0.0768906
219	0xbdede806	-0.116165206
220	0xbeab6df3	-0.33482322
221	0xbe7412b5	-0.23835261
222	0xbe8e8c89	-0.27841595
223	0xbd41ca54	-0.047312096
224	0x3b762f62	0.0037564863
225	0xbd1a69e3	-0.037698638
226	0xbe03a2cd	-0.12855072
227	0x39887b19	0.00026031656
228	0xbe0c6e87	-0.13714038
229	0xbde90364	-0.113776
230	0x3dd1adc7	0.102382235
231	0xbce2b594	-0.027674474
232	0x3e51b296	0.20478281
233	0x3e3108df	0.1728854
234	0x3dc17c7c	0.09447572
235	0x3e2e1c13	0.17002897
236	0x3d991bb1	0.07475985
237	0x3c8d97e7	0.017284347
238	0xbe12faa6	-0.14353427
239	0x3bf2b1a0	0.0074064285
240	0x3cb57f52	0.022155438
241	0xbde0ad85	-0.10970596
242	0xbbd4701e	-0.006483092
243	0xbddb35e8	-0.10703641
244	0x3cb08726	0.021548819
245	0x3e059bce	0.13047716
246	0xbd98baa5	-0.074574746
247	0xbd052b74	-0.032512143
248	0x3a2ba140	0.00065471604
249	0x3e49799d	0.19675298
250	0xbee8a590	-0.45438814
251	0x3d1e1679	0.03859565
252	0x3e79496c	0.24344414
253	0x3e4b7579	0.19869031
254	0x3d55f7f3	0.052238416
255	0x3ec19782	0.37810904

model.rnn.weight_hh_l0 f4 [160, 40]
0	0x3d81ea8e	0.06343566
1	0xbdcb057b	-0.09913155
2	0xbd501588	-0.050801784
3	0x3d6ea2a3	0.05826057
4	0x3dc2e7c4	0.09516862
5	0xbda47c1f	-0.08031487
6	0xbb17e306	-0.0023176088
7	0x3d3a7d8b	0.045529883
8	0x3e014a66	0.12626037
9	0xbddc040a	-0.10742958
10	0x3c86e461	0.016466321
11	0x3d3ea091	0.046539847
12	0xbe130929	-0.14358963
13	0xbdcf2977	-0.10115331
14	0x3ca2c5f6	0.019869786
15	0x3d5a008c	0.053223178
16	0x3e2b1d88	0.16710484
17	0x3deb9e01	0.11504746
18	0x3d93829d	0.07202647
19	0x3d35efae	0.04441803
20	0xbd46fdbb	-0.04858182
21	0x3e562955	0.20914204
22	0x3e310a8d	0.17289181
23	0x3cb2a557	0.021807356
24	0xbd862852	-0.06550659
25	0x3e30c945	0.17264278
26	0xbe163b7d	-0.1467113
27	0xbdc3965b	-0.095501624
28	0x3ccda668	0.025103763
29	0xbda489c0	-0.08034086
30	0x3d7b37b1	0.06133241
31	0xbdd3351e	-0.10312866
32	0xbe7748d8	-0.24148881
33	0x3c93b1c3	0.0180291
34	0x3d66e75c	0.056372985
35	0xbdfbcc84	-0.12294868
36	0xbd0b2586	-0.033971332
37	0xbdb0a764	-0.08625677
38	0xbe8766e7	-0.26445696
39	0x3e845a2b	0.25850043
40	0xbea9e133	-0.33179626
41	0xbe2bf1e2	-0.1679149
42	0x3ce9982e	0.028514948
43	0x3e88f966	0.26752776
44	0x3d87a071	0.06622399
45	0x3cbea33b	0.023271194
46	0x3d9adb45	0.075613536
47	0x3ed0794b	0.4071754
48	0xbe2411af	-0.16022371
49	0x3e927354	0.28603613
50	0xbdb2f804	-0.087387115
51	0x3abbc6c4	0.0014326205
52	0x3ea6214b	0.32447276
53	0xbe8b2613	-0.27177486
54	0xbe7eeb6a	-0.24894491
55	0xbe055e01	-0.13024141
56	0xbe35cc93	-0.1775382
57	0xbe5b93e8	-0.2144314
58	0xbe4f7080	-0.20257759
59	0x3e284e3a	0.16436091
60	0x3e6b642a	0.22987428
61	0x3bb8782a	0.005629559
62	0x3ebfa532	0.37430722
63	0xbd431512	-0.047627516
64	0x3e4eaf45	0.20184048
65	0x3e02a95d	0.1275992
66	0xbb756962	-0.0037446846
67	0xbe1d6ffa	-0.15374747
68	0xbe8f1136	-0.27942818
69	0x3e4b6d8a	0.19866005
70	0xbe8a086e	-0.26959556
71	0xbca0959f	-0.019602595
72	0x3d496eda	0.049177982
73	0xbd526447	-0.051365163
74	0xbe990a5a	-0.2989071
75	0x3e4b0045	0.19824322
76	0xbe3c194a	-0.18369022
77	0xbe202129	-0.1563765
78	0xbdf81593	-0.1211349
79	0x3e4b2ea6	0.19842014
80	0x3d124802	0.035713203
81	0xbe344270	-0.17603469
82	0xbbe61cfd	-0.0070224986
83	0x3d80c323	0.062872194
84	0xbd07a251	-0.03311378
85	0xbe8abe8b	-0.27098498
86	0x3d3f1c28	0.04665771
87	0xbcb1c1b0	-0.021698803
88	0xbe109635	-0.141198
89	0xbe87fdd1	-0.26560834
90	0x3e419c43	0.18907265
91	0x3dbf8c88	0.09352976
92	0x3d369c12	0.044582434
93	0xbe3a237b	-0.18177597
94	0xbeab9775	-0.3351399
95	0x3d8e192b	0.06938394
96	0xbe0901ba	-0.13379565
97	0xbcf6fcee	-0.030149903
98	0xbe5ce8a6	-0.21573123
99	0x3e33c273	0.17554645
100	0x3e4cbd7e	0.1999416
101	0x3e4e0dff	0.20122527
102	0x3e1ccf9e	0.15313575
103	0x3eaeaa4a	0.34114295
104	0x3e116fd9	0.14202823
105	0x3d5b39f5	0.05352207
106	0xbe6a06ea	-0.228542
107	0x3edf085d	0.43561068
108	0xbdda0fd8	-0.10647553
109	0xbe8966c1	-0.26836208
110	0xbe85577d	-0.2604331
111	0x3d85d652	0.06535019
112	0x3d5ccd29	0.053906593
113	0xbe792ead	-0.24334212
114	0xbdda5c00	-0.10662079
115	0x3dd77d6b	0.105219685
116	0xbe225833	-0.15853958
117	0x3bef7405	0.007307532
118	0xbed12f40	-0.4085636
119	0x3dce1621	0.100628145
120	0xbe6746ad	-0.22585554
121	0xbe510dd6	-0.20415434
122	0x3dca99f0	0.098926425
123	0x3d886393	0.06659617
124	0xbd171e7a	-0.0368943
125	0xbdb62b2d	-0.08894954
126	0x3e45585f	0.19271992
127	0xbd8724e7	-0.065988354
128	0xbe64a465	-0.22328337
129	0x3e9226a8	0.28545117
130	0x3d628c71	0.055309717
131	0x3dbe7d2e	0.0930122
132	0x3e7d3ab3	0.24729423
133	0x3d5c38ff	0.053765293
134	0xbe37629f	-0.17908715
135	0xbe0bbb22	-0.13645604
136	0x3d18007c	0.037109837
137	0x3cba79c1	0.022763135
138	0xbdb7d19e	-0.08975528
139	0x3e43667e	0.19082066
140	0x3da530d3	0.08065953
141	0xb9c41743	-0.00037401365
142	0x3ca4c061	0.020111265
143	0x3ded9741	0.11601115
144	0x3e379c6c	0.17930764
145	0xbdc2dc2e	-0.09514652
146	0xbdab3db0	-0.08361375
147	0x3e104398	0.14088285
148	0xbe59341d	-0.21211286
149	0xbeff1d62	-0.49827105
150	0xbe2995ff	-0.16561125
151	0x3e49a8a3	0.19693236
152	0x3d859a78	0.06523603
153	0xbd60f357	-0.054919567
154	0xbd909e8d	-0.07061491
155	0xbe1faaf5	-0.15592559
156	0x3dac0848	0.08400017
157	0x3d7aba65	0.061212916
158	0x3e8489be	0.2588634
159	0xbe0a4186	-0.13501558
160	0x3df19ab1	0.11797083
161	0x3dababfe	0.08382414
162	0xbd17f284	-0.037096515
163	0x3e18110d	0.14850254
164	0x3c16a34e	0.009194208
165	0xbd967d8d	-0.07348166
166	0xbbf087c6	-0.007340404
167	0x3dc7a073	0.097474
168	0xbdebd1c6	-0.115146205
169	0x3e72c61e	0.23708388
170	0xbd87ed05	-0.06637005
171	0x3d1b4df4	0.03791614
172	0x3c0e175c	0.0086725615
173	0x3d5195ed	0.05116837
174	0xbdeab988	-0.114611685
175	0x3e489b2c	0.19590443
176	0xbd0ce9bf	-0.034402605
177	0xbdb8728c	-0.09006223
178	0xbc606e9c	-0.013698246
179	0xbd3fb7ca	-0.046806134
180	0xbcfc19e2	-0.03077406
181	0x3d3ecfde	0.046584956
182	0x3e379004	0.17926031
183	0x3e24149a	0.16023484
184	0x3d9ccadc	0.0765588
185	0xbda08a01	-0.07838822
186	0xbe252fa2	-0.16131452
187	0xbe008e43	-0.12554269
188	0xbe40eedf	-0.18841122
189	0x3d2c3a66	0.04204788
190	0x3dd614e4	0.10453203
191	0x3d357d9b	0.04430924
192	0x3e2b23d3	0.16712885
193	0x3dde0a34	0.1084179
194	0xbd20ce2d	-0.039259125
195	0x3e348e01	0.17632295
196	0xbe3b68d5	-0.18301709
197	0xbe0b09ad	-0.1357791
198	0x3b55255e	0.0032523493
199	0xbd993804	-0.07481387
200	0x3d7147fe	0.058906548
201	0xbe82cc0e	-0.25546306
202	0xbd29b775	-0.041434724
203	0x3bf8f07a	0.0075970264
204	0xb909ea64	-0.00013152655
205	0xbd637537	-0.055531707
206	0x3d0d2ab9	0.03446457
207	0xbd446a66	-0.047953032
208	0xbdb3d496	-0.08780782
209	0xbed17211	-0.40907338
210	0xbdd0a2ed	-0.101873256
211	0xbda77126	-0.08175878
212	0x3e80d63f	0.25163457
213	0xbd25d3fe	-0.040485375
214	0xbde13103	-0.10995676
215	0x3d0519b7	0.032495227
216	0xbd249b10	-0.04018694
217	0x3de6f652	0.112774506
218	0xbd641ab5	-0.055689532
219	0xbda4541d	-0.08023856
220	0x3bb628e9	0.005559076
221	0xbd481b97	-0.048854437
222	0x3e3837df	0.17990063
223	0x3ef042da	0.46926004
224	0x3ca7b486	0.020471822
225	0xbd370328	-0.044680744
226	0xbeb3f401	-0.35147098
227	0x3e7c9389	0.24665655
228	0x3df67b7c	0.120352715
229	0xbe710077	-0.23535334
230	0x3d973cf4	0.07384673
231	0x3d5f9a5a	0.05459056
232	0xbd93447f	-0.07190799
233	0x3d778891	0.060432974
234	0xbc0d2195	-0.008613964
235	0x3d38d421	0.045124177
236	0xbd87c3f8	-0.06629175
237	0xbedc85e3	-0.43070897
238	0xbeb45052	-0.3521753
239	0xbea50a47	-0.32234403
240	0x3d3afe11	0.045652453
241	0x3eb7101c	0.35754478
242	0xbe4179a5	-0.1889406
243	0xbb80b668	-0.0039279945
244	0xbc1873da	-0.009304965
245	0x3dbad2d9	0.09122247
246	0xbdd69c35	-0.10479013
247	0x3cfa93b8	0.030588016
248	0x3cbf5642	0.02335656
249	0x3ec7a2ce	0.38991398
250	0xbd799574	-0.060933545
251	0xbd94ca8b	-0.072651945
252	0x3c981abb	0.018567434
253	0xbe3fc139	-0.18726052
254	0x3d5558ec	0.052086756
255	0x3e10fa8f	0.1415808

model.rnn.bias_ih_l0 f4 [160]
0	0x3d15c88d	0.036568213
1	0x3ee39065	0.44446102
2	0xbdcf1e16	-0.1011316
3	0x3eb16219	0.34645155
4	0x3dcfdbfa	0.10149379
5	0x3e1ba8c0	0.15201092
6	0x3e460392	0.193373
7	0xbcf811cb	-0.030281922
8	0x3dd932d3	0.10605397
9	0x3ef081e2	0.46974093
10	0x3d9d5f6a	0.076842144
11	0xbdc69617	-0.09696596
12	0x3e630a2e	0.22171852
13	0x3ea62a4e	0.3245415
14	0x3e4366d7	0.19082199
15	0xbd41bc82	-0.047298916
16	0x3e11f15e	0.1425223
17	0x3de612ac	0.1123403
18	0xbd8f8040	-0.070068836
19	0x3e96c83a	0.29449636
20	0x3e8b474c	0.27202833
21	0x3f084fef	0.5324697
22	0x3ecd1af0	0.40059614
23	0x3d74f874	0.059807256
24	0x3e854c29	0.26034668
25	0x3dbea8d3	0.093095444
26	0x3d829ea3	0.06377914
27	0x3e6345de	0.22194621
28	0x3dc0e824	0.09419277
29	0x3e8c4de2	0.2740317
30	0x3e13f06c	0.14447182
31	0x3e3c4a7d	0.1838779
32	0x3e43d8a2	0.19125608
33	0xbce5dc0e	-0.028059032
34	0x3e7b8930	0.24564052
35	0x3e587638	0.21138847
36	0x3e8092c1	0.25111964
37	0x3e020de3	0.1270061
38	0x3dbf937e	0.09354304
39	0x3dab5cef	0.08367335
40	0xbd1ba9dc	-0.038003787
41	0x3e0d4cde	0.13798854
42	0x3e1b119e	0.15143439
43	0xbdca0ab3	-0.09865322
44	0x3d532e83	0.05155803
45	0xbd3be355	-0.045871098
46	0x3e52f9bd	0.2060308
47	0xbcac4f6d	-0.021033967
48	0xbd355500	-0.044270515
49	0xbd1b9d97	-0.037992086
50	0x3deba784	0.115065604
51	0xbd2f6e60	-0.04282987
52	0x3e1d20e3	0.15344577
53	0x3e49b3d9	0.19697513
54	0x3dbe5481	0.092934616
55	0x3e34932f	0.17634271
56	0xbdf45ed0	-0.119321465
57	0x3d0241ce	0.031801037
58	0x3e2aea13	0.16690855
59	0x3dfd7660	0.12376094
60	0x3cad9c3b	0.02119266
61	0xbda23518	-0.07920283
62	0xbdde7071	-0.1086129
63	0xbd13850f	-0.036015566
64	0x3e8013b3	0.2501503
65	0xbd7c2a6f	-0.061563905
66	0xbd9cd472	-0.07657708
67	0x3d720d3e	0.05909466
68	0xbb4bb52f	-0.0031083336
69	0x3ce37fbf	0.027770875
70	0x3d6414d4	0.055683926
71	0xbd5318f6	-0.051537476
72	0xbdd80291	-0.105473645
73	0xbe0e1c1e	-0.13877913
74	0x3ddd9b21	0.10820604
75	0x3e44b1ee	0.192085
76	0xbd6138e4	-0.054985896
77	0x3e18a921	0.14908268
78	0x3da9e389	0.08295352
79	0xbdf9793f	-0.12181329
80	0xbe00a096	-0.12561259
81	0x3e6364d6	0.22206435
82	0xbe3c31d2	-0.1837838
83	0x3e2fac27	0.17155515
84	0xbbb41e91	-0.005496808
85	0x3dde3b4b	0.10851153
86	0x3e20ffb0	0.15722537
87	0x3b243a2a	0.0025059083
88	0xbe235e18	-0.15953863
89	0x3df6f27c	0.12057969
90	0x3d61ab06	0.05509474
91	0xbd9f4cf9	-0.07778353
92	0x3e444a9a	0.19169083
93	0xbe591d94	-0.2120269
94	0xbe135455	-0.14387639
95	0x3da5c7c7	0.08094745
96	0xbe0b713d	-0.13617416
97	0xbe6994b3	-0.2281063
98	0xbd7d04fb	-0.061772328
99	0x3d06ff90	0.032958567
100	0x3de59184	0.112093955
101	0x3dfd92f2	0.12381543
102	0x3e9f521e	0.31117338
103	0x3e481e97	0.19542919
104	0xbc5ce7a7	-0.013482965
105	0xbd99f599	-0.07517547
106	0x3d9df2cb	0.07712325
107	0xbd4df23f	-0.050279852
108	0x3caaef53	0.020866072
109	0x3df5d7b3	0.12004032
110	0xbd2f94a8	-0.04286638
111	0x3dfeae14	0.124355465
112	0xbd157e12	-0.036497183
113	0xbe8b9df3	-0.27268943
114	0xbdad1587	-0.08451372
115	0x3d92e1f6	0.07172005
116	0xbd75ab1f	-0.059977647
117	0xbd5fda27	-0.054651406
118	0xbc8e7e02	-0.01739407
119	0x3e2ec86a	0.1706864
120	0x3e3cf9d0	0.18454671
121	0x3dc6555e	0.09684251
122	0x3a5d5d84	0.0008444416
123	0xbc006fc5	-0.007839148
124	0x3e084aa8	0.13309729
125	0xbd06d4dd	-0.032917846
126	0x3d23ec16	0.04002007
127	0x3db5ac29	0.088707276
128	0x3e4a164c	0.19735068
129	0x3eded6d8	0.43523288
130	0xbdb71eb6	-0.089414045
131	0xbaae3f8e	-0.0013294087
132	0x3dba183c	0.090866536
133	0x3d88b8da	0.06675883
134	0xb98fd43f	-0.0002743322
135	0x3e2b1993	0.16708975
136	0x3da688bf	0.08131551
137	0x3e44e045	0.19226177
138	0x3dd4360b	0.103618704
139	0x3e3c50b4	0.18390161
140	0x3e1a9ab7	0.15098082
141	0xbd1bc75b	-0.038031917
142	0x3d93f0f1	0.0722369
143	0x3e606e31	0.21917035
144	0x3d32eadb	0.043681007
145	0x3e64b789	0.22335638
146	0xbc66e4f7	-0.014092675
147	0x3e10ba0c	0.14133471
148	0x3c330260	0.010925859
149	0x3dd57ab3	0.10423794
150	0xbd2ece64	-0.0426773
151	0xbdb0cc32	-0.08632697
152	0xbcbdb287	-0.023156418
153	0x3e260213	0.16211729
154	0x3e2c5be8	0.16831934
155	0x3e467fe8	0.1938473
156	0x3c887a5d	0.01665991
157	0x3e2b0175	0.16699775
158	0xbc942505	-0.018084059
159	0x3e37eac2	0.17960647

model.rnn.bias_hh_l0 f4 [160]
0	0x3d9ded0a	0.07711227
1	0x3e484be6	0.19560203
2	0xbd898c2e	-0.0671619
3	0x3e896d8b	0.26841387
4	0x3d6fcb3f	0.05854344
5	0x3e7a5cb1	0.24449421
6	0x3e54cbd2	0.20780876
7	0xbe203395	-0.15644677
8	0x3d82845b	0.06372901
9	0x3efbf680	0.49211502
10	0xbde2b183	-0.11069014
11	0x3b4b0ddd	0.0030983605
12	0x3d866496	0.06562154
13	0x3dee3c90	0.11632645
14	0x3eb5560b	0.35417208
15	0xbc6f8f55	-0.014621575
16	0x3ec27b6f	0.37984797
17	0x3e0f15f9	0.13973226
18	0xbd8248bb	-0.063615285
19	0x3ec39c7f	0.38205335
20	0x3ecf4462	0.4048186
21	0x3ecab163	0.3958846
22	0x3e8e41d8	0.2778461
23	0x3e77985e	0.24179217
24	0x3e4bbfa5	0.19897325
25	0x3e94335b	0.2894543
26	0x3d90cfff	0.07070922
27	0x3d00c9f9	0.031442616
28	0x3d87feff	0.066404335
29	0x3d6938da	0.056938984
30	0x3e69163d	0.2276239
31	0x3e9b9222	0.30384928
32	0x3e1e9785	0.15487488
33	0x3e64cdee	0.22344181
34	0x3e87d0d2	0.26526505
35	0x3ec2d11e	0.3805017
36	0x3e9b7ceb	0.30368742
37	0xbd8887e8	-0.06666547
38	0x3e788d30	0.24272609
39	0x3d2d0bba	0.04224751
40	0x3d91a351	0.07111228
41	0x3e001cad	0.12510939
42	0xbc98ea0f	-0.018666295
43	0xbe117344	-0.14204127
44	0x3d1f4a0e	0.038888983
45	0xbd7289d5	-0.059213478
46	0x3e4d163a	0.2002801
47	0xbd9012ef	-0.07034861
48	0x3e444559	0.19167079
49	0xbd7588f1	-0.05994505
50	0x3e292dca	0.16521373
51	0xbd6c3a3e	-0.05767273
52	0x3d95b514	0.073099285
53	0xbc56d8d4	-0.013113219
54	0x3ddabee6	0.10680942
55	0x3e0dfe2d	0.13866492
56	0xbc117c8e	-0.008879794
57	0xba1843ba	-0.0005808432
58	0x3d5274a6	0.051380776
59	0xbd1ad228	-0.037798077
60	0xbd4897b9	-0.04897282
61	0x3c8453c4	0.016153224
62	0xbce5432c	-0.027986132
63	0x3dcae878	0.09907621
64	0x3e010c37	0.12602316
65	0x3db0efff	0.086395256
66	0x3e1633ea	0.14668241
67	0xbe2f04af	-0.1709163
68	0x3dca7294	0.09885135
69	0xbd68655e	-0.056737296
70	0xbd58ab2e	-0.052897625
71	0xbd129b72	-0.035792775
72	0xbcfbd0e8	-0.030739263
73	0x3de62b7e	0.11238764
74	0xbd1da983	-0.038491737
75	0x3cf10323	0.029420441
76	0x3bc61938	0.006045487
77	0x3e13c00a	0.14428726
78	0x3d3c130d	0.045916606
79	0xbd88a465	-0.06671981
80	0xbd335942	-0.043786295
81	0x3e0adf21	0.1356168
82	0xbd68ad6f	-0.056806024
83	0x3df41372	0.119177714
84	0xbcba9991	-0.022778304
85	0xbd129eba	-0.035795905
86	0x3e6bb8b4	0.23019677
87	0x3e214706	0.1574975
88	0x3db149c8	0.08656651
89	0xbdfb0109	-0.12256057
90	0xbd78fcd2	-0.060787983
91	0xbdcc7634	-0.09983483
92	0x3e39b341	0.18134786
93	0xbe49ba0e	-0.1969988
94	0xbc829be3	-0.015943473
95	0x3de92410	0.113838315
96	0xbe17c0c2	-0.14819625
97	0xbe0ba38b	-0.13636605
98	0xbe1221bf	-0.14270686
99	0x3e14b2b9	0.14521302
100	0xbb57971e	-0.003289647
101	0x3e0f8afe	0.14017865
102	0x3e61e652	0.22060516
103	0xbaffff9e	-0.0019531136
104	0x3dac56af	0.08414971
105	0x3e369dca	0.17833629
106	0xbda4b885	-0.08043007
107	0x3e1063dd	0.14100595
108	0xbdf66b72	-0.12032212
109	0xbdfd00d2	-0.12353672
110	0xbdceb99c	-0.10093996
111	0x3d8a51cf	0.06753885
112	0x3e25dd7c	0.16197771
113	0xbd920430	-0.07129705
114	0xbd5cef6d	-0.05393927
115	0x3cf53b2d	0.029935444
116	0xbe0d1189	-0.1377622
117	0xbdc1a4c7	-0.09455257
118	0xbe03faf7	-0.12888704
119	0x3e2f0eee	0.17095539
120	0x3db40d1c	0.08791563
121	0xbabfa4fb	-0.0014621312
122	0x3db72ecb	0.08944472
123	0x3d5db92a	0.054131664
124	0x3be04cca	0.0068450915
125	0xbd2ec956	-0.042672478
126	0x3e1ab7b8	0.15109146
127	0x3dc754bc	0.09732959
128	0x3e831c45	0.25607505
129	0x3eac4a1f	0.336503
130	0xbdfc192c	-0.12309489
131	0xbd690367	-0.05688801
132	0x3e178aa9	0.14798988
133	0x3e3b1092	0.1826804
134	0x3d992839	0.07478375
135	0x3e2d7b89	0.16941656
136	0xbc81ae32	-0.015830133
137	0xbcd2073b	-0.025638213
138	0x3de23153	0.11044564
139	0x3e005c27	0.12535153
140	0x3c91edb7	0.017813547
141	0xbd67d56d	-0.056600023
142	0x3da3e302	0.08002283
143	0x3eb48785	0.35259643
144	0x3e878df3	0.26475486
145	0x3ebe498a	0.3716548
146	0x3e12a2fc	0.14319986
147	0x3d34bf5d	0.04412781
148	0xbdc1c712	-0.09461798
149	0x3dabb32b	0.08383783
150	0xbccf093d	-0.02527296
151	0x3daa86c1	0.083264835
152	0x3e335888	0.1751424
153	0x3da65d9d	0.08123324
154	0x3dceda3e	0.1010022
155	0x3defbe7e	0.117062554
156	0x3a746cf6	0.0009324098
157	0x3e85423e	0.260271
158	0xbc9fd95e	-0.019512828
159	0x3e705c0e	0.23472616

model.rnn.weight_ih_l1 f4 [160, 40]
0	0xbe8e4748	-0.27788758
1	0xbea5033f	-0.3222904
2	0x3de75564	0.11295584
3	0x3c3366ae	0.010949774
4	0x3e5ec11e	0.21753356
5	0x3ce61553	0.02808634
6	0xbde24955	-0.11049143
7	0x3e9f101c	0.31066978
8	0x3de4ff1e	0.11181472
9	0xbf3ba5da	-0.73299944
10	0x3dfcaae9	0.12337286
11	0xbbfad432	-0.00765469
12	0xbd965f62	-0.073424116
13	0x3d9a79ab	0.075427376
14	0x3de054e0	0.109536886
15	0x3d6c7936	0.057732783
16	0x3ea14c47	0.31503507
17	0x3b8ea347	0.0043529603
18	0xbcea1bdf	-0.028577743
19	0x3eb5913a	0.35462362
20	0x3dd2e03b	0.10296675
21	0xbd8e9d0d	-0.06963549
22	0x3e69b7cd	0.2282402
23	0x3eb942b2	0.36183697
24	0x3d0d9117	0.034562197
25	0x3e09f710	0.13473153
26	0x3e9a84a9	0.30179337
27	0xbf01b110	-0.506608
28	0xbdd170ba	-0.10226579
29	0xbf7fd5c9	-0.99935585
30	0xbf3e1d80	-0.74263763
31	0x3ec0eb19	0.37679365
32	0x3e9e732a	0.30947238
33	0xbe200edf	-0.15630673
34	0xbe338587	-0.17531405
35	0xbe067495	-0.1313041
36	0xbe5fd450	-0.21858335
37	0xbf21b40d	-0.6316536
38	0xbe34e172	-0.17664126
39	0x3e0d6f47	0.1381198
40	0xbe86c29e	-0.26320356
41	0x3e8456a1	0.25847343
42	0xbe4c9652	-0.19979218
43	0x3e125c28	0.14292967
44	0x3dfd789d	0.12376521
45	0x3e14f31e	0.14545867
46	0x3d748325	0.05969538
47	0x3e71d41e	0.23616073
48	0xbde66a23	-0.11250713
49	0x3da8a900	0.08235359
50	0xbe9373d5	-0.2879931
51	0x3ebb48ac	0.36578882
52	0x3e902b62	0.28158098
53	0xbdad04ab	-0.08448156
54	0xbe2133ff	-0.15742491
55	0xbe98666b	-0.2976564
56	0xbe8405ff	-0.25785825
57	0xbe8f354e	-0.27970356
58	0xbe4315b6	-0.19051251
59	0x3e45e644	0.1932612
60	0x3e563d5f	0.20921849
61	0x3e805a14	0.25068724
62	0x3eae2c16	0.3401801
63	0x3e846f73	0.2586628
64	0x3dc5cd52	0.09658302
65	0x3e917b81	0.28414539
66	0xbe867952	-0.26264435
67	0xbe718b6f	-0.23588346
68	0xbebc2b32	-0.36751705
69	0xbec73f10	-0.389153
70	0xbe02e9cd	-0.127845
71	0xbdff9bf9	-0.12480921
72	0x3e4e7c9e	0.20164725
73	0xbeb925d8	-0.36161685
74	0xbead7c70	-0.33884
75	0x3d4b843a	0.049686648
76	0xbe6a3dca	-0.22875133
77	0xbeeb368b	-0.4594005
78	0xbe90d094	-0.28284132
79	0x3f3b8d78	0.7326274
80	0xbe9ab845	-0.30218711
81	0x3e99ac93	0.30014476
82	0xbe2b4806	-0.16726694
83	0x3e87421f	0.26417634
84	0x3e3fb709	0.18722166
85	0xbdeb8442	-0.114998356
86	0x3e56f9cf	0.20993732
87	0x3e63ca2d	0.22245093
88	0xbe534523	-0.20631842
89	0x3d9fcd62	0.078028455
90	0xbdedf835	-0.11619607
91	0xbcd5e742	-0.026111249
92	0x3e7c9a94	0.24668342
93	0xbe887af9	-0.2665632
94	0xbe88254d	-0.26590958
95	0x3c7d7226	0.01546911
96	0xbe3f347f	-0.1867237
97	0xbe43eb3c	-0.19132704
98	0xb7a88204	-2.0087704e-05
99	0x3ddd8bff	0.10817718
100	0x3df8dc28	0.121513665
101	0x3df7543d	0.12076614
102	0x3e83b4e3	0.25723943
103	0xbe769f1b	-0.24084131
104	0x3e4e9a70	0.201761
105	0x3e1db732	0.15401915
106	0xbd685330	-0.05671996
107	0x3ed3fed6	0.41405362
108	0xbe08e2b2	-0.13367727
109	0xbd1a5d01	-0.03768635
110	0xbd437d24	-0.047726765
111	0x3d7c71fc	0.06163214
112	0x3e3b1c7f	0.18272589
113	0xbe52788c	-0.20553797
114	0xbcb8668f	-0.022509841
115	0x3db885e3	0.09009912
116	0xbd97b3f1	-0.07407368
117	0xbde2f8bb	-0.11082598
118	0x3e615028	0.22003233
119	0x3e484b80	0.19560051
120	0xbdb3397e	-0.087512
121	0x3f2412a0	0.6409092
122	0xbe2e6ff9	-0.17034902
123	0x3c9717bb	0.018443933
124	0xbdc12289	-0.09430415
125	0xbcf5c21d	-0.029999787
126	0xbd089c44	-0.03335215
127	0xbdc0aa9e	-0.09407543
128	0xbde647f8	-0.11244196
129	0x3eeaad25	0.45835224
130	0xbda2ded1	-0.07952655
131	0x3e163fb1	0.14672734
132	0xbe07378f	-0.13204788
133	0x3d3c5a76	0.045984708
134	0x3c70dc2e	0.014700932
135	0xbda957a3	-0.082686685
136	0xbe460cf1	-0.19340874
137	0xbe41459c	-0.1887421
138	0xbe24858d	-0.1606657
139	0x3e20a370	0.15687346
140	0x3e4643a0	0.19361734
141	0x3e7abf8b	0.2448713
142	0x3c8fe3ab	0.017564615
143	0x3eca14f3	0.39469108
144	0x3e972853	0.29522952
145	0x3cead37e	0.0286653
146	0xbd9f869b	-0.07789346
147	0xbe0d95ed	-0.13826723
148	0xbd012f0a	-0.031539
149	0xbe761896	-0.24032816
150	0xbea7fd5f	-0.32810494
151	0x3e25cf64	0.16192394
152	0xbd7c857b	-0.061650734
153	0xbcf100bc	-0.029419295
154	0xbe6227bf	-0.22085474
155	0x3c9a9daf	0.018874018
156	0xbc2946b2	-0.0103317965
157	0x3e1dc60f	0.15407585
158	0x3e733369	0.2375008
159	0x3f37f570	0.7185888
160	0xbd69130d	-0.056902934
161	0x3bd0a609	0.006367449
162	0xbdea0dd0	-0.11428416
163	0x3e1b7b15	0.15183671
164	0x3cb2d72b	0.021831116
165	0x3b15deab	0.0022868316
166	0x3d1d865f	0.038458224
167	0xbd87201f	-0.065979235
168	0xbde6c9f9	-0.11268992
169	0xbd79e204	-0.06100656
170	0xbe049a79	-0.12949552
171	0xbd6fc799	-0.05853996
172	0x3e30a32f	0.1724975
173	0xbdc561d2	-0.09637798
174	0xbe34bdc2	-0.17650512
175	0xbe2da648	-0.16957963
176	0xbe5da972	-0.2164667
177	0xbe728086	-0.2368184
178	0x3d8f0432	0.06983222
179	0x3e06d3e5	0.13166769
180	0xbd3bcdfc	-0.04585074
181	0x3dc0f380	0.09421444
182	0xbccf9dd4	-0.025343813
183	0xbe902b13	-0.28157863
184	0x3e16d797	0.14730678
185	0xbc99693d	-0.01872694
186	0xbe268461	-0.16261436
187	0x3e9a0468	0.30081487
188	0xbda93c1e	-0.082634196
189	0x3e24cb3f	0.16093157
190	0x3d4ed2fa	0.05049417
191	0xbd690662	-0.056890853
192	0x3de37994	0.111071736
193	0xbe4a4090	-0.19751191
194	0x3c9e4baf	0.019323198
195	0x3d8c28fa	0.06843753
196	0xbe464a17	-0.193642
197	0xbe82f14d	-0.25574723
198	0x3e32b1d1	0.17450644
199	0x3ce499e7	0.027905418
200	0xbca3a077	-0.019973977
201	0x3e289acb	0.16465299
202	0xbd9bcb18	-0.076070964
203	0x3e01b4a4	0.12666565
204	0x3e257286	0.16156968
205	0x3cc8cb90	0.024511129
206	0xba7efd3a	-0.0009727065
207	0xbd817fce	-0.06323205
208	0xbd62a965	-0.05533733
209	0xbd882d01	-0.06649209
210	0xbcc4b26f	-0.024010865
211	0x3dfe2123	0.12408664
212	0xbd90c3f4	-0.07068625
213	0xbe097ec8	-0.1342727
214	0x3dde91fb	0.10867687
215	0xbccb4d05	-0.024817
216	0xbd43f7a3	-0.047843587
217	0xbdedb669	-0.116070576
218	0x3dab41ae	0.08362137
219	0xbd624f72	-0.055251546
220	0x3e417772	0.18893221
221	0x3c8ed014	0.017433204
222	0xbcc74f00	-0.024329662
223	0x3d6e3857	0.0581592
224	0x3e262277	0.16224085
225	0xbdb32455	-0.08747164
226	0xbceec0cd	-0.029144669
227	0xbdc8e329	-0.09808952
228	0x3d445b4b	0.047938626
229	0xbcf4183c	-0.029796712
230	0xbe25a0f7	-0.16174684
231	0x3df842b6	0.12122099
232	0x3a02e9c8	0.00049939426
233	0x3cbdd930	0.023174852
234	0x3d912f33	0.07089081
235	0xbc8b9094	-0.017036714
236	0x3d199574	0.037496045
237	0xbe5b5b0f	-0.21421455
238	0x3e0cf8b3	0.13766746
239	0xbdacbe90	-0.084347844
240	0xbe50bb8d	-0.20384045
241	0x3e9e731d	0.309472
242	0xbdec39d3	-0.115344666
243	0xbd96958e	-0.07352744
244	0x3df85f78	0.12127584
245	0x3e25108c	0.16119593
246	0x3d010f98	0.031509012
247	0x3c6024e8	0.013680674
248	0xbc4c81f3	-0.012482154
249	0xbea5c1e5	-0.32374492
250	0xbce41838	-0.02784358
251	0x3c24dca8	0.010062374
252	0x3deb4bf6	0.11489098
253	0xbd9e0dd0	-0.07717478
254	0x3d776e6c	0.06040804
255	0xbef73f13	-0.4829031

model.rnn.weight_hh_l1 f4 [160, 40]
0	0x3c52756e	0.01284538
1	0xbe4a9e97	-0.1978706
2	0x3d371a3c	0.044702753
3	0xbe9e8f7e	-0.3096885
4	0x3e2b48b9	0.1672696
5	0xbe2bd823	-0.16781668
6	0x3eb52511	0.35379842
7	0xbdba4907	-0.0909596
8	0x3e0e0299	0.13868178
9	0xbbe5381b	-0.0069952137
10	0x3dd5e703	0.104444526
11	0x3db03744	0.08604291
12	0x3e549b1d	0.20762296
13	0xbb9ab3f8	-0.004721161
14	0x3d10b865	0.035332102
15	0xbc23d2a1	-0.009998948
16	0xbe9d8d39	-0.30771807
17	0x3e1f50df	0.15558194
18	0xbf2add65	-0.6674407
19	0xbc8208ca	-0.015873332
20	0xbdbdd62e	-0.09269367
21	0xbe14d346	-0.1453372
22	0x3e825292	0.2545362
23	0xbd9c198b	-0.076220594
24	0x3dcfd9da	0.10148974
25	0xbdeaf7df	-0.11473059
26	0xbe0056cf	-0.12533115
27	0xbce3a88f	-0.027790336
28	0x3af6c430	0.0018826779
29	0xbeb3cb17	-0.35115883
30	0xbe9dd556	-0.30826825
31	0xbeb14535	-0.34623113
32	0x3db364fc	0.087594956
33	0x3c9f7902	0.01946688
34	0xbda5fd31	-0.08104933
35	0x3ead6e91	0.33873418
36	0x3c928b43	0.01788867
37	0x3e406127	0.1878706
38	0x3ef4269a	0.476857
39	0xbbf6f4a8	-0.0075364895
40	0xbd9ea3a6	-0.07746057
41	0x3eba02f2	0.36330372
42	0x3c5460c6	0.012962526
43	0x3e9b51db	0.30335888
44	0x3e40d64d	0.1883175
45	0xbe8b7e5b	-0.2724484
46	0xbc597eb2	-0.013274835
47	0xbe310b6a	-0.1728951
48	0x3e6327e4	0.22183186
49	0x3e3c4374	0.18385106
50	0x3de916d7	0.113813095
51	0x3da503e0	0.0805738
52	0xbde35137	-0.11099475
53	0x3e428be2	0.18998674
54	0x3e838e46	0.25694484
55	0xbc439135	-0.0119364755
56	0x3e011935	0.12607272
57	0xba8ef20b	-0.0010905875
58	0xbe0e3a56	-0.13889441
59	0xbe3f77e9	-0.18698086
60	0xbdb8401b	-0.08996602
61	0xbd480379	-0.048831437
62	0xbdd775a1	-0.10520483
63	0x3df23d23	0.11828067
64	0x3db3583e	0.08757065
65	0x3c16f513	0.009213704
66	0xbc6bdaa0	-0.014395386
67	0x3e12c279	0.14331998
68	0x3e1f4c37	0.15556417
69	0x3f016061	0.5053769
70	0x3d242525	0.040074486
71	0xbc8b985a	-0.01704042
72	0x3e2bb439	0.16767968
73	0x3ccd36db	0.025050571
74	0x3e3e8cf0	0.18608451
75	0x3ca589d9	0.020207332
76	0x3dc92de7	0.09823208
77	0xbe7722c7	-0.2413436
78	0xbf19efd9	-0.60131603
79	0x3db197a3	0.086715005
80	0xbda478dd	-0.08030865
81	0x3e106b74	0.1410349
82	0x3daf8931	0.08571089
83	0xbe40fdcb	-0.18846814
84	0xbd396028	-0.045257717
85	0xbe2c957b	-0.16853897
86	0xbc8d40bf	-0.017242787
87	0x3d89a4b9	0.067208715
88	0xbd06e937	-0.032937255
89	0xbddc2869	-0.10749895
90	0x3dfb112a	0.12259133
91	0xbca09558	-0.019602463
92	0xbbdb62d6	-0.006695132
93	0xbce4215f	-0.027847944
94	0xbd183b26	-0.037165783
95	0xbc172d3d	-0.009227094
96	0x3dbfc14d	0.09363041
97	0x3cd21d2d	0.025648678
98	0xbe1c57b8	-0.15267837
99	0xbd4fe4e5	-0.0507554
100	0xbe1fcfe5	-0.15606649
101	0x3dd2249f	0.10260891
102	0xbc336ccd	-0.010951233
103	0x3c4880b1	0.012237714
104	0xbdc0f467	-0.09421616
105	0x3e29e0fa	0.16589728
106	0xbcd169eb	-0.025563201
107	0x3d7e865a	0.062139846
108	0xbdbfd5ed	-0.09366975
109	0x3ded8e40	0.11599398
110	0xbd9acd70	-0.07558715
111	0xbe060f20	-0.13091707
112	0x3dc5c9ad	0.09657607
113	0x3e120c9e	0.14262626
114	0xbda40f49	-0.08010728
115	0xbe58d2e0	-0.21174192
116	0xbe0fabf2	-0.14030436
117	0x3ded1789	0.115767546
118	0xbef63549	-0.48087528
119	0xbd890b62	-0.06691624
120	0x3de179ec	0.11009583
121	0x3e2f4f9c	0.17120212
122	0x3db13b20	0.08653855
123	0xbe1245c5	-0.14284427
124	0x3e676cad	0.2260005
125	0xbce5ac67	-0.02803631
126	0xbe6dc121	-0.23218204
127	0x3e05b404	0.13056952
128	0x3cee9d2a	0.029127676
129	0x3bce5854	0.0062971506
130	0x3c54642f	0.012963339
131	0x3e12de55	0.14342625
132	0xbe15de0a	-0.14635482
133	0xbe3468cf	-0.17618106
134	0x3e2b8bec	0.16752595
135	0xbd866d7f	-0.065638535
136	0x3d52c545	0.051457662
137	0x3dfc38c4	0.12315515
138	0xbdda6cce	-0.10665284
139	0x3db16f8b	0.08663853
140	0x3ddb0482	0.10694219
141	0xbc86c45f	-0.016451059
142	0x3e4f9c83	0.20274548
143	0xbe732df5	-0.23748
144	0xbe0cc2d2	-0.13746193
145	0xbdf7245a	-0.120674804
146	0xbdf59cc1	-0.11992789
147	0xbe0e35aa	-0.13887659
148	0x3d98efc3	0.07467606
149	0x3b66d337	0.0035221109
150	0xbea6d6a5	-0.32585636
151	0xbe200080	-0.1562519
152	0xbe065961	-0.13120033
153	0x3c245304	0.010029558
154	0xbe13500b	-0.14386003
155	0x3dab9050	0.08377135
156	0x3dbaa5fc	0.0911369
157	0xbf03983f	-0.51404184
158	0x3f19d2e1	0.600874
159	0xbe3f4f44	-0.18682581
160	0xbd96ba52	-0.073597565
161	0xbde58576	-0.11207096
162	0xbe2035ce	-0.15645525
163	0xbe1bfcd2	-0.15233162
164	0x3d702671	0.05863041
165	0xbd553686	-0.05205395
166	0x3e59faee	0.21287128
167	0xbd5430bc	-0.05180429
168	0xbd83b3fd	-0.064308144
169	0x3dd866dd	0.105664946
170	0xbd998f4c	-0.07498035
171	0xbcae1801	-0.02125168
172	0xbc241af4	-0.010016192
173	0xbca9ed8b	-0.020743152
174	0x3b5a20ee	0.0033283788
175	0x3e040de0	0.12895918
176	0xbe09989b	-0.1343712
177	0x3e2fac98	0.17155683
178	0xbdca07ed	-0.09864793
179	0x3da5cfea	0.08096297
180	0xbd7ad559	-0.06123862
181	0x3e0244b7	0.12721525
182	0x3cedac59	0.029012846
183	0x3e0534c6	0.13008413
184	0xbd8f1cc5	-0.06987909
185	0xbc802b38	-0.015645608
186	0x3d890b6f	0.06691634
187	0x3dd5bda5	0.104365624
188	0x3e3d5a4b	0.18491475
189	0x3dddaac3	0.10823586
190	0xbd31160f	-0.043233927
191	0xbd6c9a79	-0.057764504
192	0x3d2b53cb	0.041827958
193	0x3dcf069f	0.10108685
194	0x3e1796f1	0.14803673
195	0xbe38a3f1	-0.18031289
196	0x3d380d48	0.04493454
197	0xbe76205e	-0.24035785
198	0xbe869981	-0.2628899
199	0x3e0c3d9c	0.13695377
200	0xbdf6a376	-0.120428964
201	0xbd407f78	-0.046996564
202	0xbdc16cfe	-0.09444617
203	0xbd960507	-0.07325178
204	0x3e3a5404	0.18196112
205	0xbd7ba3fd	-0.06143569
206	0xbd5f8b5a	-0.054576255
207	0x3d2de0ac	0.042450592
208	0xbcda5974	-0.026653983
209	0x3d7abf9f	0.0612179
210	0x3e01450c	0.12623996
211	0x3e1347a6	0.143828
212	0xbc984c39	-0.018591033
213	0x3e132c1d	0.14372297
214	0xbdcddb89	-0.10051639
215	0xbdddd7b7	-0.1083216
216	0x3d43c5c3	0.047796022
217	0x3a679c14	0.0008835208
218	0x3bbcf6d9	0.005766731
219	0x3cc6ae14	0.024252929
220	0xbdf5a488	-0.119942725
221	0x3c9b8ca2	0.018987957
222	0xbc4136e8	-0.011792876
223	0x3de0e77a	0.10981651
224	0x3ce204b8	0.02759014
225	0x3d40d876	0.047081433
226	0xbd36bc41	-0.044613127
227	0x3d466e4c	0.04844503
228	0x3dbb2241	0.09137393
229	0xba04b14f	-0.00050618214
230	0xbd999679	-0.074994035
231	0xbd9239f7	-0.07139962
232	0x3ce28d94	0.0276554
233	0x3dd23aca	0.102651194
234	0x3d3d6ada	0.04624448
235	0xbd847807	-0.06468206
236	0x3e1e9ad7	0.15488754
237	0xbd38b727	-0.045096543
238	0xbd0e8120	-0.034791112
239	0x3e29f221	0.16596271
240	0x3d262341	0.040560964
241	0x3e7850a2	0.24249509
242	0x3cc7e02e	0.02439889
243	0x3d27c8a5	0.040962834
244	0x3b3996cb	0.002831864
245	0xbe31b832	-0.17355421
246	0xbe10830d	-0.14112492
247	0x3dbdc596	0.09266202
248	0x3e3e9cb4	0.18614465
249	0x3e38fc7c	0.18065065
250	0xbde653a8	-0.11246425
251	0x3ddd4b02	0.10805322
252	0x3de3eb10	0.11128819
253	0xbe0424e1	-0.12904693
254	0xbe484e3e	-0.19561097
255	0x3d7c3048	0.061569482

model.rnn.bias_ih_l1 f4 [160]
0	0x3cf98c92	0.030462537
1	0x3eb9cc07	0.36288473
2	0x3e9d491e	0.30719846
3	0x3dfb1848	0.12260491
4	0x3e17ebe1	0.14836074
5	0x3e75973f	0.23983477
6	0x3e0a99e0	0.13535261
7	0xbdad5829	-0.08464081
8	0x3e5c408d	0.21508999
9	0x3c3c151b	0.011479641
10	0x3e7a3f5c	0.24438232
11	0x3e7bf4e5	0.24605139
12	0x3daab7e6	0.08335857
13	0x3e09067f	0.13381384
14	0x3d3976bf	0.04527926
15	0x3d983517	0.07432001
16	0xbe132431	-0.14369275
17	0x3e1525a7	0.14565144
18	0x3e2f9905	0.17148216
19	0x3e0b48cf	0.13601993
20	0x3dc852e1	0.09781433
21	0x3e64eca6	0.22355899
22	0xbe037c78	-0.1284045
23	0xbd02adad	-0.03190391
24	0x3eb7b8de	0.3588323
25	0x3e3bc3e8	0.18336451
26	0xbc2cca04	-0.010546211
27	0x3e74fe95	0.2392524
28	0x3ed0e90b	0.40802798
29	0xbdbff79c	-0.093733996
30	0x3d249f96	0.040191256
31	0x3e624997	0.22098385
32	0x3ecca743	0.3997136
33	0x3dbdc79e	0.092665896
34	0x3e0b6884	0.13614088
35	0x3bb6e34f	0.0055812965
36	0x3ed26bd1	0.41097882
37	0xbc2dd50f	-0.010609879
38	0x3e2c67ea	0.16836515
39	0x3d27aac8	0.040934354
40	0xbdae7c3e	-0.08519791
41	0x3e0b9531	0.13631131
42	0x3d327e4e	0.043577485
43	0x3e3ac6c8	0.18239892
44	0x3d590f36	0.052993022
45	0x3d805de4	0.06267908
46	0x3dfd1234	0.123569876
47	0x3d771755	0.060324986
48	0xbd492d79	-0.04911563
49	0xbd8139c0	-0.06309843
50	0x3e165124	0.1467939
51	0xbb36e565	-0.0027907726
52	0x3d647c2b	0.05578248
53	0x3e152983	0.14566617
54	0x3bf47461	0.0074601625
55	0x3c8d9b1b	0.017285874
56	0x3e059230	0.13044047
57	0x3cdaeda5	0.026724646
58	0x3d92e1eb	0.07171997
59	0x3d408b3e	0.04700779
60	0x3ddecc15	0.10878769
61	0x3e42a87d	0.19009586
62	0x3dfb1ac9	0.12260968
63	0xbdd83b91	-0.105582364
64	0xbd227658	-0.039663643
65	0xbd4d9bec	-0.050197527
66	0x3ddf02e3	0.108892225
67	0xbd1c6636	-0.038183413
68	0x3d1b9384	0.03798248
69	0xbd96f7d1	-0.07371486
70	0x3dfd8f82	0.123808876
71	0xbc00970e	-0.007848514
72	0xbd2c00c0	-0.041992903
73	0xbd978978	-0.07399267
74	0x3c3fa064	0.011695955
75	0x3dd858a2	0.1056378
76	0x3dd8d9b8	0.105884016
77	0x3b84aa0d	0.004048592
78	0xbc7ad16a	-0.015308717
79	0x3e55f591	0.20894457
80	0xbdee1066	-0.116242215
81	0xbe1f0e39	-0.1553277
82	0x3d1d17dc	0.038352832
83	0xbb9e33db	-0.004827959
84	0xbdae1331	-0.08499754
85	0xbe2157ce	-0.15756151
86	0x3e03ed9f	0.12883614
87	0x3cf3b991	0.02975157
88	0x3e84b8d3	0.2592226
89	0x3bf18ce6	0.0073715327
90	0x3e92637e	0.28591532
91	0x3e1c84ad	0.15284987
92	0x3e686f25	0.22698648
93	0xbd3c88e5	-0.04602899
94	0x3dce5b46	0.10076003
95	0x3c1b0913	0.009462613
96	0x3d475e49	0.0486739
97	0xbd78e4d8	-0.060765117
98	0xbde9e3ce	-0.114204034
99	0xbe006138	-0.12537086
100	0xbe0d086e	-0.13772747
101	0xbdbd5694	-0.09245029
102	0x3c9f7d9f	0.01946908
103	0x3e02f131	0.1278732
104	0x3e0bdafe	0.13657758
105	0x3e0c9396	0.13728175
106	0xbde585fd	-0.11207197
107	0x3d4636ae	0.04839199
108	0x3e86f0f9	0.26355723
109	0x3dc035ba	0.093852475
110	0xbe15e478	-0.14637935
111	0x3dd22e2f	0.10262715
112	0xbb4aa462	-0.0030920734
113	0x3d123a07	0.03569987
114	0xbe81d05e	-0.25354284
115	0xbd8c12f4	-0.068395525
116	0x3e1b0e4b	0.15142171
117	0xbe49fcef	-0.19725393
118	0xbe0f6c80	-0.14006233
119	0x3de350cf	0.110993974
120	0x3e164f67	0.14678727
121	0xbd976abf	-0.07393407
122	0xbdaec371	-0.08533371
123	0x3d050d6e	0.03248351
124	0x3e03c605	0.12868507
125	0x3d9cf593	0.07664027
126	0x3e287750	0.16451764
127	0x3db33050	0.08749449
128	0x3d425e48	0.047453195
129	0xbdcb1a01	-0.09917069
130	0x3b35b1f6	0.0027724481
131	0x3e5f27e0	0.21792555
132	0x3ebf1b28	0.37325406
133	0xbdb23008	-0.087005675
134	0xbe080ae9	-0.13285412
135	0x3e900e7f	0.2813606
136	0xbdaa0df1	-0.0830344
137	0x3e4c12d7	0.19929062
138	0x3ea7c543	0.32767686
139	0x3e2c5bf1	0.16831948
140	0x3da60ed3	0.08108296
141	0x3ea82cad	0.32846585
142	0x3e2646a0	0.16237879
143	0x3e74d108	0.23907864
144	0xbd5ea8ba	-0.05436013
145	0xbd1f5ad3	-0.038904976
146	0xbd479356	-0.048724495
147	0x3e3d5664	0.18489987
148	0x3e19980b	0.14999406
149	0xbd02d58c	-0.031941935
150	0x3e3cfb13	0.18455152
151	0x3daee426	0.085396096
152	0xbd846d42	-0.06466152
153	0x3d0e52b9	0.03474686
154	0x3ca034d0	0.019556433
155	0x3e5aa8b9	0.21353425
156	0x3e8970f2	0.26843983
157	0xbc0da207	-0.008644587
158	0x3df86c6d	0.121300556
159	0x3ddde960	0.108355284

model.rnn.bias_hh_l1 f4 [160]
0	0x3e153b2a	0.1457335
1	0x3ed3e765	0.41387478
2	0x3d9e03e0	0.07715583
3	0x3d28ed4c	0.04124193
4	0xbc696026	-0.014244115
5	0x3c416e1e	0.011806039
6	0xbd42d11c	-0.047562703
7	0xbd90176d	-0.07035718
8	0x3db4dab1	0.088307746
9	0xbd3abfce	-0.045593075
10	0x3e3f2415	0.18666108
11	0x3db02deb	0.08602508
12	0x3e3626bb	0.17788212
13	0x3e0522b0	0.13001513
14	0xbd93cd96	-0.07216947
15	0x3e11e7cb	0.14248578
16	0xbd62dc52	-0.055385895
17	0x3e9ac638	0.30229354
18	0x3d666ae2	0.056254275
19	0x3e9c78fa	0.30561048
20	0x3be8d7d3	0.0071058064
21	0x3de86f23	0.11349323
22	0x3a46907d	0.0007574631
23	0x3d843457	0.064552955
24	0x3e91ea22	0.28498942
25	0x3dd62b3d	0.10457466
26	0x3d8ba3b1	0.06818331
27	0x3d91f3d2	0.07126583
28	0x3e99a3c6	0.30007762
29	0xbd9ae1ff	-0.075626366
30	0x3cc2853a	0.023745168
31	0x3e8efa39	0.2792528
32	0x3ec720dc	0.38892257
33	0xbd159f76	-0.036529027
34	0x3e6323ad	0.22181578
35	0x3d86fdbd	0.065913655
36	0x3e50eb74	0.20402318
37	0x3d3cb484	0.04607059
38	0x3d8286be	0.06373356
39	0x3e8c8fcb	0.27453455
40	0xbcabf11f	-0.020988999
41	0xbd5fe1d2	-0.05465872
42	0x3e078e32	0.13237837
43	0xbd507464	-0.05089225
44	0x3db60e3a	0.08889432
45	0x3e37f8f9	0.1796607
46	0x3d461f6d	0.048369814
47	0x3c1e2aaf	0.009653731
48	0x3a886a48	0.0010407651
49	0x3d500f5d	0.0507959
50	0x3e5f6603	0.21816258
51	0xbdddbedc	-0.10827419
52	0x3e3af61d	0.18257947
53	0xbbdefea2	-0.006805257
54	0x3d55a8d6	0.052162968
55	0x3e49d97f	0.19711874
56	0xbd76e499	-0.0602766
57	0x3d044fc6	0.03230264
58	0x3e61c8f2	0.22049311
59	0x3d199e79	0.037504647
60	0x3d98c23d	0.07458923
61	0x3e110d3c	0.14165205
62	0x3da7dc9c	0.08196375
63	0xbd2c2908	-0.042031318
64	0xbda76414	-0.08173385
65	0xbdb344e9	-0.08753378
66	0x3dddcd5a	0.10830183
67	0x3c290432	0.010315942
68	0x3e3231e3	0.17401843
69	0xbc2ae719	-0.010431075
70	0xbdc6d5c8	-0.09708744
71	0x3d856de2	0.06515099
72	0x3d292151	0.04129154
73	0x3ccff538	0.025385484
74	0x3de288eb	0.11061271
75	0x3ddc8893	0.10768237
76	0x3e1d421b	0.15357248
77	0x3d3178cc	0.04332809
78	0x3d3e312a	0.046433605
79	0x3d8221cd	0.06354103
80	0xbdb07ffb	-0.0861816
81	0xbd405d93	-0.04696424
82	0xbe6d6f38	-0.23186958
83	0xbe23a10e	-0.15979406
84	0xbd99f437	-0.075172834
85	0x3d10d7a6	0.03536191
86	0x3dd4face	0.103994
87	0x3e1cf5cd	0.1532814
88	0x3ca9237a	0.0206468
89	0x3d6317b9	0.055442546
90	0x3e8d7869	0.27630928
91	0x3e88e780	0.2673912
92	0x3c727056	0.014797291
93	0xbd69243d	-0.056919325
94	0x3e208f75	0.15679725
95	0x3e77dda8	0.24205649
96	0xbd474a9f	-0.04865515
97	0x3e0563f7	0.13026415
98	0x3cab5344	0.020913728
99	0xbe1ede15	-0.15514405
100	0xbe1087b5	-0.14114268
101	0xbe407dce	-0.1879799
102	0xbdba2055	-0.09088198
103	0x3d850a89	0.0649615
104	0x3def517b	0.11685463
105	0x3e86c88c	0.2632488
106	0x3df183ea	0.11792739
107	0x3e7c3ebe	0.24633309
108	0xbc6ecdaa	-0.014575401
109	0x3dc7c0c3	0.09753563
110	0x3c908673	0.017642235
111	0x3dd81aba	0.10551973
112	0x3cdaee5a	0.026724983
113	0x3e8f3a6f	0.2797427
114	0xbe7cb636	-0.24678883
115	0xbd9a9173	-0.075472735
116	0x3e6b4cc0	0.22978497
117	0xbd4cbc34	-0.049984172
118	0x3d5a4d3d	0.053296316
119	0x3e057699	0.13033523
120	0x3e235c20	0.15953112
121	0xbdc24014	-0.09484878
122	0xbd2abadd	-0.041682113
123	0x3e450cf9	0.1924323
124	0xbd7d31c0	-0.061815023
125	0x3cdf50da	0.027260233
126	0xbd78f90f	-0.060784396
127	0x3c770b73	0.015078413
128	0xbdb88420	-0.09009576
129	0x3d862d7e	0.06551646
130	0x3e52bcb3	0.20579796
131	0x3e88c9b1	0.26716378
132	0x3ee7c2df	0.45265862
133	0x3df8ccc6	0.121484324
134	0x3d820db5	0.06350271
135	0x3e726bdc	0.23673958
136	0x3d08ac81	0.033367638
137	0x3e0c7e6a	0.13720098
138	0x3d82514e	0.06363164
139	0x3d46fd22	0.04858125
140	0xbdc65c3c	-0.09685561
141	0x3ebf2364	0.37331688
142	0x3c9bef33	0.019034958
143	0x3e375460	0.1790328
144	0xbd9755f7	-0.07389443
145	0xbd54b4f2	-0.051930375
146	0x3d8adad4	0.067800194
147	0x3d30a799	0.043128584
148	0x3dd04599	0.10169525
149	0xbdb80488	-0.08985239
150	0xbd10e9f3	-0.03537936
151	0xbdd433e9	-0.103614636
152	0x3dc97af7	0.09837907
153	0x3e288c50	0.16459775
154	0x3e68f85e	0.22750995
155	0x3e4002f0	0.1875112
156	0x3db3dc1b	0.08782216
157	0x3e1ec344	0.15504175
158	0x3e94ecb7	0.2908685
159	0xbda0cebf	-0.07851934

exp_avg f4 [1, 40]
0	0x3789728d	1.6385015e-05
1	0xb7e99bf3	-2.7848384e-05
2	0x37eeb459	2.8455792e-05
3	0xb82e67ca	-4.1581494e-05
4	0xb7437bfc	-1.1651773e-05
5	0x374646d8	1.1818214e-05
6	0x361f87aa	2.3771813e-06
7	0xb7bb5bf4	-2.2334956e-05
8	0xb76ff2a9	-1.4302009e-05
9	0xb71088b6	-8.614899e-06
10	0xb7d32999	-2.517253e-05
11	0x37e5c970	2.7392729e-05
12	0xb7550e74	-1.26991545e-05
13	0x3787b052	1.617536e-05
14	0xb74dd12e	-1.2267656e-05
15	0xb82f4199	-4.1784344e-05
16	0x37afb752	2.094699e-05
17	0xb7fa4816	-2.983589e-05
18	0xb5b69eb8	-1.360625e-06
19	0x37dc79e2	2.62828e-05
20	0x370e52a1	8.483098e-06
21	0x38294981	4.0361196e-05
22	0x37264178	9.909614e-06
23	0xb81b415e	-3.7015758e-05
24	0xb69a284d	-4.5942493e-06
25	0xb7052254	-7.93541e-06
26	0xb73db45c	-1.1307271e-05
27	0xb7d53995	-2.5418392e-05
28	0xb7d42977	-2.5291678e-05
29	0xb80a0fd7	-3.2916516e-05
30	0x375d556c	1.3192515e-05
31	0xb5abffe2	-1.2814965e-06
32	0xb78449bb	-1.576996e-05
33	0xb7a3d6f0	-1.9531202e-05
34	0xb59658c8	-1.120171e-06
35	0xb610d757	-2.1583016e-06
36	0xb7d6e3f4	-2.5616937e-05
37	0x38ac2dc6	8.210125e-05
38	0xb70fe7a4	-8.577397e-06
39	0xb761c563	-1.3457003e-05

exp_avg_sq f4 [1, 40]
0	0x36182e98	2.2676886e-06
1	0x34cab876	3.7759645e-07
2	0x33f7828a	1.1525579e-07
3	0x33e53026	1.06724016e-07
4	0x348d60f2	2.6333834e-07
5	0x342e457a	1.6230288e-07
6	0x35379081	6.8383093e-07
7	0x338f947c	6.6859656e-08
8	0x35c773a2	1.4860309e-06
9	0x3553a6e1	7.8846466e-07
10	0x369a9e90	4.6080168e-06
11	0x352351bf	6.084119e-07
12	0x35fc077f	1.8777645e-06
13	0x359bc005	1.1604285e-06
14	0x352580b3	6.165457e-07
15	0x3645efd8	2.9494895e-06
16	0x3395bc07	6.972555e-08
17	0x35c17103	1.4412511e-06
18	0x367c6031	3.7606917e-06
19	0x362861f7	2.5090974e-06
20	0x3522061b	6.035859e-07
21	0x36547373	3.1657662e-06
22	0x347a08f0	2.3286316e-07
23	0x3610b0b4	2.1560527e-06
24	0x35d906ab	1.61697e-06
25	0x34a2107f	3.0186854e-07
26	0x3451e040	1.9546223e-07
27	0x366ebb7d	3.5573896e-06
28	0x36630f8e	3.383469e-06
29	0x35223abe	6.0435184e-07
30	0x34b0d22b	3.2935472e-07
31	0x355c8d49	8.2161984e-07
32	0x35eccc5e	1.7642849e-06
33	0x34eb0aae	4.3779932e-07
34	0x36545384	3.1639074e-06
35	0x35147c77	5.5315417e-07
36	0x35e2ab88	1.6888234e-06
37	0x3362b980	5.2788437e-08
38	0x35b0d801	1.3175887e-06
39	0x3550aa3d	7.773377e-07

exp_avg f4 [1, 40]
0	0x3d5057ec	0.0508651
1	0x3dac3a8c	0.084096044
2	0x3d147395	0.03624304
3	0xbcaad55e	-0.020853695
4	0xbcadb974	-0.021206595
5	0x3d222d75	0.039594132
6	0xbd99fa02	-0.07518388
7	0x3d85a5c8	0.06525761
8	0xbbd04d90	-0.0063569024
9	0xbd330c3c	-0.04371284
10	0xbc7e9f88	-0.015540965
11	0xbd7d173c	-0.061789736
12	0xbc6adeba	-0.014335329
13	0xbd203a46	-0.039118074
14	0xbbc85aa8	-0.0061143227
15	0xbd01f744	-0.03172995
16	0xbd4d8476	-0.050175153
17	0xbd4c231e	-0.049838178
18	0x3d1c2110	0.03811747
19	0x3d49fdd8	0.04931435
20	0x3cde877c	0.027164213
21	0x3d4f0178	0.05053851
22	0xbc7dc901	-0.015489818
23	0x3c3ce37c	0.011528846
24	0xbd4093c8	-0.047015935
25	0xbcf07afc	-0.029355519
26	0x3d1cee5e	0.038313262
27	0xbd22fd22	-0.039792188
28	0xbd78fae8	-0.060786158
29	0x3c3c7db2	0.0115045775
30	0xbc952de2	-0.018210355
31	0x3d975a32	0.0739025
32	0xbd0e69bc	-0.034768805
33	0xbd1ce422	-0.038303502
34	0xbd28eb60	-0.041240096
35	0xbd02dcf8	-0.031949013
36	0xbd569d20	-0.05239594
37	0xbda9fe42	-0.08300449
38	0x3cb347e0	0.021884859
39	0xbd30cc84	-0.04316379
